#map = affine_map<(d0) -> (d0 * 128 + 127)>
#map1 = affine_map<(d0) -> (d0 * 128)>
module {
  func.func @kernel_ttmc0(%arg0: memref<2x16x32xf32, 2>, %arg1: memref<16x16xf32, 2>, %arg2: memref<32x16xf32, 2>) -> memref<2x16x16xf32, 2> attributes {adf.kernel, edge_kernel} {
    %cst = arith.constant 0.000000e+00 : f32
    %alloc = memref.alloc() : memref<2x16x16xf32, 2>
    affine.for %arg3 = 0 to 2 {
      affine.for %arg4 = 0 to 16 {
        affine.for %arg5 = 0 to 16 {
          affine.store %cst, %alloc[%arg3, %arg4, %arg5] : memref<2x16x16xf32, 2>
        }
      }
    }
    affine.for %arg3 = 0 to 2 {
      affine.for %arg4 = 0 to 16 {
        affine.for %arg5 = 0 to 16 {
          affine.for %arg6 = 0 to 16 {
            affine.for %arg7 = 0 to 32 {
              %0 = affine.load %arg0[%arg3, %arg6, %arg7] : memref<2x16x32xf32, 2>
              %1 = affine.load %arg1[%arg6, %arg4] : memref<16x16xf32, 2>
              %2 = arith.mulf %0, %1 : f32
              %3 = affine.load %arg2[%arg7, %arg5] : memref<32x16xf32, 2>
              %4 = arith.mulf %2, %3 : f32
              %5 = affine.load %alloc[%arg3, %arg4, %arg5] : memref<2x16x16xf32, 2>
              %6 = arith.addf %5, %4 : f32
              affine.store %6, %alloc[%arg3, %arg4, %arg5] : memref<2x16x16xf32, 2>
            }
          }
        }
      }
    }
    return %alloc : memref<2x16x16xf32, 2>
  }
  func.func @kernel_ttmc(%arg0: memref<2x16x32xf32, 2>, %arg1: memref<16x16xf32, 2>, %arg2: memref<32x16xf32, 2>, %arg3: memref<2x16x16xf32, 2>) -> memref<2x16x16xf32, 2> attributes {adf.kernel} {
    %alloc = memref.alloc() : memref<2x16x16xf32, 2>
    affine.for %arg4 = 0 to 2 {
      affine.for %arg5 = 0 to 16 {
        affine.for %arg6 = 0 to 16 {
          %0 = affine.load %arg3[%arg4, %arg5, %arg6] : memref<2x16x16xf32, 2>
          affine.store %0, %alloc[%arg4, %arg5, %arg6] : memref<2x16x16xf32, 2>
          affine.for %arg7 = 0 to 16 {
            affine.for %arg8 = 0 to 32 {
              %1 = affine.load %arg0[%arg4, %arg7, %arg8] : memref<2x16x32xf32, 2>
              %2 = affine.load %arg1[%arg7, %arg5] : memref<16x16xf32, 2>
              %3 = arith.mulf %1, %2 : f32
              %4 = affine.load %arg2[%arg8, %arg6] : memref<32x16xf32, 2>
              %5 = arith.mulf %3, %4 : f32
              %6 = affine.load %alloc[%arg4, %arg5, %arg6] : memref<2x16x16xf32, 2>
              %7 = arith.addf %6, %5 : f32
              affine.store %7, %alloc[%arg4, %arg5, %arg6] : memref<2x16x16xf32, 2>
            }
          }
        }
      }
    }
    return %alloc : memref<2x16x16xf32, 2>
  }
  func.func @adf_cell0(%arg0: !adf.plio<In, 128>, %arg1: !adf.plio<In, 128>, %arg2: !adf.plio<In, 128>, %arg3: !adf.plio<In, 128>, %arg4: !adf.plio<In, 128>, %arg5: !adf.plio<Out, 128>, %arg6: !adf.plio<In, 128>, %arg7: !adf.plio<In, 128>, %arg8: !adf.plio<Out, 128>, %arg9: !adf.plio<In, 128>, %arg10: !adf.plio<In, 128>, %arg11: !adf.plio<Out, 128>, %arg12: !adf.plio<In, 128>, %arg13: !adf.plio<In, 128>, %arg14: !adf.plio<Out, 128>, %arg15: !adf.plio<In, 128>, %arg16: !adf.plio<In, 128>, %arg17: !adf.plio<Out, 128>, %arg18: !adf.plio<In, 128>, %arg19: !adf.plio<In, 128>, %arg20: !adf.plio<Out, 128>, %arg21: !adf.plio<In, 128>, %arg22: !adf.plio<In, 128>, %arg23: !adf.plio<Out, 128>, %arg24: !adf.plio<In, 128>, %arg25: !adf.plio<In, 128>, %arg26: !adf.plio<Out, 128>, %arg27: !adf.plio<In, 128>, %arg28: !adf.plio<In, 128>, %arg29: !adf.plio<Out, 128>, %arg30: !adf.plio<In, 128>, %arg31: !adf.plio<In, 128>, %arg32: !adf.plio<Out, 128>, %arg33: !adf.plio<In, 128>, %arg34: !adf.plio<In, 128>, %arg35: !adf.plio<Out, 128>, %arg36: !adf.plio<In, 128>, %arg37: !adf.plio<In, 128>, %arg38: !adf.plio<Out, 128>, %arg39: !adf.plio<In, 128>, %arg40: !adf.plio<Out, 128>, %arg41: !adf.plio<Out, 128>, %arg42: !adf.plio<Out, 128>, %arg43: !adf.plio<Out, 128>, %arg44: !adf.plio<Out, 128>, %arg45: !adf.plio<Out, 128>, %arg46: !adf.plio<Out, 128>, %arg47: !adf.plio<Out, 128>, %arg48: !adf.plio<Out, 128>, %arg49: !adf.plio<Out, 128>, %arg50: !adf.plio<Out, 128>, %arg51: !adf.plio<Out, 128>, %arg52: !adf.plio<In, 128>, %arg53: !adf.plio<Out, 128>, %arg54: !adf.plio<Out, 128>, %arg55: !adf.plio<Out, 128>, %arg56: !adf.plio<Out, 128>, %arg57: !adf.plio<Out, 128>, %arg58: !adf.plio<Out, 128>, %arg59: !adf.plio<Out, 128>, %arg60: !adf.plio<Out, 128>, %arg61: !adf.plio<Out, 128>, %arg62: !adf.plio<Out, 128>, %arg63: !adf.plio<Out, 128>, %arg64: !adf.plio<Out, 128>, %arg65: !adf.plio<In, 128>, %arg66: !adf.plio<Out, 128>, %arg67: !adf.plio<Out, 128>, %arg68: !adf.plio<Out, 128>, %arg69: !adf.plio<Out, 128>, %arg70: !adf.plio<Out, 128>, %arg71: !adf.plio<Out, 128>, %arg72: !adf.plio<Out, 128>, %arg73: !adf.plio<Out, 128>, %arg74: !adf.plio<Out, 128>, %arg75: !adf.plio<Out, 128>, %arg76: !adf.plio<Out, 128>, %arg77: !adf.plio<Out, 128>, %arg78: !adf.plio<In, 128>, %arg79: !adf.plio<Out, 128>, %arg80: !adf.plio<Out, 128>, %arg81: !adf.plio<Out, 128>, %arg82: !adf.plio<Out, 128>, %arg83: !adf.plio<Out, 128>, %arg84: !adf.plio<Out, 128>, %arg85: !adf.plio<Out, 128>, %arg86: !adf.plio<Out, 128>, %arg87: !adf.plio<Out, 128>, %arg88: !adf.plio<Out, 128>, %arg89: !adf.plio<Out, 128>, %arg90: !adf.plio<Out, 128>, %arg91: !adf.plio<In, 128>, %arg92: !adf.plio<Out, 128>, %arg93: !adf.plio<Out, 128>, %arg94: !adf.plio<Out, 128>, %arg95: !adf.plio<Out, 128>, %arg96: !adf.plio<Out, 128>, %arg97: !adf.plio<Out, 128>, %arg98: !adf.plio<Out, 128>, %arg99: !adf.plio<Out, 128>, %arg100: !adf.plio<Out, 128>, %arg101: !adf.plio<Out, 128>, %arg102: !adf.plio<Out, 128>, %arg103: !adf.plio<Out, 128>, %arg104: !adf.plio<In, 128>, %arg105: !adf.plio<Out, 128>, %arg106: !adf.plio<Out, 128>, %arg107: !adf.plio<Out, 128>, %arg108: !adf.plio<Out, 128>, %arg109: !adf.plio<Out, 128>, %arg110: !adf.plio<Out, 128>, %arg111: !adf.plio<Out, 128>, %arg112: !adf.plio<Out, 128>, %arg113: !adf.plio<Out, 128>, %arg114: !adf.plio<Out, 128>, %arg115: !adf.plio<Out, 128>, %arg116: !adf.plio<Out, 128>, %arg117: !adf.plio<In, 128>, %arg118: !adf.plio<Out, 128>, %arg119: !adf.plio<Out, 128>, %arg120: !adf.plio<Out, 128>, %arg121: !adf.plio<Out, 128>, %arg122: !adf.plio<Out, 128>, %arg123: !adf.plio<Out, 128>, %arg124: !adf.plio<Out, 128>, %arg125: !adf.plio<Out, 128>, %arg126: !adf.plio<Out, 128>, %arg127: !adf.plio<Out, 128>, %arg128: !adf.plio<Out, 128>, %arg129: !adf.plio<Out, 128>) attributes {adf.cell, tripCount = [2 : index, 12 : index, 8 : index]} {
    %c48 = arith.constant 48 : index
    %c47 = arith.constant 47 : index
    %c44 = arith.constant 44 : index
    %c43 = arith.constant 43 : index
    %c40 = arith.constant 40 : index
    %c39 = arith.constant 39 : index
    %c36 = arith.constant 36 : index
    %c35 = arith.constant 35 : index
    %c32 = arith.constant 32 : index
    %c31 = arith.constant 31 : index
    %c28 = arith.constant 28 : index
    %c27 = arith.constant 27 : index
    %c24 = arith.constant 24 : index
    %c23 = arith.constant 23 : index
    %c20 = arith.constant 20 : index
    %c19 = arith.constant 19 : index
    %c16 = arith.constant 16 : index
    %c15 = arith.constant 15 : index
    %c12 = arith.constant 12 : index
    %c11 = arith.constant 11 : index
    %c8 = arith.constant 8 : index
    %c7 = arith.constant 7 : index
    %c4 = arith.constant 4 : index
    %c3 = arith.constant 3 : index
    %c46 = arith.constant 46 : index
    %c45 = arith.constant 45 : index
    %c42 = arith.constant 42 : index
    %c41 = arith.constant 41 : index
    %c38 = arith.constant 38 : index
    %c37 = arith.constant 37 : index
    %c34 = arith.constant 34 : index
    %c33 = arith.constant 33 : index
    %c30 = arith.constant 30 : index
    %c29 = arith.constant 29 : index
    %c26 = arith.constant 26 : index
    %c25 = arith.constant 25 : index
    %c22 = arith.constant 22 : index
    %c21 = arith.constant 21 : index
    %c18 = arith.constant 18 : index
    %c17 = arith.constant 17 : index
    %c14 = arith.constant 14 : index
    %c13 = arith.constant 13 : index
    %c10 = arith.constant 10 : index
    %c9 = arith.constant 9 : index
    %c6 = arith.constant 6 : index
    %c5 = arith.constant 5 : index
    %c2 = arith.constant 2 : index
    %c12288 = arith.constant 12288 : index
    %c4096 = arith.constant 4096 : index
    %c24576 = arith.constant 24576 : index
    %c16384 = arith.constant 16384 : index
    %c8192 = arith.constant 8192 : index
    %c0 = arith.constant 0 : index
    %c1 = arith.constant 1 : index
    adf.config.plio(%arg5, 250) {"col, chl" = [6 : index, 4 : index]} : <Out, 128>
    adf.config.plio(%arg8, 250) {"col, chl" = [6 : index, 2 : index]} : <Out, 128>
    adf.config.plio(%arg11, 250) {"col, chl" = [9 : index, 4 : index]} : <Out, 128>
    adf.config.plio(%arg14, 250) {"col, chl" = [13 : index, 4 : index]} : <Out, 128>
    adf.config.plio(%arg17, 250) {"col, chl" = [17 : index, 4 : index]} : <Out, 128>
    adf.config.plio(%arg20, 250) {"col, chl" = [21 : index, 4 : index]} : <Out, 128>
    adf.config.plio(%arg23, 250) {"col, chl" = [25 : index, 4 : index]} : <Out, 128>
    adf.config.plio(%arg26, 250) {"col, chl" = [29 : index, 4 : index]} : <Out, 128>
    adf.config.plio(%arg29, 250) {"col, chl" = [33 : index, 4 : index]} : <Out, 128>
    adf.config.plio(%arg32, 250) {"col, chl" = [37 : index, 4 : index]} : <Out, 128>
    adf.config.plio(%arg35, 250) {"col, chl" = [41 : index, 4 : index]} : <Out, 128>
    adf.config.plio(%arg1, 250) {"col, chl" = [23 : index, 4 : index]} : <In, 128>
    adf.config.plio(%arg38, 250) {"col, chl" = [44 : index, 4 : index]} : <Out, 128>
    adf.config.plio(%arg40, 250) {"col, chl" = [6 : index, 0 : index]} : <Out, 128>
    adf.config.plio(%arg41, 250) {"col, chl" = [7 : index, 4 : index]} : <Out, 128>
    adf.config.plio(%arg42, 250) {"col, chl" = [9 : index, 2 : index]} : <Out, 128>
    adf.config.plio(%arg43, 250) {"col, chl" = [13 : index, 2 : index]} : <Out, 128>
    adf.config.plio(%arg44, 250) {"col, chl" = [17 : index, 2 : index]} : <Out, 128>
    adf.config.plio(%arg45, 250) {"col, chl" = [21 : index, 2 : index]} : <Out, 128>
    adf.config.plio(%arg46, 250) {"col, chl" = [25 : index, 2 : index]} : <Out, 128>
    adf.config.plio(%arg47, 250) {"col, chl" = [29 : index, 2 : index]} : <Out, 128>
    adf.config.plio(%arg48, 250) {"col, chl" = [33 : index, 2 : index]} : <Out, 128>
    adf.config.plio(%arg49, 250) {"col, chl" = [37 : index, 2 : index]} : <Out, 128>
    adf.config.plio(%arg50, 250) {"col, chl" = [41 : index, 2 : index]} : <Out, 128>
    adf.config.plio(%arg39, 250) {"col, chl" = [23 : index, 2 : index]} : <In, 128>
    adf.config.plio(%arg51, 250) {"col, chl" = [44 : index, 2 : index]} : <Out, 128>
    adf.config.plio(%arg53, 250) {"col, chl" = [7 : index, 2 : index]} : <Out, 128>
    adf.config.plio(%arg54, 250) {"col, chl" = [7 : index, 0 : index]} : <Out, 128>
    adf.config.plio(%arg55, 250) {"col, chl" = [9 : index, 0 : index]} : <Out, 128>
    adf.config.plio(%arg56, 250) {"col, chl" = [13 : index, 0 : index]} : <Out, 128>
    adf.config.plio(%arg57, 250) {"col, chl" = [17 : index, 0 : index]} : <Out, 128>
    adf.config.plio(%arg58, 250) {"col, chl" = [21 : index, 0 : index]} : <Out, 128>
    adf.config.plio(%arg59, 250) {"col, chl" = [25 : index, 0 : index]} : <Out, 128>
    adf.config.plio(%arg60, 250) {"col, chl" = [29 : index, 0 : index]} : <Out, 128>
    adf.config.plio(%arg61, 250) {"col, chl" = [33 : index, 0 : index]} : <Out, 128>
    adf.config.plio(%arg62, 250) {"col, chl" = [37 : index, 0 : index]} : <Out, 128>
    adf.config.plio(%arg63, 250) {"col, chl" = [41 : index, 0 : index]} : <Out, 128>
    adf.config.plio(%arg52, 250) {"col, chl" = [23 : index, 0 : index]} : <In, 128>
    adf.config.plio(%arg64, 250) {"col, chl" = [44 : index, 0 : index]} : <Out, 128>
    adf.config.plio(%arg66, 250) {"col, chl" = [8 : index, 4 : index]} : <Out, 128>
    adf.config.plio(%arg67, 250) {"col, chl" = [8 : index, 2 : index]} : <Out, 128>
    adf.config.plio(%arg68, 250) {"col, chl" = [8 : index, 0 : index]} : <Out, 128>
    adf.config.plio(%arg69, 250) {"col, chl" = [12 : index, 4 : index]} : <Out, 128>
    adf.config.plio(%arg70, 250) {"col, chl" = [16 : index, 4 : index]} : <Out, 128>
    adf.config.plio(%arg71, 250) {"col, chl" = [20 : index, 4 : index]} : <Out, 128>
    adf.config.plio(%arg72, 250) {"col, chl" = [24 : index, 4 : index]} : <Out, 128>
    adf.config.plio(%arg73, 250) {"col, chl" = [28 : index, 4 : index]} : <Out, 128>
    adf.config.plio(%arg74, 250) {"col, chl" = [32 : index, 4 : index]} : <Out, 128>
    adf.config.plio(%arg75, 250) {"col, chl" = [36 : index, 4 : index]} : <Out, 128>
    adf.config.plio(%arg76, 250) {"col, chl" = [40 : index, 4 : index]} : <Out, 128>
    adf.config.plio(%arg65, 250) {"col, chl" = [22 : index, 4 : index]} : <In, 128>
    adf.config.plio(%arg77, 250) {"col, chl" = [43 : index, 4 : index]} : <Out, 128>
    adf.config.plio(%arg79, 250) {"col, chl" = [10 : index, 4 : index]} : <Out, 128>
    adf.config.plio(%arg80, 250) {"col, chl" = [10 : index, 2 : index]} : <Out, 128>
    adf.config.plio(%arg81, 250) {"col, chl" = [11 : index, 4 : index]} : <Out, 128>
    adf.config.plio(%arg82, 250) {"col, chl" = [15 : index, 4 : index]} : <Out, 128>
    adf.config.plio(%arg83, 250) {"col, chl" = [19 : index, 4 : index]} : <Out, 128>
    adf.config.plio(%arg84, 250) {"col, chl" = [23 : index, 4 : index]} : <Out, 128>
    adf.config.plio(%arg85, 250) {"col, chl" = [27 : index, 4 : index]} : <Out, 128>
    adf.config.plio(%arg86, 250) {"col, chl" = [31 : index, 4 : index]} : <Out, 128>
    adf.config.plio(%arg87, 250) {"col, chl" = [35 : index, 4 : index]} : <Out, 128>
    adf.config.plio(%arg88, 250) {"col, chl" = [39 : index, 4 : index]} : <Out, 128>
    adf.config.plio(%arg89, 250) {"col, chl" = [43 : index, 2 : index]} : <Out, 128>
    adf.config.plio(%arg78, 250) {"col, chl" = [25 : index, 4 : index]} : <In, 128>
    adf.config.plio(%arg90, 250) {"col, chl" = [43 : index, 0 : index]} : <Out, 128>
    adf.config.plio(%arg92, 250) {"col, chl" = [10 : index, 0 : index]} : <Out, 128>
    adf.config.plio(%arg93, 250) {"col, chl" = [11 : index, 2 : index]} : <Out, 128>
    adf.config.plio(%arg94, 250) {"col, chl" = [11 : index, 0 : index]} : <Out, 128>
    adf.config.plio(%arg95, 250) {"col, chl" = [15 : index, 2 : index]} : <Out, 128>
    adf.config.plio(%arg96, 250) {"col, chl" = [19 : index, 2 : index]} : <Out, 128>
    adf.config.plio(%arg97, 250) {"col, chl" = [23 : index, 2 : index]} : <Out, 128>
    adf.config.plio(%arg98, 250) {"col, chl" = [27 : index, 2 : index]} : <Out, 128>
    adf.config.plio(%arg99, 250) {"col, chl" = [31 : index, 2 : index]} : <Out, 128>
    adf.config.plio(%arg100, 250) {"col, chl" = [35 : index, 2 : index]} : <Out, 128>
    adf.config.plio(%arg101, 250) {"col, chl" = [39 : index, 2 : index]} : <Out, 128>
    adf.config.plio(%arg102, 250) {"col, chl" = [42 : index, 4 : index]} : <Out, 128>
    adf.config.plio(%arg91, 250) {"col, chl" = [25 : index, 2 : index]} : <In, 128>
    adf.config.plio(%arg103, 250) {"col, chl" = [42 : index, 2 : index]} : <Out, 128>
    adf.config.plio(%arg105, 250) {"col, chl" = [12 : index, 2 : index]} : <Out, 128>
    adf.config.plio(%arg106, 250) {"col, chl" = [12 : index, 0 : index]} : <Out, 128>
    adf.config.plio(%arg107, 250) {"col, chl" = [14 : index, 4 : index]} : <Out, 128>
    adf.config.plio(%arg108, 250) {"col, chl" = [15 : index, 0 : index]} : <Out, 128>
    adf.config.plio(%arg109, 250) {"col, chl" = [19 : index, 0 : index]} : <Out, 128>
    adf.config.plio(%arg110, 250) {"col, chl" = [23 : index, 0 : index]} : <Out, 128>
    adf.config.plio(%arg111, 250) {"col, chl" = [27 : index, 0 : index]} : <Out, 128>
    adf.config.plio(%arg112, 250) {"col, chl" = [31 : index, 0 : index]} : <Out, 128>
    adf.config.plio(%arg113, 250) {"col, chl" = [35 : index, 0 : index]} : <Out, 128>
    adf.config.plio(%arg114, 250) {"col, chl" = [39 : index, 0 : index]} : <Out, 128>
    adf.config.plio(%arg115, 250) {"col, chl" = [42 : index, 0 : index]} : <Out, 128>
    adf.config.plio(%arg104, 250) {"col, chl" = [25 : index, 0 : index]} : <In, 128>
    adf.config.plio(%arg116, 250) {"col, chl" = [40 : index, 2 : index]} : <Out, 128>
    adf.config.plio(%arg2, 250) {"col, chl" = [6 : index, 0 : index]} : <In, 128>
    adf.config.plio(%arg4, 250) {"col, chl" = [7 : index, 0 : index]} : <In, 128>
    adf.config.plio(%arg118, 250) {"col, chl" = [14 : index, 2 : index]} : <Out, 128>
    adf.config.plio(%arg6, 250) {"col, chl" = [8 : index, 2 : index]} : <In, 128>
    adf.config.plio(%arg7, 250) {"col, chl" = [8 : index, 0 : index]} : <In, 128>
    adf.config.plio(%arg119, 250) {"col, chl" = [14 : index, 0 : index]} : <Out, 128>
    adf.config.plio(%arg9, 250) {"col, chl" = [10 : index, 4 : index]} : <In, 128>
    adf.config.plio(%arg10, 250) {"col, chl" = [10 : index, 2 : index]} : <In, 128>
    adf.config.plio(%arg120, 250) {"col, chl" = [16 : index, 2 : index]} : <Out, 128>
    adf.config.plio(%arg12, 250) {"col, chl" = [14 : index, 4 : index]} : <In, 128>
    adf.config.plio(%arg13, 250) {"col, chl" = [14 : index, 2 : index]} : <In, 128>
    adf.config.plio(%arg121, 250) {"col, chl" = [16 : index, 0 : index]} : <Out, 128>
    adf.config.plio(%arg15, 250) {"col, chl" = [18 : index, 4 : index]} : <In, 128>
    adf.config.plio(%arg16, 250) {"col, chl" = [18 : index, 2 : index]} : <In, 128>
    adf.config.plio(%arg122, 250) {"col, chl" = [18 : index, 4 : index]} : <Out, 128>
    adf.config.plio(%arg18, 250) {"col, chl" = [22 : index, 2 : index]} : <In, 128>
    adf.config.plio(%arg19, 250) {"col, chl" = [22 : index, 0 : index]} : <In, 128>
    adf.config.plio(%arg123, 250) {"col, chl" = [22 : index, 4 : index]} : <Out, 128>
    adf.config.plio(%arg21, 250) {"col, chl" = [26 : index, 4 : index]} : <In, 128>
    adf.config.plio(%arg22, 250) {"col, chl" = [26 : index, 2 : index]} : <In, 128>
    adf.config.plio(%arg124, 250) {"col, chl" = [26 : index, 4 : index]} : <Out, 128>
    adf.config.plio(%arg24, 250) {"col, chl" = [30 : index, 4 : index]} : <In, 128>
    adf.config.plio(%arg25, 250) {"col, chl" = [30 : index, 2 : index]} : <In, 128>
    adf.config.plio(%arg125, 250) {"col, chl" = [30 : index, 4 : index]} : <Out, 128>
    adf.config.plio(%arg27, 250) {"col, chl" = [34 : index, 4 : index]} : <In, 128>
    adf.config.plio(%arg28, 250) {"col, chl" = [34 : index, 2 : index]} : <In, 128>
    adf.config.plio(%arg126, 250) {"col, chl" = [34 : index, 4 : index]} : <Out, 128>
    adf.config.plio(%arg30, 250) {"col, chl" = [38 : index, 4 : index]} : <In, 128>
    adf.config.plio(%arg31, 250) {"col, chl" = [38 : index, 2 : index]} : <In, 128>
    adf.config.plio(%arg127, 250) {"col, chl" = [38 : index, 4 : index]} : <Out, 128>
    adf.config.plio(%arg33, 250) {"col, chl" = [42 : index, 2 : index]} : <In, 128>
    adf.config.plio(%arg34, 250) {"col, chl" = [42 : index, 0 : index]} : <In, 128>
    adf.config.plio(%arg128, 250) {"col, chl" = [40 : index, 0 : index]} : <Out, 128>
    adf.config.plio(%arg0, 250) {"col, chl" = [24 : index, 4 : index]} : <In, 128>
    adf.config.plio(%arg36, 250) {"col, chl" = [44 : index, 0 : index]} : <In, 128>
    adf.config.plio(%arg3, 250) {"col, chl" = [24 : index, 2 : index]} : <In, 128>
    adf.config.plio(%arg117, 250) {"col, chl" = [24 : index, 0 : index]} : <In, 128>
    adf.config.plio(%arg37, 250) {"col, chl" = [43 : index, 0 : index]} : <In, 128>
    adf.config.plio(%arg129, 250) {"col, chl" = [38 : index, 2 : index]} : <Out, 128>
    %0 = adf.buffer.create @L1_L1_A() : memref<2x16x32xf32, 2>
    %1 = adf.buffer.create @L1_L1_B() : memref<16x16xf32, 2>
    %2 = adf.buffer.create @L1_L1_C() : memref<32x16xf32, 2>
    adf.connect(%arg0, %0) : (!adf.plio<In, 128>, memref<2x16x32xf32, 2>)
    adf.connect(%arg1, %1) : (!adf.plio<In, 128>, memref<16x16xf32, 2>)
    adf.connect(%arg2, %2) : (!adf.plio<In, 128>, memref<32x16xf32, 2>)
    %3 = call @kernel_ttmc0(%0, %1, %2) {adf.kernel, "col, row" = [1 : index, 0 : index], ivs = [0 : index, 0 : index, 0 : index], kernel = 0 : index, kernel_ttmc0 = 0 : index} : (memref<2x16x32xf32, 2>, memref<16x16xf32, 2>, memref<32x16xf32, 2>) -> memref<2x16x16xf32, 2>
    adf.buffer.location(%3, %c1, %c0, %c16384, %c24576) : (memref<2x16x16xf32, 2>, index, index, index, index)
    adf.buffer.location(%1, %c1, %c0, %c0, %c8192) : (memref<16x16xf32, 2>, index, index, index, index)
    adf.buffer.location(%2, %c1, %c1, %c16384, %c24576) : (memref<32x16xf32, 2>, index, index, index, index)
    adf.buffer.location(%0, %c1, %c1, %c0, %c8192) : (memref<2x16x32xf32, 2>, index, index, index, index)
    %4 = adf.buffer.create @L1_L1_A_1() : memref<2x16x32xf32, 2>
    %5 = adf.buffer.create @L1_L1_B_1() : memref<16x16xf32, 2>
    %6 = adf.buffer.create @L1_L1_C_1() : memref<32x16xf32, 2>
    %7 = adf.buffer.create @L1_L1_D_1() : memref<2x16x16xf32, 2>
    adf.connect(%arg3, %4) : (!adf.plio<In, 128>, memref<2x16x32xf32, 2>)
    adf.connect(%arg1, %5) : (!adf.plio<In, 128>, memref<16x16xf32, 2>)
    adf.connect(%arg4, %6) : (!adf.plio<In, 128>, memref<32x16xf32, 2>)
    adf.connect(%3, %7) : (memref<2x16x16xf32, 2>, memref<2x16x16xf32, 2>)
    %8 = call @kernel_ttmc(%4, %5, %6, %7) {adf.kernel, "col, row" = [1 : index, 1 : index], ivs = [1 : index, 0 : index, 0 : index], kernel_ttmc = 1 : index} : (memref<2x16x32xf32, 2>, memref<16x16xf32, 2>, memref<32x16xf32, 2>, memref<2x16x16xf32, 2>) -> memref<2x16x16xf32, 2>
    adf.buffer.location(%8, %c2, %c1, %c4096, %c12288) : (memref<2x16x16xf32, 2>, index, index, index, index)
    adf.buffer.location(%5, %c2, %c1, %c16384, %c24576) : (memref<16x16xf32, 2>, index, index, index, index)
    adf.buffer.location(%6, %c2, %c1, %c0, %c8192) : (memref<32x16xf32, 2>, index, index, index, index)
    adf.buffer.location(%4, %c1, %c0, %c4096, %c12288) : (memref<2x16x32xf32, 2>, index, index, index, index)
    adf.connect(%8, %arg5) {write = 1 : index} : (memref<2x16x16xf32, 2>, !adf.plio<Out, 128>)
    %9 = adf.buffer.create @L1_L1_A_2() : memref<2x16x32xf32, 2>
    %10 = adf.buffer.create @L1_L1_B_2() : memref<16x16xf32, 2>
    %11 = adf.buffer.create @L1_L1_C_2() : memref<32x16xf32, 2>
    adf.connect(%arg0, %9) : (!adf.plio<In, 128>, memref<2x16x32xf32, 2>)
    adf.connect(%arg1, %10) : (!adf.plio<In, 128>, memref<16x16xf32, 2>)
    adf.connect(%arg6, %11) : (!adf.plio<In, 128>, memref<32x16xf32, 2>)
    %12 = call @kernel_ttmc0(%9, %10, %11) {adf.kernel, "col, row" = [5 : index, 0 : index], ivs = [0 : index, 1 : index, 0 : index], kernel = 0 : index, kernel_ttmc0 = 2 : index} : (memref<2x16x32xf32, 2>, memref<16x16xf32, 2>, memref<32x16xf32, 2>) -> memref<2x16x16xf32, 2>
    adf.buffer.location(%12, %c5, %c0, %c16384, %c24576) : (memref<2x16x16xf32, 2>, index, index, index, index)
    adf.buffer.location(%10, %c5, %c0, %c0, %c8192) : (memref<16x16xf32, 2>, index, index, index, index)
    adf.buffer.location(%11, %c5, %c1, %c16384, %c24576) : (memref<32x16xf32, 2>, index, index, index, index)
    adf.buffer.location(%9, %c5, %c1, %c0, %c8192) : (memref<2x16x32xf32, 2>, index, index, index, index)
    %13 = adf.buffer.create @L1_L1_A_3() : memref<2x16x32xf32, 2>
    %14 = adf.buffer.create @L1_L1_B_3() : memref<16x16xf32, 2>
    %15 = adf.buffer.create @L1_L1_C_3() : memref<32x16xf32, 2>
    %16 = adf.buffer.create @L1_L1_D_3() : memref<2x16x16xf32, 2>
    adf.connect(%arg3, %13) : (!adf.plio<In, 128>, memref<2x16x32xf32, 2>)
    adf.connect(%arg1, %14) : (!adf.plio<In, 128>, memref<16x16xf32, 2>)
    adf.connect(%arg7, %15) : (!adf.plio<In, 128>, memref<32x16xf32, 2>)
    adf.connect(%12, %16) : (memref<2x16x16xf32, 2>, memref<2x16x16xf32, 2>)
    %17 = call @kernel_ttmc(%13, %14, %15, %16) {adf.kernel, "col, row" = [5 : index, 1 : index], ivs = [1 : index, 1 : index, 0 : index], kernel_ttmc = 3 : index} : (memref<2x16x32xf32, 2>, memref<16x16xf32, 2>, memref<32x16xf32, 2>, memref<2x16x16xf32, 2>) -> memref<2x16x16xf32, 2>
    adf.buffer.location(%17, %c6, %c1, %c4096, %c12288) : (memref<2x16x16xf32, 2>, index, index, index, index)
    adf.buffer.location(%14, %c6, %c1, %c16384, %c24576) : (memref<16x16xf32, 2>, index, index, index, index)
    adf.buffer.location(%15, %c6, %c1, %c0, %c8192) : (memref<32x16xf32, 2>, index, index, index, index)
    adf.buffer.location(%13, %c5, %c0, %c4096, %c12288) : (memref<2x16x32xf32, 2>, index, index, index, index)
    adf.connect(%17, %arg8) {write = 1 : index} : (memref<2x16x16xf32, 2>, !adf.plio<Out, 128>)
    %18 = adf.buffer.create @L1_L1_A_4() : memref<2x16x32xf32, 2>
    %19 = adf.buffer.create @L1_L1_B_4() : memref<16x16xf32, 2>
    %20 = adf.buffer.create @L1_L1_C_4() : memref<32x16xf32, 2>
    adf.connect(%arg0, %18) : (!adf.plio<In, 128>, memref<2x16x32xf32, 2>)
    adf.connect(%arg1, %19) : (!adf.plio<In, 128>, memref<16x16xf32, 2>)
    adf.connect(%arg9, %20) : (!adf.plio<In, 128>, memref<32x16xf32, 2>)
    %21 = call @kernel_ttmc0(%18, %19, %20) {adf.kernel, "col, row" = [9 : index, 0 : index], ivs = [0 : index, 2 : index, 0 : index], kernel = 0 : index, kernel_ttmc0 = 4 : index} : (memref<2x16x32xf32, 2>, memref<16x16xf32, 2>, memref<32x16xf32, 2>) -> memref<2x16x16xf32, 2>
    adf.buffer.location(%21, %c9, %c0, %c16384, %c24576) : (memref<2x16x16xf32, 2>, index, index, index, index)
    adf.buffer.location(%19, %c9, %c0, %c0, %c8192) : (memref<16x16xf32, 2>, index, index, index, index)
    adf.buffer.location(%20, %c9, %c1, %c16384, %c24576) : (memref<32x16xf32, 2>, index, index, index, index)
    adf.buffer.location(%18, %c9, %c1, %c0, %c8192) : (memref<2x16x32xf32, 2>, index, index, index, index)
    %22 = adf.buffer.create @L1_L1_A_5() : memref<2x16x32xf32, 2>
    %23 = adf.buffer.create @L1_L1_B_5() : memref<16x16xf32, 2>
    %24 = adf.buffer.create @L1_L1_C_5() : memref<32x16xf32, 2>
    %25 = adf.buffer.create @L1_L1_D_5() : memref<2x16x16xf32, 2>
    adf.connect(%arg3, %22) : (!adf.plio<In, 128>, memref<2x16x32xf32, 2>)
    adf.connect(%arg1, %23) : (!adf.plio<In, 128>, memref<16x16xf32, 2>)
    adf.connect(%arg10, %24) : (!adf.plio<In, 128>, memref<32x16xf32, 2>)
    adf.connect(%21, %25) : (memref<2x16x16xf32, 2>, memref<2x16x16xf32, 2>)
    %26 = call @kernel_ttmc(%22, %23, %24, %25) {adf.kernel, "col, row" = [9 : index, 1 : index], ivs = [1 : index, 2 : index, 0 : index], kernel_ttmc = 5 : index} : (memref<2x16x32xf32, 2>, memref<16x16xf32, 2>, memref<32x16xf32, 2>, memref<2x16x16xf32, 2>) -> memref<2x16x16xf32, 2>
    adf.buffer.location(%26, %c10, %c1, %c4096, %c12288) : (memref<2x16x16xf32, 2>, index, index, index, index)
    adf.buffer.location(%23, %c10, %c1, %c16384, %c24576) : (memref<16x16xf32, 2>, index, index, index, index)
    adf.buffer.location(%24, %c10, %c1, %c0, %c8192) : (memref<32x16xf32, 2>, index, index, index, index)
    adf.buffer.location(%22, %c9, %c0, %c4096, %c12288) : (memref<2x16x32xf32, 2>, index, index, index, index)
    adf.connect(%26, %arg11) {write = 1 : index} : (memref<2x16x16xf32, 2>, !adf.plio<Out, 128>)
    %27 = adf.buffer.create @L1_L1_A_6() : memref<2x16x32xf32, 2>
    %28 = adf.buffer.create @L1_L1_B_6() : memref<16x16xf32, 2>
    %29 = adf.buffer.create @L1_L1_C_6() : memref<32x16xf32, 2>
    adf.connect(%arg0, %27) : (!adf.plio<In, 128>, memref<2x16x32xf32, 2>)
    adf.connect(%arg1, %28) : (!adf.plio<In, 128>, memref<16x16xf32, 2>)
    adf.connect(%arg12, %29) : (!adf.plio<In, 128>, memref<32x16xf32, 2>)
    %30 = call @kernel_ttmc0(%27, %28, %29) {adf.kernel, "col, row" = [13 : index, 0 : index], ivs = [0 : index, 3 : index, 0 : index], kernel = 0 : index, kernel_ttmc0 = 6 : index} : (memref<2x16x32xf32, 2>, memref<16x16xf32, 2>, memref<32x16xf32, 2>) -> memref<2x16x16xf32, 2>
    adf.buffer.location(%30, %c13, %c0, %c16384, %c24576) : (memref<2x16x16xf32, 2>, index, index, index, index)
    adf.buffer.location(%28, %c13, %c0, %c0, %c8192) : (memref<16x16xf32, 2>, index, index, index, index)
    adf.buffer.location(%29, %c13, %c1, %c16384, %c24576) : (memref<32x16xf32, 2>, index, index, index, index)
    adf.buffer.location(%27, %c13, %c1, %c0, %c8192) : (memref<2x16x32xf32, 2>, index, index, index, index)
    %31 = adf.buffer.create @L1_L1_A_7() : memref<2x16x32xf32, 2>
    %32 = adf.buffer.create @L1_L1_B_7() : memref<16x16xf32, 2>
    %33 = adf.buffer.create @L1_L1_C_7() : memref<32x16xf32, 2>
    %34 = adf.buffer.create @L1_L1_D_7() : memref<2x16x16xf32, 2>
    adf.connect(%arg3, %31) : (!adf.plio<In, 128>, memref<2x16x32xf32, 2>)
    adf.connect(%arg1, %32) : (!adf.plio<In, 128>, memref<16x16xf32, 2>)
    adf.connect(%arg13, %33) : (!adf.plio<In, 128>, memref<32x16xf32, 2>)
    adf.connect(%30, %34) : (memref<2x16x16xf32, 2>, memref<2x16x16xf32, 2>)
    %35 = call @kernel_ttmc(%31, %32, %33, %34) {adf.kernel, "col, row" = [13 : index, 1 : index], ivs = [1 : index, 3 : index, 0 : index], kernel_ttmc = 7 : index} : (memref<2x16x32xf32, 2>, memref<16x16xf32, 2>, memref<32x16xf32, 2>, memref<2x16x16xf32, 2>) -> memref<2x16x16xf32, 2>
    adf.buffer.location(%35, %c14, %c1, %c4096, %c12288) : (memref<2x16x16xf32, 2>, index, index, index, index)
    adf.buffer.location(%32, %c14, %c1, %c16384, %c24576) : (memref<16x16xf32, 2>, index, index, index, index)
    adf.buffer.location(%33, %c14, %c1, %c0, %c8192) : (memref<32x16xf32, 2>, index, index, index, index)
    adf.buffer.location(%31, %c13, %c0, %c4096, %c12288) : (memref<2x16x32xf32, 2>, index, index, index, index)
    adf.connect(%35, %arg14) {write = 1 : index} : (memref<2x16x16xf32, 2>, !adf.plio<Out, 128>)
    %36 = adf.buffer.create @L1_L1_A_8() : memref<2x16x32xf32, 2>
    %37 = adf.buffer.create @L1_L1_B_8() : memref<16x16xf32, 2>
    %38 = adf.buffer.create @L1_L1_C_8() : memref<32x16xf32, 2>
    adf.connect(%arg0, %36) : (!adf.plio<In, 128>, memref<2x16x32xf32, 2>)
    adf.connect(%arg1, %37) : (!adf.plio<In, 128>, memref<16x16xf32, 2>)
    adf.connect(%arg15, %38) : (!adf.plio<In, 128>, memref<32x16xf32, 2>)
    %39 = call @kernel_ttmc0(%36, %37, %38) {adf.kernel, "col, row" = [17 : index, 0 : index], ivs = [0 : index, 4 : index, 0 : index], kernel = 0 : index, kernel_ttmc0 = 8 : index} : (memref<2x16x32xf32, 2>, memref<16x16xf32, 2>, memref<32x16xf32, 2>) -> memref<2x16x16xf32, 2>
    adf.buffer.location(%39, %c17, %c0, %c16384, %c24576) : (memref<2x16x16xf32, 2>, index, index, index, index)
    adf.buffer.location(%37, %c17, %c0, %c0, %c8192) : (memref<16x16xf32, 2>, index, index, index, index)
    adf.buffer.location(%38, %c17, %c1, %c16384, %c24576) : (memref<32x16xf32, 2>, index, index, index, index)
    adf.buffer.location(%36, %c17, %c1, %c0, %c8192) : (memref<2x16x32xf32, 2>, index, index, index, index)
    %40 = adf.buffer.create @L1_L1_A_9() : memref<2x16x32xf32, 2>
    %41 = adf.buffer.create @L1_L1_B_9() : memref<16x16xf32, 2>
    %42 = adf.buffer.create @L1_L1_C_9() : memref<32x16xf32, 2>
    %43 = adf.buffer.create @L1_L1_D_9() : memref<2x16x16xf32, 2>
    adf.connect(%arg3, %40) : (!adf.plio<In, 128>, memref<2x16x32xf32, 2>)
    adf.connect(%arg1, %41) : (!adf.plio<In, 128>, memref<16x16xf32, 2>)
    adf.connect(%arg16, %42) : (!adf.plio<In, 128>, memref<32x16xf32, 2>)
    adf.connect(%39, %43) : (memref<2x16x16xf32, 2>, memref<2x16x16xf32, 2>)
    %44 = call @kernel_ttmc(%40, %41, %42, %43) {adf.kernel, "col, row" = [17 : index, 1 : index], ivs = [1 : index, 4 : index, 0 : index], kernel_ttmc = 9 : index} : (memref<2x16x32xf32, 2>, memref<16x16xf32, 2>, memref<32x16xf32, 2>, memref<2x16x16xf32, 2>) -> memref<2x16x16xf32, 2>
    adf.buffer.location(%44, %c18, %c1, %c4096, %c12288) : (memref<2x16x16xf32, 2>, index, index, index, index)
    adf.buffer.location(%41, %c18, %c1, %c16384, %c24576) : (memref<16x16xf32, 2>, index, index, index, index)
    adf.buffer.location(%42, %c18, %c1, %c0, %c8192) : (memref<32x16xf32, 2>, index, index, index, index)
    adf.buffer.location(%40, %c17, %c0, %c4096, %c12288) : (memref<2x16x32xf32, 2>, index, index, index, index)
    adf.connect(%44, %arg17) {write = 1 : index} : (memref<2x16x16xf32, 2>, !adf.plio<Out, 128>)
    %45 = adf.buffer.create @L1_L1_A_10() : memref<2x16x32xf32, 2>
    %46 = adf.buffer.create @L1_L1_B_10() : memref<16x16xf32, 2>
    %47 = adf.buffer.create @L1_L1_C_10() : memref<32x16xf32, 2>
    adf.connect(%arg0, %45) : (!adf.plio<In, 128>, memref<2x16x32xf32, 2>)
    adf.connect(%arg1, %46) : (!adf.plio<In, 128>, memref<16x16xf32, 2>)
    adf.connect(%arg18, %47) : (!adf.plio<In, 128>, memref<32x16xf32, 2>)
    %48 = call @kernel_ttmc0(%45, %46, %47) {adf.kernel, "col, row" = [21 : index, 0 : index], ivs = [0 : index, 5 : index, 0 : index], kernel = 0 : index, kernel_ttmc0 = 10 : index} : (memref<2x16x32xf32, 2>, memref<16x16xf32, 2>, memref<32x16xf32, 2>) -> memref<2x16x16xf32, 2>
    adf.buffer.location(%48, %c21, %c0, %c16384, %c24576) : (memref<2x16x16xf32, 2>, index, index, index, index)
    adf.buffer.location(%46, %c21, %c0, %c0, %c8192) : (memref<16x16xf32, 2>, index, index, index, index)
    adf.buffer.location(%47, %c21, %c1, %c16384, %c24576) : (memref<32x16xf32, 2>, index, index, index, index)
    adf.buffer.location(%45, %c21, %c1, %c0, %c8192) : (memref<2x16x32xf32, 2>, index, index, index, index)
    %49 = adf.buffer.create @L1_L1_A_11() : memref<2x16x32xf32, 2>
    %50 = adf.buffer.create @L1_L1_B_11() : memref<16x16xf32, 2>
    %51 = adf.buffer.create @L1_L1_C_11() : memref<32x16xf32, 2>
    %52 = adf.buffer.create @L1_L1_D_11() : memref<2x16x16xf32, 2>
    adf.connect(%arg3, %49) : (!adf.plio<In, 128>, memref<2x16x32xf32, 2>)
    adf.connect(%arg1, %50) : (!adf.plio<In, 128>, memref<16x16xf32, 2>)
    adf.connect(%arg19, %51) : (!adf.plio<In, 128>, memref<32x16xf32, 2>)
    adf.connect(%48, %52) : (memref<2x16x16xf32, 2>, memref<2x16x16xf32, 2>)
    %53 = call @kernel_ttmc(%49, %50, %51, %52) {adf.kernel, "col, row" = [21 : index, 1 : index], ivs = [1 : index, 5 : index, 0 : index], kernel_ttmc = 11 : index} : (memref<2x16x32xf32, 2>, memref<16x16xf32, 2>, memref<32x16xf32, 2>, memref<2x16x16xf32, 2>) -> memref<2x16x16xf32, 2>
    adf.buffer.location(%53, %c22, %c1, %c4096, %c12288) : (memref<2x16x16xf32, 2>, index, index, index, index)
    adf.buffer.location(%50, %c22, %c1, %c16384, %c24576) : (memref<16x16xf32, 2>, index, index, index, index)
    adf.buffer.location(%51, %c22, %c1, %c0, %c8192) : (memref<32x16xf32, 2>, index, index, index, index)
    adf.buffer.location(%49, %c21, %c0, %c4096, %c12288) : (memref<2x16x32xf32, 2>, index, index, index, index)
    adf.connect(%53, %arg20) {write = 1 : index} : (memref<2x16x16xf32, 2>, !adf.plio<Out, 128>)
    %54 = adf.buffer.create @L1_L1_A_12() : memref<2x16x32xf32, 2>
    %55 = adf.buffer.create @L1_L1_B_12() : memref<16x16xf32, 2>
    %56 = adf.buffer.create @L1_L1_C_12() : memref<32x16xf32, 2>
    adf.connect(%arg0, %54) : (!adf.plio<In, 128>, memref<2x16x32xf32, 2>)
    adf.connect(%arg1, %55) : (!adf.plio<In, 128>, memref<16x16xf32, 2>)
    adf.connect(%arg21, %56) : (!adf.plio<In, 128>, memref<32x16xf32, 2>)
    %57 = call @kernel_ttmc0(%54, %55, %56) {adf.kernel, "col, row" = [25 : index, 0 : index], ivs = [0 : index, 6 : index, 0 : index], kernel = 0 : index, kernel_ttmc0 = 12 : index} : (memref<2x16x32xf32, 2>, memref<16x16xf32, 2>, memref<32x16xf32, 2>) -> memref<2x16x16xf32, 2>
    adf.buffer.location(%57, %c25, %c0, %c16384, %c24576) : (memref<2x16x16xf32, 2>, index, index, index, index)
    adf.buffer.location(%55, %c25, %c0, %c0, %c8192) : (memref<16x16xf32, 2>, index, index, index, index)
    adf.buffer.location(%56, %c25, %c1, %c16384, %c24576) : (memref<32x16xf32, 2>, index, index, index, index)
    adf.buffer.location(%54, %c25, %c1, %c0, %c8192) : (memref<2x16x32xf32, 2>, index, index, index, index)
    %58 = adf.buffer.create @L1_L1_A_13() : memref<2x16x32xf32, 2>
    %59 = adf.buffer.create @L1_L1_B_13() : memref<16x16xf32, 2>
    %60 = adf.buffer.create @L1_L1_C_13() : memref<32x16xf32, 2>
    %61 = adf.buffer.create @L1_L1_D_13() : memref<2x16x16xf32, 2>
    adf.connect(%arg3, %58) : (!adf.plio<In, 128>, memref<2x16x32xf32, 2>)
    adf.connect(%arg1, %59) : (!adf.plio<In, 128>, memref<16x16xf32, 2>)
    adf.connect(%arg22, %60) : (!adf.plio<In, 128>, memref<32x16xf32, 2>)
    adf.connect(%57, %61) : (memref<2x16x16xf32, 2>, memref<2x16x16xf32, 2>)
    %62 = call @kernel_ttmc(%58, %59, %60, %61) {adf.kernel, "col, row" = [25 : index, 1 : index], ivs = [1 : index, 6 : index, 0 : index], kernel_ttmc = 13 : index} : (memref<2x16x32xf32, 2>, memref<16x16xf32, 2>, memref<32x16xf32, 2>, memref<2x16x16xf32, 2>) -> memref<2x16x16xf32, 2>
    adf.buffer.location(%62, %c26, %c1, %c4096, %c12288) : (memref<2x16x16xf32, 2>, index, index, index, index)
    adf.buffer.location(%59, %c26, %c1, %c16384, %c24576) : (memref<16x16xf32, 2>, index, index, index, index)
    adf.buffer.location(%60, %c26, %c1, %c0, %c8192) : (memref<32x16xf32, 2>, index, index, index, index)
    adf.buffer.location(%58, %c25, %c0, %c4096, %c12288) : (memref<2x16x32xf32, 2>, index, index, index, index)
    adf.connect(%62, %arg23) {write = 1 : index} : (memref<2x16x16xf32, 2>, !adf.plio<Out, 128>)
    %63 = adf.buffer.create @L1_L1_A_14() : memref<2x16x32xf32, 2>
    %64 = adf.buffer.create @L1_L1_B_14() : memref<16x16xf32, 2>
    %65 = adf.buffer.create @L1_L1_C_14() : memref<32x16xf32, 2>
    adf.connect(%arg0, %63) : (!adf.plio<In, 128>, memref<2x16x32xf32, 2>)
    adf.connect(%arg1, %64) : (!adf.plio<In, 128>, memref<16x16xf32, 2>)
    adf.connect(%arg24, %65) : (!adf.plio<In, 128>, memref<32x16xf32, 2>)
    %66 = call @kernel_ttmc0(%63, %64, %65) {adf.kernel, "col, row" = [29 : index, 0 : index], ivs = [0 : index, 7 : index, 0 : index], kernel = 0 : index, kernel_ttmc0 = 14 : index} : (memref<2x16x32xf32, 2>, memref<16x16xf32, 2>, memref<32x16xf32, 2>) -> memref<2x16x16xf32, 2>
    adf.buffer.location(%66, %c29, %c0, %c16384, %c24576) : (memref<2x16x16xf32, 2>, index, index, index, index)
    adf.buffer.location(%64, %c29, %c0, %c0, %c8192) : (memref<16x16xf32, 2>, index, index, index, index)
    adf.buffer.location(%65, %c29, %c1, %c16384, %c24576) : (memref<32x16xf32, 2>, index, index, index, index)
    adf.buffer.location(%63, %c29, %c1, %c0, %c8192) : (memref<2x16x32xf32, 2>, index, index, index, index)
    %67 = adf.buffer.create @L1_L1_A_15() : memref<2x16x32xf32, 2>
    %68 = adf.buffer.create @L1_L1_B_15() : memref<16x16xf32, 2>
    %69 = adf.buffer.create @L1_L1_C_15() : memref<32x16xf32, 2>
    %70 = adf.buffer.create @L1_L1_D_15() : memref<2x16x16xf32, 2>
    adf.connect(%arg3, %67) : (!adf.plio<In, 128>, memref<2x16x32xf32, 2>)
    adf.connect(%arg1, %68) : (!adf.plio<In, 128>, memref<16x16xf32, 2>)
    adf.connect(%arg25, %69) : (!adf.plio<In, 128>, memref<32x16xf32, 2>)
    adf.connect(%66, %70) : (memref<2x16x16xf32, 2>, memref<2x16x16xf32, 2>)
    %71 = call @kernel_ttmc(%67, %68, %69, %70) {adf.kernel, "col, row" = [29 : index, 1 : index], ivs = [1 : index, 7 : index, 0 : index], kernel_ttmc = 15 : index} : (memref<2x16x32xf32, 2>, memref<16x16xf32, 2>, memref<32x16xf32, 2>, memref<2x16x16xf32, 2>) -> memref<2x16x16xf32, 2>
    adf.buffer.location(%71, %c30, %c1, %c4096, %c12288) : (memref<2x16x16xf32, 2>, index, index, index, index)
    adf.buffer.location(%68, %c30, %c1, %c16384, %c24576) : (memref<16x16xf32, 2>, index, index, index, index)
    adf.buffer.location(%69, %c30, %c1, %c0, %c8192) : (memref<32x16xf32, 2>, index, index, index, index)
    adf.buffer.location(%67, %c29, %c0, %c4096, %c12288) : (memref<2x16x32xf32, 2>, index, index, index, index)
    adf.connect(%71, %arg26) {write = 1 : index} : (memref<2x16x16xf32, 2>, !adf.plio<Out, 128>)
    %72 = adf.buffer.create @L1_L1_A_16() : memref<2x16x32xf32, 2>
    %73 = adf.buffer.create @L1_L1_B_16() : memref<16x16xf32, 2>
    %74 = adf.buffer.create @L1_L1_C_16() : memref<32x16xf32, 2>
    adf.connect(%arg0, %72) : (!adf.plio<In, 128>, memref<2x16x32xf32, 2>)
    adf.connect(%arg1, %73) : (!adf.plio<In, 128>, memref<16x16xf32, 2>)
    adf.connect(%arg27, %74) : (!adf.plio<In, 128>, memref<32x16xf32, 2>)
    %75 = call @kernel_ttmc0(%72, %73, %74) {adf.kernel, "col, row" = [33 : index, 0 : index], ivs = [0 : index, 8 : index, 0 : index], kernel = 0 : index, kernel_ttmc0 = 16 : index} : (memref<2x16x32xf32, 2>, memref<16x16xf32, 2>, memref<32x16xf32, 2>) -> memref<2x16x16xf32, 2>
    adf.buffer.location(%75, %c33, %c0, %c16384, %c24576) : (memref<2x16x16xf32, 2>, index, index, index, index)
    adf.buffer.location(%73, %c33, %c0, %c0, %c8192) : (memref<16x16xf32, 2>, index, index, index, index)
    adf.buffer.location(%74, %c33, %c1, %c16384, %c24576) : (memref<32x16xf32, 2>, index, index, index, index)
    adf.buffer.location(%72, %c33, %c1, %c0, %c8192) : (memref<2x16x32xf32, 2>, index, index, index, index)
    %76 = adf.buffer.create @L1_L1_A_17() : memref<2x16x32xf32, 2>
    %77 = adf.buffer.create @L1_L1_B_17() : memref<16x16xf32, 2>
    %78 = adf.buffer.create @L1_L1_C_17() : memref<32x16xf32, 2>
    %79 = adf.buffer.create @L1_L1_D_17() : memref<2x16x16xf32, 2>
    adf.connect(%arg3, %76) : (!adf.plio<In, 128>, memref<2x16x32xf32, 2>)
    adf.connect(%arg1, %77) : (!adf.plio<In, 128>, memref<16x16xf32, 2>)
    adf.connect(%arg28, %78) : (!adf.plio<In, 128>, memref<32x16xf32, 2>)
    adf.connect(%75, %79) : (memref<2x16x16xf32, 2>, memref<2x16x16xf32, 2>)
    %80 = call @kernel_ttmc(%76, %77, %78, %79) {adf.kernel, "col, row" = [33 : index, 1 : index], ivs = [1 : index, 8 : index, 0 : index], kernel_ttmc = 17 : index} : (memref<2x16x32xf32, 2>, memref<16x16xf32, 2>, memref<32x16xf32, 2>, memref<2x16x16xf32, 2>) -> memref<2x16x16xf32, 2>
    adf.buffer.location(%80, %c34, %c1, %c4096, %c12288) : (memref<2x16x16xf32, 2>, index, index, index, index)
    adf.buffer.location(%77, %c34, %c1, %c16384, %c24576) : (memref<16x16xf32, 2>, index, index, index, index)
    adf.buffer.location(%78, %c34, %c1, %c0, %c8192) : (memref<32x16xf32, 2>, index, index, index, index)
    adf.buffer.location(%76, %c33, %c0, %c4096, %c12288) : (memref<2x16x32xf32, 2>, index, index, index, index)
    adf.connect(%80, %arg29) {write = 1 : index} : (memref<2x16x16xf32, 2>, !adf.plio<Out, 128>)
    %81 = adf.buffer.create @L1_L1_A_18() : memref<2x16x32xf32, 2>
    %82 = adf.buffer.create @L1_L1_B_18() : memref<16x16xf32, 2>
    %83 = adf.buffer.create @L1_L1_C_18() : memref<32x16xf32, 2>
    adf.connect(%arg0, %81) : (!adf.plio<In, 128>, memref<2x16x32xf32, 2>)
    adf.connect(%arg1, %82) : (!adf.plio<In, 128>, memref<16x16xf32, 2>)
    adf.connect(%arg30, %83) : (!adf.plio<In, 128>, memref<32x16xf32, 2>)
    %84 = call @kernel_ttmc0(%81, %82, %83) {adf.kernel, "col, row" = [37 : index, 0 : index], ivs = [0 : index, 9 : index, 0 : index], kernel = 0 : index, kernel_ttmc0 = 18 : index} : (memref<2x16x32xf32, 2>, memref<16x16xf32, 2>, memref<32x16xf32, 2>) -> memref<2x16x16xf32, 2>
    adf.buffer.location(%84, %c37, %c0, %c16384, %c24576) : (memref<2x16x16xf32, 2>, index, index, index, index)
    adf.buffer.location(%82, %c37, %c0, %c0, %c8192) : (memref<16x16xf32, 2>, index, index, index, index)
    adf.buffer.location(%83, %c37, %c1, %c16384, %c24576) : (memref<32x16xf32, 2>, index, index, index, index)
    adf.buffer.location(%81, %c37, %c1, %c0, %c8192) : (memref<2x16x32xf32, 2>, index, index, index, index)
    %85 = adf.buffer.create @L1_L1_A_19() : memref<2x16x32xf32, 2>
    %86 = adf.buffer.create @L1_L1_B_19() : memref<16x16xf32, 2>
    %87 = adf.buffer.create @L1_L1_C_19() : memref<32x16xf32, 2>
    %88 = adf.buffer.create @L1_L1_D_19() : memref<2x16x16xf32, 2>
    adf.connect(%arg3, %85) : (!adf.plio<In, 128>, memref<2x16x32xf32, 2>)
    adf.connect(%arg1, %86) : (!adf.plio<In, 128>, memref<16x16xf32, 2>)
    adf.connect(%arg31, %87) : (!adf.plio<In, 128>, memref<32x16xf32, 2>)
    adf.connect(%84, %88) : (memref<2x16x16xf32, 2>, memref<2x16x16xf32, 2>)
    %89 = call @kernel_ttmc(%85, %86, %87, %88) {adf.kernel, "col, row" = [37 : index, 1 : index], ivs = [1 : index, 9 : index, 0 : index], kernel_ttmc = 19 : index} : (memref<2x16x32xf32, 2>, memref<16x16xf32, 2>, memref<32x16xf32, 2>, memref<2x16x16xf32, 2>) -> memref<2x16x16xf32, 2>
    adf.buffer.location(%89, %c38, %c1, %c4096, %c12288) : (memref<2x16x16xf32, 2>, index, index, index, index)
    adf.buffer.location(%86, %c38, %c1, %c16384, %c24576) : (memref<16x16xf32, 2>, index, index, index, index)
    adf.buffer.location(%87, %c38, %c1, %c0, %c8192) : (memref<32x16xf32, 2>, index, index, index, index)
    adf.buffer.location(%85, %c37, %c0, %c4096, %c12288) : (memref<2x16x32xf32, 2>, index, index, index, index)
    adf.connect(%89, %arg32) {write = 1 : index} : (memref<2x16x16xf32, 2>, !adf.plio<Out, 128>)
    %90 = adf.buffer.create @L1_L1_A_20() : memref<2x16x32xf32, 2>
    %91 = adf.buffer.create @L1_L1_B_20() : memref<16x16xf32, 2>
    %92 = adf.buffer.create @L1_L1_C_20() : memref<32x16xf32, 2>
    adf.connect(%arg0, %90) : (!adf.plio<In, 128>, memref<2x16x32xf32, 2>)
    adf.connect(%arg1, %91) : (!adf.plio<In, 128>, memref<16x16xf32, 2>)
    adf.connect(%arg33, %92) : (!adf.plio<In, 128>, memref<32x16xf32, 2>)
    %93 = call @kernel_ttmc0(%90, %91, %92) {adf.kernel, "col, row" = [41 : index, 0 : index], ivs = [0 : index, 10 : index, 0 : index], kernel = 0 : index, kernel_ttmc0 = 20 : index} : (memref<2x16x32xf32, 2>, memref<16x16xf32, 2>, memref<32x16xf32, 2>) -> memref<2x16x16xf32, 2>
    adf.buffer.location(%93, %c41, %c0, %c16384, %c24576) : (memref<2x16x16xf32, 2>, index, index, index, index)
    adf.buffer.location(%91, %c41, %c0, %c0, %c8192) : (memref<16x16xf32, 2>, index, index, index, index)
    adf.buffer.location(%92, %c41, %c1, %c16384, %c24576) : (memref<32x16xf32, 2>, index, index, index, index)
    adf.buffer.location(%90, %c41, %c1, %c0, %c8192) : (memref<2x16x32xf32, 2>, index, index, index, index)
    %94 = adf.buffer.create @L1_L1_A_21() : memref<2x16x32xf32, 2>
    %95 = adf.buffer.create @L1_L1_B_21() : memref<16x16xf32, 2>
    %96 = adf.buffer.create @L1_L1_C_21() : memref<32x16xf32, 2>
    %97 = adf.buffer.create @L1_L1_D_21() : memref<2x16x16xf32, 2>
    adf.connect(%arg3, %94) : (!adf.plio<In, 128>, memref<2x16x32xf32, 2>)
    adf.connect(%arg1, %95) : (!adf.plio<In, 128>, memref<16x16xf32, 2>)
    adf.connect(%arg34, %96) : (!adf.plio<In, 128>, memref<32x16xf32, 2>)
    adf.connect(%93, %97) : (memref<2x16x16xf32, 2>, memref<2x16x16xf32, 2>)
    %98 = call @kernel_ttmc(%94, %95, %96, %97) {adf.kernel, "col, row" = [41 : index, 1 : index], ivs = [1 : index, 10 : index, 0 : index], kernel_ttmc = 21 : index} : (memref<2x16x32xf32, 2>, memref<16x16xf32, 2>, memref<32x16xf32, 2>, memref<2x16x16xf32, 2>) -> memref<2x16x16xf32, 2>
    adf.buffer.location(%98, %c42, %c1, %c4096, %c12288) : (memref<2x16x16xf32, 2>, index, index, index, index)
    adf.buffer.location(%95, %c42, %c1, %c16384, %c24576) : (memref<16x16xf32, 2>, index, index, index, index)
    adf.buffer.location(%96, %c42, %c1, %c0, %c8192) : (memref<32x16xf32, 2>, index, index, index, index)
    adf.buffer.location(%94, %c41, %c0, %c4096, %c12288) : (memref<2x16x32xf32, 2>, index, index, index, index)
    adf.connect(%98, %arg35) {write = 1 : index} : (memref<2x16x16xf32, 2>, !adf.plio<Out, 128>)
    %99 = adf.buffer.create @L1_L1_A_22() : memref<2x16x32xf32, 2>
    %100 = adf.buffer.create @L1_L1_B_22() : memref<16x16xf32, 2>
    %101 = adf.buffer.create @L1_L1_C_22() : memref<32x16xf32, 2>
    adf.connect(%arg0, %99) : (!adf.plio<In, 128>, memref<2x16x32xf32, 2>)
    adf.connect(%arg1, %100) : (!adf.plio<In, 128>, memref<16x16xf32, 2>)
    adf.connect(%arg36, %101) : (!adf.plio<In, 128>, memref<32x16xf32, 2>)
    %102 = call @kernel_ttmc0(%99, %100, %101) {adf.kernel, "col, row" = [45 : index, 0 : index], ivs = [0 : index, 11 : index, 0 : index], kernel = 0 : index, kernel_ttmc0 = 22 : index} : (memref<2x16x32xf32, 2>, memref<16x16xf32, 2>, memref<32x16xf32, 2>) -> memref<2x16x16xf32, 2>
    adf.buffer.location(%102, %c45, %c0, %c16384, %c24576) : (memref<2x16x16xf32, 2>, index, index, index, index)
    adf.buffer.location(%100, %c45, %c0, %c0, %c8192) : (memref<16x16xf32, 2>, index, index, index, index)
    adf.buffer.location(%101, %c45, %c1, %c16384, %c24576) : (memref<32x16xf32, 2>, index, index, index, index)
    adf.buffer.location(%99, %c45, %c1, %c0, %c8192) : (memref<2x16x32xf32, 2>, index, index, index, index)
    %103 = adf.buffer.create @L1_L1_A_23() : memref<2x16x32xf32, 2>
    %104 = adf.buffer.create @L1_L1_B_23() : memref<16x16xf32, 2>
    %105 = adf.buffer.create @L1_L1_C_23() : memref<32x16xf32, 2>
    %106 = adf.buffer.create @L1_L1_D_23() : memref<2x16x16xf32, 2>
    adf.connect(%arg3, %103) : (!adf.plio<In, 128>, memref<2x16x32xf32, 2>)
    adf.connect(%arg1, %104) : (!adf.plio<In, 128>, memref<16x16xf32, 2>)
    adf.connect(%arg37, %105) : (!adf.plio<In, 128>, memref<32x16xf32, 2>)
    adf.connect(%102, %106) : (memref<2x16x16xf32, 2>, memref<2x16x16xf32, 2>)
    %107 = call @kernel_ttmc(%103, %104, %105, %106) {adf.kernel, "col, row" = [45 : index, 1 : index], ivs = [1 : index, 11 : index, 0 : index], kernel_ttmc = 23 : index} : (memref<2x16x32xf32, 2>, memref<16x16xf32, 2>, memref<32x16xf32, 2>, memref<2x16x16xf32, 2>) -> memref<2x16x16xf32, 2>
    adf.buffer.location(%107, %c46, %c1, %c4096, %c12288) : (memref<2x16x16xf32, 2>, index, index, index, index)
    adf.buffer.location(%104, %c46, %c1, %c16384, %c24576) : (memref<16x16xf32, 2>, index, index, index, index)
    adf.buffer.location(%105, %c46, %c1, %c0, %c8192) : (memref<32x16xf32, 2>, index, index, index, index)
    adf.buffer.location(%103, %c45, %c0, %c4096, %c12288) : (memref<2x16x32xf32, 2>, index, index, index, index)
    adf.connect(%107, %arg38) {write = 1 : index} : (memref<2x16x16xf32, 2>, !adf.plio<Out, 128>)
    %108 = adf.buffer.create @L1_L1_A_24() : memref<2x16x32xf32, 2>
    %109 = adf.buffer.create @L1_L1_B_24() : memref<16x16xf32, 2>
    %110 = adf.buffer.create @L1_L1_C_24() : memref<32x16xf32, 2>
    adf.connect(%arg0, %108) : (!adf.plio<In, 128>, memref<2x16x32xf32, 2>)
    adf.connect(%arg39, %109) : (!adf.plio<In, 128>, memref<16x16xf32, 2>)
    adf.connect(%arg2, %110) : (!adf.plio<In, 128>, memref<32x16xf32, 2>)
    %111 = call @kernel_ttmc0(%108, %109, %110) {adf.kernel, "col, row" = [1 : index, 2 : index], ivs = [0 : index, 0 : index, 1 : index], kernel = 0 : index, kernel_ttmc0 = 24 : index} : (memref<2x16x32xf32, 2>, memref<16x16xf32, 2>, memref<32x16xf32, 2>) -> memref<2x16x16xf32, 2>
    adf.buffer.location(%111, %c1, %c2, %c16384, %c24576) : (memref<2x16x16xf32, 2>, index, index, index, index)
    adf.buffer.location(%109, %c1, %c2, %c0, %c8192) : (memref<16x16xf32, 2>, index, index, index, index)
    adf.buffer.location(%110, %c1, %c3, %c16384, %c24576) : (memref<32x16xf32, 2>, index, index, index, index)
    adf.buffer.location(%108, %c1, %c3, %c0, %c8192) : (memref<2x16x32xf32, 2>, index, index, index, index)
    %112 = adf.buffer.create @L1_L1_A_25() : memref<2x16x32xf32, 2>
    %113 = adf.buffer.create @L1_L1_B_25() : memref<16x16xf32, 2>
    %114 = adf.buffer.create @L1_L1_C_25() : memref<32x16xf32, 2>
    %115 = adf.buffer.create @L1_L1_D_25() : memref<2x16x16xf32, 2>
    adf.connect(%arg3, %112) : (!adf.plio<In, 128>, memref<2x16x32xf32, 2>)
    adf.connect(%arg39, %113) : (!adf.plio<In, 128>, memref<16x16xf32, 2>)
    adf.connect(%arg4, %114) : (!adf.plio<In, 128>, memref<32x16xf32, 2>)
    adf.connect(%111, %115) : (memref<2x16x16xf32, 2>, memref<2x16x16xf32, 2>)
    %116 = call @kernel_ttmc(%112, %113, %114, %115) {adf.kernel, "col, row" = [1 : index, 3 : index], ivs = [1 : index, 0 : index, 1 : index], kernel_ttmc = 25 : index} : (memref<2x16x32xf32, 2>, memref<16x16xf32, 2>, memref<32x16xf32, 2>, memref<2x16x16xf32, 2>) -> memref<2x16x16xf32, 2>
    adf.buffer.location(%116, %c2, %c3, %c4096, %c12288) : (memref<2x16x16xf32, 2>, index, index, index, index)
    adf.buffer.location(%113, %c2, %c3, %c16384, %c24576) : (memref<16x16xf32, 2>, index, index, index, index)
    adf.buffer.location(%114, %c2, %c3, %c0, %c8192) : (memref<32x16xf32, 2>, index, index, index, index)
    adf.buffer.location(%112, %c1, %c2, %c4096, %c12288) : (memref<2x16x32xf32, 2>, index, index, index, index)
    adf.connect(%116, %arg40) {write = 1 : index} : (memref<2x16x16xf32, 2>, !adf.plio<Out, 128>)
    %117 = adf.buffer.create @L1_L1_A_26() : memref<2x16x32xf32, 2>
    %118 = adf.buffer.create @L1_L1_B_26() : memref<16x16xf32, 2>
    %119 = adf.buffer.create @L1_L1_C_26() : memref<32x16xf32, 2>
    adf.connect(%arg0, %117) : (!adf.plio<In, 128>, memref<2x16x32xf32, 2>)
    adf.connect(%arg39, %118) : (!adf.plio<In, 128>, memref<16x16xf32, 2>)
    adf.connect(%arg6, %119) : (!adf.plio<In, 128>, memref<32x16xf32, 2>)
    %120 = call @kernel_ttmc0(%117, %118, %119) {adf.kernel, "col, row" = [5 : index, 2 : index], ivs = [0 : index, 1 : index, 1 : index], kernel = 0 : index, kernel_ttmc0 = 26 : index} : (memref<2x16x32xf32, 2>, memref<16x16xf32, 2>, memref<32x16xf32, 2>) -> memref<2x16x16xf32, 2>
    adf.buffer.location(%120, %c5, %c2, %c16384, %c24576) : (memref<2x16x16xf32, 2>, index, index, index, index)
    adf.buffer.location(%118, %c5, %c2, %c0, %c8192) : (memref<16x16xf32, 2>, index, index, index, index)
    adf.buffer.location(%119, %c5, %c3, %c16384, %c24576) : (memref<32x16xf32, 2>, index, index, index, index)
    adf.buffer.location(%117, %c5, %c3, %c0, %c8192) : (memref<2x16x32xf32, 2>, index, index, index, index)
    %121 = adf.buffer.create @L1_L1_A_27() : memref<2x16x32xf32, 2>
    %122 = adf.buffer.create @L1_L1_B_27() : memref<16x16xf32, 2>
    %123 = adf.buffer.create @L1_L1_C_27() : memref<32x16xf32, 2>
    %124 = adf.buffer.create @L1_L1_D_27() : memref<2x16x16xf32, 2>
    adf.connect(%arg3, %121) : (!adf.plio<In, 128>, memref<2x16x32xf32, 2>)
    adf.connect(%arg39, %122) : (!adf.plio<In, 128>, memref<16x16xf32, 2>)
    adf.connect(%arg7, %123) : (!adf.plio<In, 128>, memref<32x16xf32, 2>)
    adf.connect(%120, %124) : (memref<2x16x16xf32, 2>, memref<2x16x16xf32, 2>)
    %125 = call @kernel_ttmc(%121, %122, %123, %124) {adf.kernel, "col, row" = [5 : index, 3 : index], ivs = [1 : index, 1 : index, 1 : index], kernel_ttmc = 27 : index} : (memref<2x16x32xf32, 2>, memref<16x16xf32, 2>, memref<32x16xf32, 2>, memref<2x16x16xf32, 2>) -> memref<2x16x16xf32, 2>
    adf.buffer.location(%125, %c6, %c3, %c4096, %c12288) : (memref<2x16x16xf32, 2>, index, index, index, index)
    adf.buffer.location(%122, %c6, %c3, %c16384, %c24576) : (memref<16x16xf32, 2>, index, index, index, index)
    adf.buffer.location(%123, %c6, %c3, %c0, %c8192) : (memref<32x16xf32, 2>, index, index, index, index)
    adf.buffer.location(%121, %c5, %c2, %c4096, %c12288) : (memref<2x16x32xf32, 2>, index, index, index, index)
    adf.connect(%125, %arg41) {write = 1 : index} : (memref<2x16x16xf32, 2>, !adf.plio<Out, 128>)
    %126 = adf.buffer.create @L1_L1_A_28() : memref<2x16x32xf32, 2>
    %127 = adf.buffer.create @L1_L1_B_28() : memref<16x16xf32, 2>
    %128 = adf.buffer.create @L1_L1_C_28() : memref<32x16xf32, 2>
    adf.connect(%arg0, %126) : (!adf.plio<In, 128>, memref<2x16x32xf32, 2>)
    adf.connect(%arg39, %127) : (!adf.plio<In, 128>, memref<16x16xf32, 2>)
    adf.connect(%arg9, %128) : (!adf.plio<In, 128>, memref<32x16xf32, 2>)
    %129 = call @kernel_ttmc0(%126, %127, %128) {adf.kernel, "col, row" = [9 : index, 2 : index], ivs = [0 : index, 2 : index, 1 : index], kernel = 0 : index, kernel_ttmc0 = 28 : index} : (memref<2x16x32xf32, 2>, memref<16x16xf32, 2>, memref<32x16xf32, 2>) -> memref<2x16x16xf32, 2>
    adf.buffer.location(%129, %c9, %c2, %c16384, %c24576) : (memref<2x16x16xf32, 2>, index, index, index, index)
    adf.buffer.location(%127, %c9, %c2, %c0, %c8192) : (memref<16x16xf32, 2>, index, index, index, index)
    adf.buffer.location(%128, %c9, %c3, %c16384, %c24576) : (memref<32x16xf32, 2>, index, index, index, index)
    adf.buffer.location(%126, %c9, %c3, %c0, %c8192) : (memref<2x16x32xf32, 2>, index, index, index, index)
    %130 = adf.buffer.create @L1_L1_A_29() : memref<2x16x32xf32, 2>
    %131 = adf.buffer.create @L1_L1_B_29() : memref<16x16xf32, 2>
    %132 = adf.buffer.create @L1_L1_C_29() : memref<32x16xf32, 2>
    %133 = adf.buffer.create @L1_L1_D_29() : memref<2x16x16xf32, 2>
    adf.connect(%arg3, %130) : (!adf.plio<In, 128>, memref<2x16x32xf32, 2>)
    adf.connect(%arg39, %131) : (!adf.plio<In, 128>, memref<16x16xf32, 2>)
    adf.connect(%arg10, %132) : (!adf.plio<In, 128>, memref<32x16xf32, 2>)
    adf.connect(%129, %133) : (memref<2x16x16xf32, 2>, memref<2x16x16xf32, 2>)
    %134 = call @kernel_ttmc(%130, %131, %132, %133) {adf.kernel, "col, row" = [9 : index, 3 : index], ivs = [1 : index, 2 : index, 1 : index], kernel_ttmc = 29 : index} : (memref<2x16x32xf32, 2>, memref<16x16xf32, 2>, memref<32x16xf32, 2>, memref<2x16x16xf32, 2>) -> memref<2x16x16xf32, 2>
    adf.buffer.location(%134, %c10, %c3, %c4096, %c12288) : (memref<2x16x16xf32, 2>, index, index, index, index)
    adf.buffer.location(%131, %c10, %c3, %c16384, %c24576) : (memref<16x16xf32, 2>, index, index, index, index)
    adf.buffer.location(%132, %c10, %c3, %c0, %c8192) : (memref<32x16xf32, 2>, index, index, index, index)
    adf.buffer.location(%130, %c9, %c2, %c4096, %c12288) : (memref<2x16x32xf32, 2>, index, index, index, index)
    adf.connect(%134, %arg42) {write = 1 : index} : (memref<2x16x16xf32, 2>, !adf.plio<Out, 128>)
    %135 = adf.buffer.create @L1_L1_A_30() : memref<2x16x32xf32, 2>
    %136 = adf.buffer.create @L1_L1_B_30() : memref<16x16xf32, 2>
    %137 = adf.buffer.create @L1_L1_C_30() : memref<32x16xf32, 2>
    adf.connect(%arg0, %135) : (!adf.plio<In, 128>, memref<2x16x32xf32, 2>)
    adf.connect(%arg39, %136) : (!adf.plio<In, 128>, memref<16x16xf32, 2>)
    adf.connect(%arg12, %137) : (!adf.plio<In, 128>, memref<32x16xf32, 2>)
    %138 = call @kernel_ttmc0(%135, %136, %137) {adf.kernel, "col, row" = [13 : index, 2 : index], ivs = [0 : index, 3 : index, 1 : index], kernel = 0 : index, kernel_ttmc0 = 30 : index} : (memref<2x16x32xf32, 2>, memref<16x16xf32, 2>, memref<32x16xf32, 2>) -> memref<2x16x16xf32, 2>
    adf.buffer.location(%138, %c13, %c2, %c16384, %c24576) : (memref<2x16x16xf32, 2>, index, index, index, index)
    adf.buffer.location(%136, %c13, %c2, %c0, %c8192) : (memref<16x16xf32, 2>, index, index, index, index)
    adf.buffer.location(%137, %c13, %c3, %c16384, %c24576) : (memref<32x16xf32, 2>, index, index, index, index)
    adf.buffer.location(%135, %c13, %c3, %c0, %c8192) : (memref<2x16x32xf32, 2>, index, index, index, index)
    %139 = adf.buffer.create @L1_L1_A_31() : memref<2x16x32xf32, 2>
    %140 = adf.buffer.create @L1_L1_B_31() : memref<16x16xf32, 2>
    %141 = adf.buffer.create @L1_L1_C_31() : memref<32x16xf32, 2>
    %142 = adf.buffer.create @L1_L1_D_31() : memref<2x16x16xf32, 2>
    adf.connect(%arg3, %139) : (!adf.plio<In, 128>, memref<2x16x32xf32, 2>)
    adf.connect(%arg39, %140) : (!adf.plio<In, 128>, memref<16x16xf32, 2>)
    adf.connect(%arg13, %141) : (!adf.plio<In, 128>, memref<32x16xf32, 2>)
    adf.connect(%138, %142) : (memref<2x16x16xf32, 2>, memref<2x16x16xf32, 2>)
    %143 = call @kernel_ttmc(%139, %140, %141, %142) {adf.kernel, "col, row" = [13 : index, 3 : index], ivs = [1 : index, 3 : index, 1 : index], kernel_ttmc = 31 : index} : (memref<2x16x32xf32, 2>, memref<16x16xf32, 2>, memref<32x16xf32, 2>, memref<2x16x16xf32, 2>) -> memref<2x16x16xf32, 2>
    adf.buffer.location(%143, %c14, %c3, %c4096, %c12288) : (memref<2x16x16xf32, 2>, index, index, index, index)
    adf.buffer.location(%140, %c14, %c3, %c16384, %c24576) : (memref<16x16xf32, 2>, index, index, index, index)
    adf.buffer.location(%141, %c14, %c3, %c0, %c8192) : (memref<32x16xf32, 2>, index, index, index, index)
    adf.buffer.location(%139, %c13, %c2, %c4096, %c12288) : (memref<2x16x32xf32, 2>, index, index, index, index)
    adf.connect(%143, %arg43) {write = 1 : index} : (memref<2x16x16xf32, 2>, !adf.plio<Out, 128>)
    %144 = adf.buffer.create @L1_L1_A_32() : memref<2x16x32xf32, 2>
    %145 = adf.buffer.create @L1_L1_B_32() : memref<16x16xf32, 2>
    %146 = adf.buffer.create @L1_L1_C_32() : memref<32x16xf32, 2>
    adf.connect(%arg0, %144) : (!adf.plio<In, 128>, memref<2x16x32xf32, 2>)
    adf.connect(%arg39, %145) : (!adf.plio<In, 128>, memref<16x16xf32, 2>)
    adf.connect(%arg15, %146) : (!adf.plio<In, 128>, memref<32x16xf32, 2>)
    %147 = call @kernel_ttmc0(%144, %145, %146) {adf.kernel, "col, row" = [17 : index, 2 : index], ivs = [0 : index, 4 : index, 1 : index], kernel = 0 : index, kernel_ttmc0 = 32 : index} : (memref<2x16x32xf32, 2>, memref<16x16xf32, 2>, memref<32x16xf32, 2>) -> memref<2x16x16xf32, 2>
    adf.buffer.location(%147, %c17, %c2, %c16384, %c24576) : (memref<2x16x16xf32, 2>, index, index, index, index)
    adf.buffer.location(%145, %c17, %c2, %c0, %c8192) : (memref<16x16xf32, 2>, index, index, index, index)
    adf.buffer.location(%146, %c17, %c3, %c16384, %c24576) : (memref<32x16xf32, 2>, index, index, index, index)
    adf.buffer.location(%144, %c17, %c3, %c0, %c8192) : (memref<2x16x32xf32, 2>, index, index, index, index)
    %148 = adf.buffer.create @L1_L1_A_33() : memref<2x16x32xf32, 2>
    %149 = adf.buffer.create @L1_L1_B_33() : memref<16x16xf32, 2>
    %150 = adf.buffer.create @L1_L1_C_33() : memref<32x16xf32, 2>
    %151 = adf.buffer.create @L1_L1_D_33() : memref<2x16x16xf32, 2>
    adf.connect(%arg3, %148) : (!adf.plio<In, 128>, memref<2x16x32xf32, 2>)
    adf.connect(%arg39, %149) : (!adf.plio<In, 128>, memref<16x16xf32, 2>)
    adf.connect(%arg16, %150) : (!adf.plio<In, 128>, memref<32x16xf32, 2>)
    adf.connect(%147, %151) : (memref<2x16x16xf32, 2>, memref<2x16x16xf32, 2>)
    %152 = call @kernel_ttmc(%148, %149, %150, %151) {adf.kernel, "col, row" = [17 : index, 3 : index], ivs = [1 : index, 4 : index, 1 : index], kernel_ttmc = 33 : index} : (memref<2x16x32xf32, 2>, memref<16x16xf32, 2>, memref<32x16xf32, 2>, memref<2x16x16xf32, 2>) -> memref<2x16x16xf32, 2>
    adf.buffer.location(%152, %c18, %c3, %c4096, %c12288) : (memref<2x16x16xf32, 2>, index, index, index, index)
    adf.buffer.location(%149, %c18, %c3, %c16384, %c24576) : (memref<16x16xf32, 2>, index, index, index, index)
    adf.buffer.location(%150, %c18, %c3, %c0, %c8192) : (memref<32x16xf32, 2>, index, index, index, index)
    adf.buffer.location(%148, %c17, %c2, %c4096, %c12288) : (memref<2x16x32xf32, 2>, index, index, index, index)
    adf.connect(%152, %arg44) {write = 1 : index} : (memref<2x16x16xf32, 2>, !adf.plio<Out, 128>)
    %153 = adf.buffer.create @L1_L1_A_34() : memref<2x16x32xf32, 2>
    %154 = adf.buffer.create @L1_L1_B_34() : memref<16x16xf32, 2>
    %155 = adf.buffer.create @L1_L1_C_34() : memref<32x16xf32, 2>
    adf.connect(%arg0, %153) : (!adf.plio<In, 128>, memref<2x16x32xf32, 2>)
    adf.connect(%arg39, %154) : (!adf.plio<In, 128>, memref<16x16xf32, 2>)
    adf.connect(%arg18, %155) : (!adf.plio<In, 128>, memref<32x16xf32, 2>)
    %156 = call @kernel_ttmc0(%153, %154, %155) {adf.kernel, "col, row" = [21 : index, 2 : index], ivs = [0 : index, 5 : index, 1 : index], kernel = 0 : index, kernel_ttmc0 = 34 : index} : (memref<2x16x32xf32, 2>, memref<16x16xf32, 2>, memref<32x16xf32, 2>) -> memref<2x16x16xf32, 2>
    adf.buffer.location(%156, %c21, %c2, %c16384, %c24576) : (memref<2x16x16xf32, 2>, index, index, index, index)
    adf.buffer.location(%154, %c21, %c2, %c0, %c8192) : (memref<16x16xf32, 2>, index, index, index, index)
    adf.buffer.location(%155, %c21, %c3, %c16384, %c24576) : (memref<32x16xf32, 2>, index, index, index, index)
    adf.buffer.location(%153, %c21, %c3, %c0, %c8192) : (memref<2x16x32xf32, 2>, index, index, index, index)
    %157 = adf.buffer.create @L1_L1_A_35() : memref<2x16x32xf32, 2>
    %158 = adf.buffer.create @L1_L1_B_35() : memref<16x16xf32, 2>
    %159 = adf.buffer.create @L1_L1_C_35() : memref<32x16xf32, 2>
    %160 = adf.buffer.create @L1_L1_D_35() : memref<2x16x16xf32, 2>
    adf.connect(%arg3, %157) : (!adf.plio<In, 128>, memref<2x16x32xf32, 2>)
    adf.connect(%arg39, %158) : (!adf.plio<In, 128>, memref<16x16xf32, 2>)
    adf.connect(%arg19, %159) : (!adf.plio<In, 128>, memref<32x16xf32, 2>)
    adf.connect(%156, %160) : (memref<2x16x16xf32, 2>, memref<2x16x16xf32, 2>)
    %161 = call @kernel_ttmc(%157, %158, %159, %160) {adf.kernel, "col, row" = [21 : index, 3 : index], ivs = [1 : index, 5 : index, 1 : index], kernel_ttmc = 35 : index} : (memref<2x16x32xf32, 2>, memref<16x16xf32, 2>, memref<32x16xf32, 2>, memref<2x16x16xf32, 2>) -> memref<2x16x16xf32, 2>
    adf.buffer.location(%161, %c22, %c3, %c4096, %c12288) : (memref<2x16x16xf32, 2>, index, index, index, index)
    adf.buffer.location(%158, %c22, %c3, %c16384, %c24576) : (memref<16x16xf32, 2>, index, index, index, index)
    adf.buffer.location(%159, %c22, %c3, %c0, %c8192) : (memref<32x16xf32, 2>, index, index, index, index)
    adf.buffer.location(%157, %c21, %c2, %c4096, %c12288) : (memref<2x16x32xf32, 2>, index, index, index, index)
    adf.connect(%161, %arg45) {write = 1 : index} : (memref<2x16x16xf32, 2>, !adf.plio<Out, 128>)
    %162 = adf.buffer.create @L1_L1_A_36() : memref<2x16x32xf32, 2>
    %163 = adf.buffer.create @L1_L1_B_36() : memref<16x16xf32, 2>
    %164 = adf.buffer.create @L1_L1_C_36() : memref<32x16xf32, 2>
    adf.connect(%arg0, %162) : (!adf.plio<In, 128>, memref<2x16x32xf32, 2>)
    adf.connect(%arg39, %163) : (!adf.plio<In, 128>, memref<16x16xf32, 2>)
    adf.connect(%arg21, %164) : (!adf.plio<In, 128>, memref<32x16xf32, 2>)
    %165 = call @kernel_ttmc0(%162, %163, %164) {adf.kernel, "col, row" = [25 : index, 2 : index], ivs = [0 : index, 6 : index, 1 : index], kernel = 0 : index, kernel_ttmc0 = 36 : index} : (memref<2x16x32xf32, 2>, memref<16x16xf32, 2>, memref<32x16xf32, 2>) -> memref<2x16x16xf32, 2>
    adf.buffer.location(%165, %c25, %c2, %c16384, %c24576) : (memref<2x16x16xf32, 2>, index, index, index, index)
    adf.buffer.location(%163, %c25, %c2, %c0, %c8192) : (memref<16x16xf32, 2>, index, index, index, index)
    adf.buffer.location(%164, %c25, %c3, %c16384, %c24576) : (memref<32x16xf32, 2>, index, index, index, index)
    adf.buffer.location(%162, %c25, %c3, %c0, %c8192) : (memref<2x16x32xf32, 2>, index, index, index, index)
    %166 = adf.buffer.create @L1_L1_A_37() : memref<2x16x32xf32, 2>
    %167 = adf.buffer.create @L1_L1_B_37() : memref<16x16xf32, 2>
    %168 = adf.buffer.create @L1_L1_C_37() : memref<32x16xf32, 2>
    %169 = adf.buffer.create @L1_L1_D_37() : memref<2x16x16xf32, 2>
    adf.connect(%arg3, %166) : (!adf.plio<In, 128>, memref<2x16x32xf32, 2>)
    adf.connect(%arg39, %167) : (!adf.plio<In, 128>, memref<16x16xf32, 2>)
    adf.connect(%arg22, %168) : (!adf.plio<In, 128>, memref<32x16xf32, 2>)
    adf.connect(%165, %169) : (memref<2x16x16xf32, 2>, memref<2x16x16xf32, 2>)
    %170 = call @kernel_ttmc(%166, %167, %168, %169) {adf.kernel, "col, row" = [25 : index, 3 : index], ivs = [1 : index, 6 : index, 1 : index], kernel_ttmc = 37 : index} : (memref<2x16x32xf32, 2>, memref<16x16xf32, 2>, memref<32x16xf32, 2>, memref<2x16x16xf32, 2>) -> memref<2x16x16xf32, 2>
    adf.buffer.location(%170, %c26, %c3, %c4096, %c12288) : (memref<2x16x16xf32, 2>, index, index, index, index)
    adf.buffer.location(%167, %c26, %c3, %c16384, %c24576) : (memref<16x16xf32, 2>, index, index, index, index)
    adf.buffer.location(%168, %c26, %c3, %c0, %c8192) : (memref<32x16xf32, 2>, index, index, index, index)
    adf.buffer.location(%166, %c25, %c2, %c4096, %c12288) : (memref<2x16x32xf32, 2>, index, index, index, index)
    adf.connect(%170, %arg46) {write = 1 : index} : (memref<2x16x16xf32, 2>, !adf.plio<Out, 128>)
    %171 = adf.buffer.create @L1_L1_A_38() : memref<2x16x32xf32, 2>
    %172 = adf.buffer.create @L1_L1_B_38() : memref<16x16xf32, 2>
    %173 = adf.buffer.create @L1_L1_C_38() : memref<32x16xf32, 2>
    adf.connect(%arg0, %171) : (!adf.plio<In, 128>, memref<2x16x32xf32, 2>)
    adf.connect(%arg39, %172) : (!adf.plio<In, 128>, memref<16x16xf32, 2>)
    adf.connect(%arg24, %173) : (!adf.plio<In, 128>, memref<32x16xf32, 2>)
    %174 = call @kernel_ttmc0(%171, %172, %173) {adf.kernel, "col, row" = [29 : index, 2 : index], ivs = [0 : index, 7 : index, 1 : index], kernel = 0 : index, kernel_ttmc0 = 38 : index} : (memref<2x16x32xf32, 2>, memref<16x16xf32, 2>, memref<32x16xf32, 2>) -> memref<2x16x16xf32, 2>
    adf.buffer.location(%174, %c29, %c2, %c16384, %c24576) : (memref<2x16x16xf32, 2>, index, index, index, index)
    adf.buffer.location(%172, %c29, %c2, %c0, %c8192) : (memref<16x16xf32, 2>, index, index, index, index)
    adf.buffer.location(%173, %c29, %c3, %c16384, %c24576) : (memref<32x16xf32, 2>, index, index, index, index)
    adf.buffer.location(%171, %c29, %c3, %c0, %c8192) : (memref<2x16x32xf32, 2>, index, index, index, index)
    %175 = adf.buffer.create @L1_L1_A_39() : memref<2x16x32xf32, 2>
    %176 = adf.buffer.create @L1_L1_B_39() : memref<16x16xf32, 2>
    %177 = adf.buffer.create @L1_L1_C_39() : memref<32x16xf32, 2>
    %178 = adf.buffer.create @L1_L1_D_39() : memref<2x16x16xf32, 2>
    adf.connect(%arg3, %175) : (!adf.plio<In, 128>, memref<2x16x32xf32, 2>)
    adf.connect(%arg39, %176) : (!adf.plio<In, 128>, memref<16x16xf32, 2>)
    adf.connect(%arg25, %177) : (!adf.plio<In, 128>, memref<32x16xf32, 2>)
    adf.connect(%174, %178) : (memref<2x16x16xf32, 2>, memref<2x16x16xf32, 2>)
    %179 = call @kernel_ttmc(%175, %176, %177, %178) {adf.kernel, "col, row" = [29 : index, 3 : index], ivs = [1 : index, 7 : index, 1 : index], kernel_ttmc = 39 : index} : (memref<2x16x32xf32, 2>, memref<16x16xf32, 2>, memref<32x16xf32, 2>, memref<2x16x16xf32, 2>) -> memref<2x16x16xf32, 2>
    adf.buffer.location(%179, %c30, %c3, %c4096, %c12288) : (memref<2x16x16xf32, 2>, index, index, index, index)
    adf.buffer.location(%176, %c30, %c3, %c16384, %c24576) : (memref<16x16xf32, 2>, index, index, index, index)
    adf.buffer.location(%177, %c30, %c3, %c0, %c8192) : (memref<32x16xf32, 2>, index, index, index, index)
    adf.buffer.location(%175, %c29, %c2, %c4096, %c12288) : (memref<2x16x32xf32, 2>, index, index, index, index)
    adf.connect(%179, %arg47) {write = 1 : index} : (memref<2x16x16xf32, 2>, !adf.plio<Out, 128>)
    %180 = adf.buffer.create @L1_L1_A_40() : memref<2x16x32xf32, 2>
    %181 = adf.buffer.create @L1_L1_B_40() : memref<16x16xf32, 2>
    %182 = adf.buffer.create @L1_L1_C_40() : memref<32x16xf32, 2>
    adf.connect(%arg0, %180) : (!adf.plio<In, 128>, memref<2x16x32xf32, 2>)
    adf.connect(%arg39, %181) : (!adf.plio<In, 128>, memref<16x16xf32, 2>)
    adf.connect(%arg27, %182) : (!adf.plio<In, 128>, memref<32x16xf32, 2>)
    %183 = call @kernel_ttmc0(%180, %181, %182) {adf.kernel, "col, row" = [33 : index, 2 : index], ivs = [0 : index, 8 : index, 1 : index], kernel = 0 : index, kernel_ttmc0 = 40 : index} : (memref<2x16x32xf32, 2>, memref<16x16xf32, 2>, memref<32x16xf32, 2>) -> memref<2x16x16xf32, 2>
    adf.buffer.location(%183, %c33, %c2, %c16384, %c24576) : (memref<2x16x16xf32, 2>, index, index, index, index)
    adf.buffer.location(%181, %c33, %c2, %c0, %c8192) : (memref<16x16xf32, 2>, index, index, index, index)
    adf.buffer.location(%182, %c33, %c3, %c16384, %c24576) : (memref<32x16xf32, 2>, index, index, index, index)
    adf.buffer.location(%180, %c33, %c3, %c0, %c8192) : (memref<2x16x32xf32, 2>, index, index, index, index)
    %184 = adf.buffer.create @L1_L1_A_41() : memref<2x16x32xf32, 2>
    %185 = adf.buffer.create @L1_L1_B_41() : memref<16x16xf32, 2>
    %186 = adf.buffer.create @L1_L1_C_41() : memref<32x16xf32, 2>
    %187 = adf.buffer.create @L1_L1_D_41() : memref<2x16x16xf32, 2>
    adf.connect(%arg3, %184) : (!adf.plio<In, 128>, memref<2x16x32xf32, 2>)
    adf.connect(%arg39, %185) : (!adf.plio<In, 128>, memref<16x16xf32, 2>)
    adf.connect(%arg28, %186) : (!adf.plio<In, 128>, memref<32x16xf32, 2>)
    adf.connect(%183, %187) : (memref<2x16x16xf32, 2>, memref<2x16x16xf32, 2>)
    %188 = call @kernel_ttmc(%184, %185, %186, %187) {adf.kernel, "col, row" = [33 : index, 3 : index], ivs = [1 : index, 8 : index, 1 : index], kernel_ttmc = 41 : index} : (memref<2x16x32xf32, 2>, memref<16x16xf32, 2>, memref<32x16xf32, 2>, memref<2x16x16xf32, 2>) -> memref<2x16x16xf32, 2>
    adf.buffer.location(%188, %c34, %c3, %c4096, %c12288) : (memref<2x16x16xf32, 2>, index, index, index, index)
    adf.buffer.location(%185, %c34, %c3, %c16384, %c24576) : (memref<16x16xf32, 2>, index, index, index, index)
    adf.buffer.location(%186, %c34, %c3, %c0, %c8192) : (memref<32x16xf32, 2>, index, index, index, index)
    adf.buffer.location(%184, %c33, %c2, %c4096, %c12288) : (memref<2x16x32xf32, 2>, index, index, index, index)
    adf.connect(%188, %arg48) {write = 1 : index} : (memref<2x16x16xf32, 2>, !adf.plio<Out, 128>)
    %189 = adf.buffer.create @L1_L1_A_42() : memref<2x16x32xf32, 2>
    %190 = adf.buffer.create @L1_L1_B_42() : memref<16x16xf32, 2>
    %191 = adf.buffer.create @L1_L1_C_42() : memref<32x16xf32, 2>
    adf.connect(%arg0, %189) : (!adf.plio<In, 128>, memref<2x16x32xf32, 2>)
    adf.connect(%arg39, %190) : (!adf.plio<In, 128>, memref<16x16xf32, 2>)
    adf.connect(%arg30, %191) : (!adf.plio<In, 128>, memref<32x16xf32, 2>)
    %192 = call @kernel_ttmc0(%189, %190, %191) {adf.kernel, "col, row" = [37 : index, 2 : index], ivs = [0 : index, 9 : index, 1 : index], kernel = 0 : index, kernel_ttmc0 = 42 : index} : (memref<2x16x32xf32, 2>, memref<16x16xf32, 2>, memref<32x16xf32, 2>) -> memref<2x16x16xf32, 2>
    adf.buffer.location(%192, %c37, %c2, %c16384, %c24576) : (memref<2x16x16xf32, 2>, index, index, index, index)
    adf.buffer.location(%190, %c37, %c2, %c0, %c8192) : (memref<16x16xf32, 2>, index, index, index, index)
    adf.buffer.location(%191, %c37, %c3, %c16384, %c24576) : (memref<32x16xf32, 2>, index, index, index, index)
    adf.buffer.location(%189, %c37, %c3, %c0, %c8192) : (memref<2x16x32xf32, 2>, index, index, index, index)
    %193 = adf.buffer.create @L1_L1_A_43() : memref<2x16x32xf32, 2>
    %194 = adf.buffer.create @L1_L1_B_43() : memref<16x16xf32, 2>
    %195 = adf.buffer.create @L1_L1_C_43() : memref<32x16xf32, 2>
    %196 = adf.buffer.create @L1_L1_D_43() : memref<2x16x16xf32, 2>
    adf.connect(%arg3, %193) : (!adf.plio<In, 128>, memref<2x16x32xf32, 2>)
    adf.connect(%arg39, %194) : (!adf.plio<In, 128>, memref<16x16xf32, 2>)
    adf.connect(%arg31, %195) : (!adf.plio<In, 128>, memref<32x16xf32, 2>)
    adf.connect(%192, %196) : (memref<2x16x16xf32, 2>, memref<2x16x16xf32, 2>)
    %197 = call @kernel_ttmc(%193, %194, %195, %196) {adf.kernel, "col, row" = [37 : index, 3 : index], ivs = [1 : index, 9 : index, 1 : index], kernel_ttmc = 43 : index} : (memref<2x16x32xf32, 2>, memref<16x16xf32, 2>, memref<32x16xf32, 2>, memref<2x16x16xf32, 2>) -> memref<2x16x16xf32, 2>
    adf.buffer.location(%197, %c38, %c3, %c4096, %c12288) : (memref<2x16x16xf32, 2>, index, index, index, index)
    adf.buffer.location(%194, %c38, %c3, %c16384, %c24576) : (memref<16x16xf32, 2>, index, index, index, index)
    adf.buffer.location(%195, %c38, %c3, %c0, %c8192) : (memref<32x16xf32, 2>, index, index, index, index)
    adf.buffer.location(%193, %c37, %c2, %c4096, %c12288) : (memref<2x16x32xf32, 2>, index, index, index, index)
    adf.connect(%197, %arg49) {write = 1 : index} : (memref<2x16x16xf32, 2>, !adf.plio<Out, 128>)
    %198 = adf.buffer.create @L1_L1_A_44() : memref<2x16x32xf32, 2>
    %199 = adf.buffer.create @L1_L1_B_44() : memref<16x16xf32, 2>
    %200 = adf.buffer.create @L1_L1_C_44() : memref<32x16xf32, 2>
    adf.connect(%arg0, %198) : (!adf.plio<In, 128>, memref<2x16x32xf32, 2>)
    adf.connect(%arg39, %199) : (!adf.plio<In, 128>, memref<16x16xf32, 2>)
    adf.connect(%arg33, %200) : (!adf.plio<In, 128>, memref<32x16xf32, 2>)
    %201 = call @kernel_ttmc0(%198, %199, %200) {adf.kernel, "col, row" = [41 : index, 2 : index], ivs = [0 : index, 10 : index, 1 : index], kernel = 0 : index, kernel_ttmc0 = 44 : index} : (memref<2x16x32xf32, 2>, memref<16x16xf32, 2>, memref<32x16xf32, 2>) -> memref<2x16x16xf32, 2>
    adf.buffer.location(%201, %c41, %c2, %c16384, %c24576) : (memref<2x16x16xf32, 2>, index, index, index, index)
    adf.buffer.location(%199, %c41, %c2, %c0, %c8192) : (memref<16x16xf32, 2>, index, index, index, index)
    adf.buffer.location(%200, %c41, %c3, %c16384, %c24576) : (memref<32x16xf32, 2>, index, index, index, index)
    adf.buffer.location(%198, %c41, %c3, %c0, %c8192) : (memref<2x16x32xf32, 2>, index, index, index, index)
    %202 = adf.buffer.create @L1_L1_A_45() : memref<2x16x32xf32, 2>
    %203 = adf.buffer.create @L1_L1_B_45() : memref<16x16xf32, 2>
    %204 = adf.buffer.create @L1_L1_C_45() : memref<32x16xf32, 2>
    %205 = adf.buffer.create @L1_L1_D_45() : memref<2x16x16xf32, 2>
    adf.connect(%arg3, %202) : (!adf.plio<In, 128>, memref<2x16x32xf32, 2>)
    adf.connect(%arg39, %203) : (!adf.plio<In, 128>, memref<16x16xf32, 2>)
    adf.connect(%arg34, %204) : (!adf.plio<In, 128>, memref<32x16xf32, 2>)
    adf.connect(%201, %205) : (memref<2x16x16xf32, 2>, memref<2x16x16xf32, 2>)
    %206 = call @kernel_ttmc(%202, %203, %204, %205) {adf.kernel, "col, row" = [41 : index, 3 : index], ivs = [1 : index, 10 : index, 1 : index], kernel_ttmc = 45 : index} : (memref<2x16x32xf32, 2>, memref<16x16xf32, 2>, memref<32x16xf32, 2>, memref<2x16x16xf32, 2>) -> memref<2x16x16xf32, 2>
    adf.buffer.location(%206, %c42, %c3, %c4096, %c12288) : (memref<2x16x16xf32, 2>, index, index, index, index)
    adf.buffer.location(%203, %c42, %c3, %c16384, %c24576) : (memref<16x16xf32, 2>, index, index, index, index)
    adf.buffer.location(%204, %c42, %c3, %c0, %c8192) : (memref<32x16xf32, 2>, index, index, index, index)
    adf.buffer.location(%202, %c41, %c2, %c4096, %c12288) : (memref<2x16x32xf32, 2>, index, index, index, index)
    adf.connect(%206, %arg50) {write = 1 : index} : (memref<2x16x16xf32, 2>, !adf.plio<Out, 128>)
    %207 = adf.buffer.create @L1_L1_A_46() : memref<2x16x32xf32, 2>
    %208 = adf.buffer.create @L1_L1_B_46() : memref<16x16xf32, 2>
    %209 = adf.buffer.create @L1_L1_C_46() : memref<32x16xf32, 2>
    adf.connect(%arg0, %207) : (!adf.plio<In, 128>, memref<2x16x32xf32, 2>)
    adf.connect(%arg39, %208) : (!adf.plio<In, 128>, memref<16x16xf32, 2>)
    adf.connect(%arg36, %209) : (!adf.plio<In, 128>, memref<32x16xf32, 2>)
    %210 = call @kernel_ttmc0(%207, %208, %209) {adf.kernel, "col, row" = [45 : index, 2 : index], ivs = [0 : index, 11 : index, 1 : index], kernel = 0 : index, kernel_ttmc0 = 46 : index} : (memref<2x16x32xf32, 2>, memref<16x16xf32, 2>, memref<32x16xf32, 2>) -> memref<2x16x16xf32, 2>
    adf.buffer.location(%210, %c45, %c2, %c16384, %c24576) : (memref<2x16x16xf32, 2>, index, index, index, index)
    adf.buffer.location(%208, %c45, %c2, %c0, %c8192) : (memref<16x16xf32, 2>, index, index, index, index)
    adf.buffer.location(%209, %c45, %c3, %c16384, %c24576) : (memref<32x16xf32, 2>, index, index, index, index)
    adf.buffer.location(%207, %c45, %c3, %c0, %c8192) : (memref<2x16x32xf32, 2>, index, index, index, index)
    %211 = adf.buffer.create @L1_L1_A_47() : memref<2x16x32xf32, 2>
    %212 = adf.buffer.create @L1_L1_B_47() : memref<16x16xf32, 2>
    %213 = adf.buffer.create @L1_L1_C_47() : memref<32x16xf32, 2>
    %214 = adf.buffer.create @L1_L1_D_47() : memref<2x16x16xf32, 2>
    adf.connect(%arg3, %211) : (!adf.plio<In, 128>, memref<2x16x32xf32, 2>)
    adf.connect(%arg39, %212) : (!adf.plio<In, 128>, memref<16x16xf32, 2>)
    adf.connect(%arg37, %213) : (!adf.plio<In, 128>, memref<32x16xf32, 2>)
    adf.connect(%210, %214) : (memref<2x16x16xf32, 2>, memref<2x16x16xf32, 2>)
    %215 = call @kernel_ttmc(%211, %212, %213, %214) {adf.kernel, "col, row" = [45 : index, 3 : index], ivs = [1 : index, 11 : index, 1 : index], kernel_ttmc = 47 : index} : (memref<2x16x32xf32, 2>, memref<16x16xf32, 2>, memref<32x16xf32, 2>, memref<2x16x16xf32, 2>) -> memref<2x16x16xf32, 2>
    adf.buffer.location(%215, %c46, %c3, %c4096, %c12288) : (memref<2x16x16xf32, 2>, index, index, index, index)
    adf.buffer.location(%212, %c46, %c3, %c16384, %c24576) : (memref<16x16xf32, 2>, index, index, index, index)
    adf.buffer.location(%213, %c46, %c3, %c0, %c8192) : (memref<32x16xf32, 2>, index, index, index, index)
    adf.buffer.location(%211, %c45, %c2, %c4096, %c12288) : (memref<2x16x32xf32, 2>, index, index, index, index)
    adf.connect(%215, %arg51) {write = 1 : index} : (memref<2x16x16xf32, 2>, !adf.plio<Out, 128>)
    %216 = adf.buffer.create @L1_L1_A_48() : memref<2x16x32xf32, 2>
    %217 = adf.buffer.create @L1_L1_B_48() : memref<16x16xf32, 2>
    %218 = adf.buffer.create @L1_L1_C_48() : memref<32x16xf32, 2>
    adf.connect(%arg0, %216) : (!adf.plio<In, 128>, memref<2x16x32xf32, 2>)
    adf.connect(%arg52, %217) : (!adf.plio<In, 128>, memref<16x16xf32, 2>)
    adf.connect(%arg2, %218) : (!adf.plio<In, 128>, memref<32x16xf32, 2>)
    %219 = call @kernel_ttmc0(%216, %217, %218) {adf.kernel, "col, row" = [1 : index, 4 : index], ivs = [0 : index, 0 : index, 2 : index], kernel = 0 : index, kernel_ttmc0 = 48 : index} : (memref<2x16x32xf32, 2>, memref<16x16xf32, 2>, memref<32x16xf32, 2>) -> memref<2x16x16xf32, 2>
    adf.buffer.location(%219, %c1, %c4, %c16384, %c24576) : (memref<2x16x16xf32, 2>, index, index, index, index)
    adf.buffer.location(%217, %c1, %c4, %c0, %c8192) : (memref<16x16xf32, 2>, index, index, index, index)
    adf.buffer.location(%218, %c1, %c5, %c16384, %c24576) : (memref<32x16xf32, 2>, index, index, index, index)
    adf.buffer.location(%216, %c1, %c5, %c0, %c8192) : (memref<2x16x32xf32, 2>, index, index, index, index)
    %220 = adf.buffer.create @L1_L1_A_49() : memref<2x16x32xf32, 2>
    %221 = adf.buffer.create @L1_L1_B_49() : memref<16x16xf32, 2>
    %222 = adf.buffer.create @L1_L1_C_49() : memref<32x16xf32, 2>
    %223 = adf.buffer.create @L1_L1_D_49() : memref<2x16x16xf32, 2>
    adf.connect(%arg3, %220) : (!adf.plio<In, 128>, memref<2x16x32xf32, 2>)
    adf.connect(%arg52, %221) : (!adf.plio<In, 128>, memref<16x16xf32, 2>)
    adf.connect(%arg4, %222) : (!adf.plio<In, 128>, memref<32x16xf32, 2>)
    adf.connect(%219, %223) : (memref<2x16x16xf32, 2>, memref<2x16x16xf32, 2>)
    %224 = call @kernel_ttmc(%220, %221, %222, %223) {adf.kernel, "col, row" = [1 : index, 5 : index], ivs = [1 : index, 0 : index, 2 : index], kernel_ttmc = 49 : index} : (memref<2x16x32xf32, 2>, memref<16x16xf32, 2>, memref<32x16xf32, 2>, memref<2x16x16xf32, 2>) -> memref<2x16x16xf32, 2>
    adf.buffer.location(%224, %c2, %c5, %c4096, %c12288) : (memref<2x16x16xf32, 2>, index, index, index, index)
    adf.buffer.location(%221, %c2, %c5, %c16384, %c24576) : (memref<16x16xf32, 2>, index, index, index, index)
    adf.buffer.location(%222, %c2, %c5, %c0, %c8192) : (memref<32x16xf32, 2>, index, index, index, index)
    adf.buffer.location(%220, %c1, %c4, %c4096, %c12288) : (memref<2x16x32xf32, 2>, index, index, index, index)
    adf.connect(%224, %arg53) {write = 1 : index} : (memref<2x16x16xf32, 2>, !adf.plio<Out, 128>)
    %225 = adf.buffer.create @L1_L1_A_50() : memref<2x16x32xf32, 2>
    %226 = adf.buffer.create @L1_L1_B_50() : memref<16x16xf32, 2>
    %227 = adf.buffer.create @L1_L1_C_50() : memref<32x16xf32, 2>
    adf.connect(%arg0, %225) : (!adf.plio<In, 128>, memref<2x16x32xf32, 2>)
    adf.connect(%arg52, %226) : (!adf.plio<In, 128>, memref<16x16xf32, 2>)
    adf.connect(%arg6, %227) : (!adf.plio<In, 128>, memref<32x16xf32, 2>)
    %228 = call @kernel_ttmc0(%225, %226, %227) {adf.kernel, "col, row" = [5 : index, 4 : index], ivs = [0 : index, 1 : index, 2 : index], kernel = 0 : index, kernel_ttmc0 = 50 : index} : (memref<2x16x32xf32, 2>, memref<16x16xf32, 2>, memref<32x16xf32, 2>) -> memref<2x16x16xf32, 2>
    adf.buffer.location(%228, %c5, %c4, %c16384, %c24576) : (memref<2x16x16xf32, 2>, index, index, index, index)
    adf.buffer.location(%226, %c5, %c4, %c0, %c8192) : (memref<16x16xf32, 2>, index, index, index, index)
    adf.buffer.location(%227, %c5, %c5, %c16384, %c24576) : (memref<32x16xf32, 2>, index, index, index, index)
    adf.buffer.location(%225, %c5, %c5, %c0, %c8192) : (memref<2x16x32xf32, 2>, index, index, index, index)
    %229 = adf.buffer.create @L1_L1_A_51() : memref<2x16x32xf32, 2>
    %230 = adf.buffer.create @L1_L1_B_51() : memref<16x16xf32, 2>
    %231 = adf.buffer.create @L1_L1_C_51() : memref<32x16xf32, 2>
    %232 = adf.buffer.create @L1_L1_D_51() : memref<2x16x16xf32, 2>
    adf.connect(%arg3, %229) : (!adf.plio<In, 128>, memref<2x16x32xf32, 2>)
    adf.connect(%arg52, %230) : (!adf.plio<In, 128>, memref<16x16xf32, 2>)
    adf.connect(%arg7, %231) : (!adf.plio<In, 128>, memref<32x16xf32, 2>)
    adf.connect(%228, %232) : (memref<2x16x16xf32, 2>, memref<2x16x16xf32, 2>)
    %233 = call @kernel_ttmc(%229, %230, %231, %232) {adf.kernel, "col, row" = [5 : index, 5 : index], ivs = [1 : index, 1 : index, 2 : index], kernel_ttmc = 51 : index} : (memref<2x16x32xf32, 2>, memref<16x16xf32, 2>, memref<32x16xf32, 2>, memref<2x16x16xf32, 2>) -> memref<2x16x16xf32, 2>
    adf.buffer.location(%233, %c6, %c5, %c4096, %c12288) : (memref<2x16x16xf32, 2>, index, index, index, index)
    adf.buffer.location(%230, %c6, %c5, %c16384, %c24576) : (memref<16x16xf32, 2>, index, index, index, index)
    adf.buffer.location(%231, %c6, %c5, %c0, %c8192) : (memref<32x16xf32, 2>, index, index, index, index)
    adf.buffer.location(%229, %c5, %c4, %c4096, %c12288) : (memref<2x16x32xf32, 2>, index, index, index, index)
    adf.connect(%233, %arg54) {write = 1 : index} : (memref<2x16x16xf32, 2>, !adf.plio<Out, 128>)
    %234 = adf.buffer.create @L1_L1_A_52() : memref<2x16x32xf32, 2>
    %235 = adf.buffer.create @L1_L1_B_52() : memref<16x16xf32, 2>
    %236 = adf.buffer.create @L1_L1_C_52() : memref<32x16xf32, 2>
    adf.connect(%arg0, %234) : (!adf.plio<In, 128>, memref<2x16x32xf32, 2>)
    adf.connect(%arg52, %235) : (!adf.plio<In, 128>, memref<16x16xf32, 2>)
    adf.connect(%arg9, %236) : (!adf.plio<In, 128>, memref<32x16xf32, 2>)
    %237 = call @kernel_ttmc0(%234, %235, %236) {adf.kernel, "col, row" = [9 : index, 4 : index], ivs = [0 : index, 2 : index, 2 : index], kernel = 0 : index, kernel_ttmc0 = 52 : index} : (memref<2x16x32xf32, 2>, memref<16x16xf32, 2>, memref<32x16xf32, 2>) -> memref<2x16x16xf32, 2>
    adf.buffer.location(%237, %c9, %c4, %c16384, %c24576) : (memref<2x16x16xf32, 2>, index, index, index, index)
    adf.buffer.location(%235, %c9, %c4, %c0, %c8192) : (memref<16x16xf32, 2>, index, index, index, index)
    adf.buffer.location(%236, %c9, %c5, %c16384, %c24576) : (memref<32x16xf32, 2>, index, index, index, index)
    adf.buffer.location(%234, %c9, %c5, %c0, %c8192) : (memref<2x16x32xf32, 2>, index, index, index, index)
    %238 = adf.buffer.create @L1_L1_A_53() : memref<2x16x32xf32, 2>
    %239 = adf.buffer.create @L1_L1_B_53() : memref<16x16xf32, 2>
    %240 = adf.buffer.create @L1_L1_C_53() : memref<32x16xf32, 2>
    %241 = adf.buffer.create @L1_L1_D_53() : memref<2x16x16xf32, 2>
    adf.connect(%arg3, %238) : (!adf.plio<In, 128>, memref<2x16x32xf32, 2>)
    adf.connect(%arg52, %239) : (!adf.plio<In, 128>, memref<16x16xf32, 2>)
    adf.connect(%arg10, %240) : (!adf.plio<In, 128>, memref<32x16xf32, 2>)
    adf.connect(%237, %241) : (memref<2x16x16xf32, 2>, memref<2x16x16xf32, 2>)
    %242 = call @kernel_ttmc(%238, %239, %240, %241) {adf.kernel, "col, row" = [9 : index, 5 : index], ivs = [1 : index, 2 : index, 2 : index], kernel_ttmc = 53 : index} : (memref<2x16x32xf32, 2>, memref<16x16xf32, 2>, memref<32x16xf32, 2>, memref<2x16x16xf32, 2>) -> memref<2x16x16xf32, 2>
    adf.buffer.location(%242, %c10, %c5, %c4096, %c12288) : (memref<2x16x16xf32, 2>, index, index, index, index)
    adf.buffer.location(%239, %c10, %c5, %c16384, %c24576) : (memref<16x16xf32, 2>, index, index, index, index)
    adf.buffer.location(%240, %c10, %c5, %c0, %c8192) : (memref<32x16xf32, 2>, index, index, index, index)
    adf.buffer.location(%238, %c9, %c4, %c4096, %c12288) : (memref<2x16x32xf32, 2>, index, index, index, index)
    adf.connect(%242, %arg55) {write = 1 : index} : (memref<2x16x16xf32, 2>, !adf.plio<Out, 128>)
    %243 = adf.buffer.create @L1_L1_A_54() : memref<2x16x32xf32, 2>
    %244 = adf.buffer.create @L1_L1_B_54() : memref<16x16xf32, 2>
    %245 = adf.buffer.create @L1_L1_C_54() : memref<32x16xf32, 2>
    adf.connect(%arg0, %243) : (!adf.plio<In, 128>, memref<2x16x32xf32, 2>)
    adf.connect(%arg52, %244) : (!adf.plio<In, 128>, memref<16x16xf32, 2>)
    adf.connect(%arg12, %245) : (!adf.plio<In, 128>, memref<32x16xf32, 2>)
    %246 = call @kernel_ttmc0(%243, %244, %245) {adf.kernel, "col, row" = [13 : index, 4 : index], ivs = [0 : index, 3 : index, 2 : index], kernel = 0 : index, kernel_ttmc0 = 54 : index} : (memref<2x16x32xf32, 2>, memref<16x16xf32, 2>, memref<32x16xf32, 2>) -> memref<2x16x16xf32, 2>
    adf.buffer.location(%246, %c13, %c4, %c16384, %c24576) : (memref<2x16x16xf32, 2>, index, index, index, index)
    adf.buffer.location(%244, %c13, %c4, %c0, %c8192) : (memref<16x16xf32, 2>, index, index, index, index)
    adf.buffer.location(%245, %c13, %c5, %c16384, %c24576) : (memref<32x16xf32, 2>, index, index, index, index)
    adf.buffer.location(%243, %c13, %c5, %c0, %c8192) : (memref<2x16x32xf32, 2>, index, index, index, index)
    %247 = adf.buffer.create @L1_L1_A_55() : memref<2x16x32xf32, 2>
    %248 = adf.buffer.create @L1_L1_B_55() : memref<16x16xf32, 2>
    %249 = adf.buffer.create @L1_L1_C_55() : memref<32x16xf32, 2>
    %250 = adf.buffer.create @L1_L1_D_55() : memref<2x16x16xf32, 2>
    adf.connect(%arg3, %247) : (!adf.plio<In, 128>, memref<2x16x32xf32, 2>)
    adf.connect(%arg52, %248) : (!adf.plio<In, 128>, memref<16x16xf32, 2>)
    adf.connect(%arg13, %249) : (!adf.plio<In, 128>, memref<32x16xf32, 2>)
    adf.connect(%246, %250) : (memref<2x16x16xf32, 2>, memref<2x16x16xf32, 2>)
    %251 = call @kernel_ttmc(%247, %248, %249, %250) {adf.kernel, "col, row" = [13 : index, 5 : index], ivs = [1 : index, 3 : index, 2 : index], kernel_ttmc = 55 : index} : (memref<2x16x32xf32, 2>, memref<16x16xf32, 2>, memref<32x16xf32, 2>, memref<2x16x16xf32, 2>) -> memref<2x16x16xf32, 2>
    adf.buffer.location(%251, %c14, %c5, %c4096, %c12288) : (memref<2x16x16xf32, 2>, index, index, index, index)
    adf.buffer.location(%248, %c14, %c5, %c16384, %c24576) : (memref<16x16xf32, 2>, index, index, index, index)
    adf.buffer.location(%249, %c14, %c5, %c0, %c8192) : (memref<32x16xf32, 2>, index, index, index, index)
    adf.buffer.location(%247, %c13, %c4, %c4096, %c12288) : (memref<2x16x32xf32, 2>, index, index, index, index)
    adf.connect(%251, %arg56) {write = 1 : index} : (memref<2x16x16xf32, 2>, !adf.plio<Out, 128>)
    %252 = adf.buffer.create @L1_L1_A_56() : memref<2x16x32xf32, 2>
    %253 = adf.buffer.create @L1_L1_B_56() : memref<16x16xf32, 2>
    %254 = adf.buffer.create @L1_L1_C_56() : memref<32x16xf32, 2>
    adf.connect(%arg0, %252) : (!adf.plio<In, 128>, memref<2x16x32xf32, 2>)
    adf.connect(%arg52, %253) : (!adf.plio<In, 128>, memref<16x16xf32, 2>)
    adf.connect(%arg15, %254) : (!adf.plio<In, 128>, memref<32x16xf32, 2>)
    %255 = call @kernel_ttmc0(%252, %253, %254) {adf.kernel, "col, row" = [17 : index, 4 : index], ivs = [0 : index, 4 : index, 2 : index], kernel = 0 : index, kernel_ttmc0 = 56 : index} : (memref<2x16x32xf32, 2>, memref<16x16xf32, 2>, memref<32x16xf32, 2>) -> memref<2x16x16xf32, 2>
    adf.buffer.location(%255, %c17, %c4, %c16384, %c24576) : (memref<2x16x16xf32, 2>, index, index, index, index)
    adf.buffer.location(%253, %c17, %c4, %c0, %c8192) : (memref<16x16xf32, 2>, index, index, index, index)
    adf.buffer.location(%254, %c17, %c5, %c16384, %c24576) : (memref<32x16xf32, 2>, index, index, index, index)
    adf.buffer.location(%252, %c17, %c5, %c0, %c8192) : (memref<2x16x32xf32, 2>, index, index, index, index)
    %256 = adf.buffer.create @L1_L1_A_57() : memref<2x16x32xf32, 2>
    %257 = adf.buffer.create @L1_L1_B_57() : memref<16x16xf32, 2>
    %258 = adf.buffer.create @L1_L1_C_57() : memref<32x16xf32, 2>
    %259 = adf.buffer.create @L1_L1_D_57() : memref<2x16x16xf32, 2>
    adf.connect(%arg3, %256) : (!adf.plio<In, 128>, memref<2x16x32xf32, 2>)
    adf.connect(%arg52, %257) : (!adf.plio<In, 128>, memref<16x16xf32, 2>)
    adf.connect(%arg16, %258) : (!adf.plio<In, 128>, memref<32x16xf32, 2>)
    adf.connect(%255, %259) : (memref<2x16x16xf32, 2>, memref<2x16x16xf32, 2>)
    %260 = call @kernel_ttmc(%256, %257, %258, %259) {adf.kernel, "col, row" = [17 : index, 5 : index], ivs = [1 : index, 4 : index, 2 : index], kernel_ttmc = 57 : index} : (memref<2x16x32xf32, 2>, memref<16x16xf32, 2>, memref<32x16xf32, 2>, memref<2x16x16xf32, 2>) -> memref<2x16x16xf32, 2>
    adf.buffer.location(%260, %c18, %c5, %c4096, %c12288) : (memref<2x16x16xf32, 2>, index, index, index, index)
    adf.buffer.location(%257, %c18, %c5, %c16384, %c24576) : (memref<16x16xf32, 2>, index, index, index, index)
    adf.buffer.location(%258, %c18, %c5, %c0, %c8192) : (memref<32x16xf32, 2>, index, index, index, index)
    adf.buffer.location(%256, %c17, %c4, %c4096, %c12288) : (memref<2x16x32xf32, 2>, index, index, index, index)
    adf.connect(%260, %arg57) {write = 1 : index} : (memref<2x16x16xf32, 2>, !adf.plio<Out, 128>)
    %261 = adf.buffer.create @L1_L1_A_58() : memref<2x16x32xf32, 2>
    %262 = adf.buffer.create @L1_L1_B_58() : memref<16x16xf32, 2>
    %263 = adf.buffer.create @L1_L1_C_58() : memref<32x16xf32, 2>
    adf.connect(%arg0, %261) : (!adf.plio<In, 128>, memref<2x16x32xf32, 2>)
    adf.connect(%arg52, %262) : (!adf.plio<In, 128>, memref<16x16xf32, 2>)
    adf.connect(%arg18, %263) : (!adf.plio<In, 128>, memref<32x16xf32, 2>)
    %264 = call @kernel_ttmc0(%261, %262, %263) {adf.kernel, "col, row" = [21 : index, 4 : index], ivs = [0 : index, 5 : index, 2 : index], kernel = 0 : index, kernel_ttmc0 = 58 : index} : (memref<2x16x32xf32, 2>, memref<16x16xf32, 2>, memref<32x16xf32, 2>) -> memref<2x16x16xf32, 2>
    adf.buffer.location(%264, %c21, %c4, %c16384, %c24576) : (memref<2x16x16xf32, 2>, index, index, index, index)
    adf.buffer.location(%262, %c21, %c4, %c0, %c8192) : (memref<16x16xf32, 2>, index, index, index, index)
    adf.buffer.location(%263, %c21, %c5, %c16384, %c24576) : (memref<32x16xf32, 2>, index, index, index, index)
    adf.buffer.location(%261, %c21, %c5, %c0, %c8192) : (memref<2x16x32xf32, 2>, index, index, index, index)
    %265 = adf.buffer.create @L1_L1_A_59() : memref<2x16x32xf32, 2>
    %266 = adf.buffer.create @L1_L1_B_59() : memref<16x16xf32, 2>
    %267 = adf.buffer.create @L1_L1_C_59() : memref<32x16xf32, 2>
    %268 = adf.buffer.create @L1_L1_D_59() : memref<2x16x16xf32, 2>
    adf.connect(%arg3, %265) : (!adf.plio<In, 128>, memref<2x16x32xf32, 2>)
    adf.connect(%arg52, %266) : (!adf.plio<In, 128>, memref<16x16xf32, 2>)
    adf.connect(%arg19, %267) : (!adf.plio<In, 128>, memref<32x16xf32, 2>)
    adf.connect(%264, %268) : (memref<2x16x16xf32, 2>, memref<2x16x16xf32, 2>)
    %269 = call @kernel_ttmc(%265, %266, %267, %268) {adf.kernel, "col, row" = [21 : index, 5 : index], ivs = [1 : index, 5 : index, 2 : index], kernel_ttmc = 59 : index} : (memref<2x16x32xf32, 2>, memref<16x16xf32, 2>, memref<32x16xf32, 2>, memref<2x16x16xf32, 2>) -> memref<2x16x16xf32, 2>
    adf.buffer.location(%269, %c22, %c5, %c4096, %c12288) : (memref<2x16x16xf32, 2>, index, index, index, index)
    adf.buffer.location(%266, %c22, %c5, %c16384, %c24576) : (memref<16x16xf32, 2>, index, index, index, index)
    adf.buffer.location(%267, %c22, %c5, %c0, %c8192) : (memref<32x16xf32, 2>, index, index, index, index)
    adf.buffer.location(%265, %c21, %c4, %c4096, %c12288) : (memref<2x16x32xf32, 2>, index, index, index, index)
    adf.connect(%269, %arg58) {write = 1 : index} : (memref<2x16x16xf32, 2>, !adf.plio<Out, 128>)
    %270 = adf.buffer.create @L1_L1_A_60() : memref<2x16x32xf32, 2>
    %271 = adf.buffer.create @L1_L1_B_60() : memref<16x16xf32, 2>
    %272 = adf.buffer.create @L1_L1_C_60() : memref<32x16xf32, 2>
    adf.connect(%arg0, %270) : (!adf.plio<In, 128>, memref<2x16x32xf32, 2>)
    adf.connect(%arg52, %271) : (!adf.plio<In, 128>, memref<16x16xf32, 2>)
    adf.connect(%arg21, %272) : (!adf.plio<In, 128>, memref<32x16xf32, 2>)
    %273 = call @kernel_ttmc0(%270, %271, %272) {adf.kernel, "col, row" = [25 : index, 4 : index], ivs = [0 : index, 6 : index, 2 : index], kernel = 0 : index, kernel_ttmc0 = 60 : index} : (memref<2x16x32xf32, 2>, memref<16x16xf32, 2>, memref<32x16xf32, 2>) -> memref<2x16x16xf32, 2>
    adf.buffer.location(%273, %c25, %c4, %c16384, %c24576) : (memref<2x16x16xf32, 2>, index, index, index, index)
    adf.buffer.location(%271, %c25, %c4, %c0, %c8192) : (memref<16x16xf32, 2>, index, index, index, index)
    adf.buffer.location(%272, %c25, %c5, %c16384, %c24576) : (memref<32x16xf32, 2>, index, index, index, index)
    adf.buffer.location(%270, %c25, %c5, %c0, %c8192) : (memref<2x16x32xf32, 2>, index, index, index, index)
    %274 = adf.buffer.create @L1_L1_A_61() : memref<2x16x32xf32, 2>
    %275 = adf.buffer.create @L1_L1_B_61() : memref<16x16xf32, 2>
    %276 = adf.buffer.create @L1_L1_C_61() : memref<32x16xf32, 2>
    %277 = adf.buffer.create @L1_L1_D_61() : memref<2x16x16xf32, 2>
    adf.connect(%arg3, %274) : (!adf.plio<In, 128>, memref<2x16x32xf32, 2>)
    adf.connect(%arg52, %275) : (!adf.plio<In, 128>, memref<16x16xf32, 2>)
    adf.connect(%arg22, %276) : (!adf.plio<In, 128>, memref<32x16xf32, 2>)
    adf.connect(%273, %277) : (memref<2x16x16xf32, 2>, memref<2x16x16xf32, 2>)
    %278 = call @kernel_ttmc(%274, %275, %276, %277) {adf.kernel, "col, row" = [25 : index, 5 : index], ivs = [1 : index, 6 : index, 2 : index], kernel_ttmc = 61 : index} : (memref<2x16x32xf32, 2>, memref<16x16xf32, 2>, memref<32x16xf32, 2>, memref<2x16x16xf32, 2>) -> memref<2x16x16xf32, 2>
    adf.buffer.location(%278, %c26, %c5, %c4096, %c12288) : (memref<2x16x16xf32, 2>, index, index, index, index)
    adf.buffer.location(%275, %c26, %c5, %c16384, %c24576) : (memref<16x16xf32, 2>, index, index, index, index)
    adf.buffer.location(%276, %c26, %c5, %c0, %c8192) : (memref<32x16xf32, 2>, index, index, index, index)
    adf.buffer.location(%274, %c25, %c4, %c4096, %c12288) : (memref<2x16x32xf32, 2>, index, index, index, index)
    adf.connect(%278, %arg59) {write = 1 : index} : (memref<2x16x16xf32, 2>, !adf.plio<Out, 128>)
    %279 = adf.buffer.create @L1_L1_A_62() : memref<2x16x32xf32, 2>
    %280 = adf.buffer.create @L1_L1_B_62() : memref<16x16xf32, 2>
    %281 = adf.buffer.create @L1_L1_C_62() : memref<32x16xf32, 2>
    adf.connect(%arg0, %279) : (!adf.plio<In, 128>, memref<2x16x32xf32, 2>)
    adf.connect(%arg52, %280) : (!adf.plio<In, 128>, memref<16x16xf32, 2>)
    adf.connect(%arg24, %281) : (!adf.plio<In, 128>, memref<32x16xf32, 2>)
    %282 = call @kernel_ttmc0(%279, %280, %281) {adf.kernel, "col, row" = [29 : index, 4 : index], ivs = [0 : index, 7 : index, 2 : index], kernel = 0 : index, kernel_ttmc0 = 62 : index} : (memref<2x16x32xf32, 2>, memref<16x16xf32, 2>, memref<32x16xf32, 2>) -> memref<2x16x16xf32, 2>
    adf.buffer.location(%282, %c29, %c4, %c16384, %c24576) : (memref<2x16x16xf32, 2>, index, index, index, index)
    adf.buffer.location(%280, %c29, %c4, %c0, %c8192) : (memref<16x16xf32, 2>, index, index, index, index)
    adf.buffer.location(%281, %c29, %c5, %c16384, %c24576) : (memref<32x16xf32, 2>, index, index, index, index)
    adf.buffer.location(%279, %c29, %c5, %c0, %c8192) : (memref<2x16x32xf32, 2>, index, index, index, index)
    %283 = adf.buffer.create @L1_L1_A_63() : memref<2x16x32xf32, 2>
    %284 = adf.buffer.create @L1_L1_B_63() : memref<16x16xf32, 2>
    %285 = adf.buffer.create @L1_L1_C_63() : memref<32x16xf32, 2>
    %286 = adf.buffer.create @L1_L1_D_63() : memref<2x16x16xf32, 2>
    adf.connect(%arg3, %283) : (!adf.plio<In, 128>, memref<2x16x32xf32, 2>)
    adf.connect(%arg52, %284) : (!adf.plio<In, 128>, memref<16x16xf32, 2>)
    adf.connect(%arg25, %285) : (!adf.plio<In, 128>, memref<32x16xf32, 2>)
    adf.connect(%282, %286) : (memref<2x16x16xf32, 2>, memref<2x16x16xf32, 2>)
    %287 = call @kernel_ttmc(%283, %284, %285, %286) {adf.kernel, "col, row" = [29 : index, 5 : index], ivs = [1 : index, 7 : index, 2 : index], kernel_ttmc = 63 : index} : (memref<2x16x32xf32, 2>, memref<16x16xf32, 2>, memref<32x16xf32, 2>, memref<2x16x16xf32, 2>) -> memref<2x16x16xf32, 2>
    adf.buffer.location(%287, %c30, %c5, %c4096, %c12288) : (memref<2x16x16xf32, 2>, index, index, index, index)
    adf.buffer.location(%284, %c30, %c5, %c16384, %c24576) : (memref<16x16xf32, 2>, index, index, index, index)
    adf.buffer.location(%285, %c30, %c5, %c0, %c8192) : (memref<32x16xf32, 2>, index, index, index, index)
    adf.buffer.location(%283, %c29, %c4, %c4096, %c12288) : (memref<2x16x32xf32, 2>, index, index, index, index)
    adf.connect(%287, %arg60) {write = 1 : index} : (memref<2x16x16xf32, 2>, !adf.plio<Out, 128>)
    %288 = adf.buffer.create @L1_L1_A_64() : memref<2x16x32xf32, 2>
    %289 = adf.buffer.create @L1_L1_B_64() : memref<16x16xf32, 2>
    %290 = adf.buffer.create @L1_L1_C_64() : memref<32x16xf32, 2>
    adf.connect(%arg0, %288) : (!adf.plio<In, 128>, memref<2x16x32xf32, 2>)
    adf.connect(%arg52, %289) : (!adf.plio<In, 128>, memref<16x16xf32, 2>)
    adf.connect(%arg27, %290) : (!adf.plio<In, 128>, memref<32x16xf32, 2>)
    %291 = call @kernel_ttmc0(%288, %289, %290) {adf.kernel, "col, row" = [33 : index, 4 : index], ivs = [0 : index, 8 : index, 2 : index], kernel = 0 : index, kernel_ttmc0 = 64 : index} : (memref<2x16x32xf32, 2>, memref<16x16xf32, 2>, memref<32x16xf32, 2>) -> memref<2x16x16xf32, 2>
    adf.buffer.location(%291, %c33, %c4, %c16384, %c24576) : (memref<2x16x16xf32, 2>, index, index, index, index)
    adf.buffer.location(%289, %c33, %c4, %c0, %c8192) : (memref<16x16xf32, 2>, index, index, index, index)
    adf.buffer.location(%290, %c33, %c5, %c16384, %c24576) : (memref<32x16xf32, 2>, index, index, index, index)
    adf.buffer.location(%288, %c33, %c5, %c0, %c8192) : (memref<2x16x32xf32, 2>, index, index, index, index)
    %292 = adf.buffer.create @L1_L1_A_65() : memref<2x16x32xf32, 2>
    %293 = adf.buffer.create @L1_L1_B_65() : memref<16x16xf32, 2>
    %294 = adf.buffer.create @L1_L1_C_65() : memref<32x16xf32, 2>
    %295 = adf.buffer.create @L1_L1_D_65() : memref<2x16x16xf32, 2>
    adf.connect(%arg3, %292) : (!adf.plio<In, 128>, memref<2x16x32xf32, 2>)
    adf.connect(%arg52, %293) : (!adf.plio<In, 128>, memref<16x16xf32, 2>)
    adf.connect(%arg28, %294) : (!adf.plio<In, 128>, memref<32x16xf32, 2>)
    adf.connect(%291, %295) : (memref<2x16x16xf32, 2>, memref<2x16x16xf32, 2>)
    %296 = call @kernel_ttmc(%292, %293, %294, %295) {adf.kernel, "col, row" = [33 : index, 5 : index], ivs = [1 : index, 8 : index, 2 : index], kernel_ttmc = 65 : index} : (memref<2x16x32xf32, 2>, memref<16x16xf32, 2>, memref<32x16xf32, 2>, memref<2x16x16xf32, 2>) -> memref<2x16x16xf32, 2>
    adf.buffer.location(%296, %c34, %c5, %c4096, %c12288) : (memref<2x16x16xf32, 2>, index, index, index, index)
    adf.buffer.location(%293, %c34, %c5, %c16384, %c24576) : (memref<16x16xf32, 2>, index, index, index, index)
    adf.buffer.location(%294, %c34, %c5, %c0, %c8192) : (memref<32x16xf32, 2>, index, index, index, index)
    adf.buffer.location(%292, %c33, %c4, %c4096, %c12288) : (memref<2x16x32xf32, 2>, index, index, index, index)
    adf.connect(%296, %arg61) {write = 1 : index} : (memref<2x16x16xf32, 2>, !adf.plio<Out, 128>)
    %297 = adf.buffer.create @L1_L1_A_66() : memref<2x16x32xf32, 2>
    %298 = adf.buffer.create @L1_L1_B_66() : memref<16x16xf32, 2>
    %299 = adf.buffer.create @L1_L1_C_66() : memref<32x16xf32, 2>
    adf.connect(%arg0, %297) : (!adf.plio<In, 128>, memref<2x16x32xf32, 2>)
    adf.connect(%arg52, %298) : (!adf.plio<In, 128>, memref<16x16xf32, 2>)
    adf.connect(%arg30, %299) : (!adf.plio<In, 128>, memref<32x16xf32, 2>)
    %300 = call @kernel_ttmc0(%297, %298, %299) {adf.kernel, "col, row" = [37 : index, 4 : index], ivs = [0 : index, 9 : index, 2 : index], kernel = 0 : index, kernel_ttmc0 = 66 : index} : (memref<2x16x32xf32, 2>, memref<16x16xf32, 2>, memref<32x16xf32, 2>) -> memref<2x16x16xf32, 2>
    adf.buffer.location(%300, %c37, %c4, %c16384, %c24576) : (memref<2x16x16xf32, 2>, index, index, index, index)
    adf.buffer.location(%298, %c37, %c4, %c0, %c8192) : (memref<16x16xf32, 2>, index, index, index, index)
    adf.buffer.location(%299, %c37, %c5, %c16384, %c24576) : (memref<32x16xf32, 2>, index, index, index, index)
    adf.buffer.location(%297, %c37, %c5, %c0, %c8192) : (memref<2x16x32xf32, 2>, index, index, index, index)
    %301 = adf.buffer.create @L1_L1_A_67() : memref<2x16x32xf32, 2>
    %302 = adf.buffer.create @L1_L1_B_67() : memref<16x16xf32, 2>
    %303 = adf.buffer.create @L1_L1_C_67() : memref<32x16xf32, 2>
    %304 = adf.buffer.create @L1_L1_D_67() : memref<2x16x16xf32, 2>
    adf.connect(%arg3, %301) : (!adf.plio<In, 128>, memref<2x16x32xf32, 2>)
    adf.connect(%arg52, %302) : (!adf.plio<In, 128>, memref<16x16xf32, 2>)
    adf.connect(%arg31, %303) : (!adf.plio<In, 128>, memref<32x16xf32, 2>)
    adf.connect(%300, %304) : (memref<2x16x16xf32, 2>, memref<2x16x16xf32, 2>)
    %305 = call @kernel_ttmc(%301, %302, %303, %304) {adf.kernel, "col, row" = [37 : index, 5 : index], ivs = [1 : index, 9 : index, 2 : index], kernel_ttmc = 67 : index} : (memref<2x16x32xf32, 2>, memref<16x16xf32, 2>, memref<32x16xf32, 2>, memref<2x16x16xf32, 2>) -> memref<2x16x16xf32, 2>
    adf.buffer.location(%305, %c38, %c5, %c4096, %c12288) : (memref<2x16x16xf32, 2>, index, index, index, index)
    adf.buffer.location(%302, %c38, %c5, %c16384, %c24576) : (memref<16x16xf32, 2>, index, index, index, index)
    adf.buffer.location(%303, %c38, %c5, %c0, %c8192) : (memref<32x16xf32, 2>, index, index, index, index)
    adf.buffer.location(%301, %c37, %c4, %c4096, %c12288) : (memref<2x16x32xf32, 2>, index, index, index, index)
    adf.connect(%305, %arg62) {write = 1 : index} : (memref<2x16x16xf32, 2>, !adf.plio<Out, 128>)
    %306 = adf.buffer.create @L1_L1_A_68() : memref<2x16x32xf32, 2>
    %307 = adf.buffer.create @L1_L1_B_68() : memref<16x16xf32, 2>
    %308 = adf.buffer.create @L1_L1_C_68() : memref<32x16xf32, 2>
    adf.connect(%arg0, %306) : (!adf.plio<In, 128>, memref<2x16x32xf32, 2>)
    adf.connect(%arg52, %307) : (!adf.plio<In, 128>, memref<16x16xf32, 2>)
    adf.connect(%arg33, %308) : (!adf.plio<In, 128>, memref<32x16xf32, 2>)
    %309 = call @kernel_ttmc0(%306, %307, %308) {adf.kernel, "col, row" = [41 : index, 4 : index], ivs = [0 : index, 10 : index, 2 : index], kernel = 0 : index, kernel_ttmc0 = 68 : index} : (memref<2x16x32xf32, 2>, memref<16x16xf32, 2>, memref<32x16xf32, 2>) -> memref<2x16x16xf32, 2>
    adf.buffer.location(%309, %c41, %c4, %c16384, %c24576) : (memref<2x16x16xf32, 2>, index, index, index, index)
    adf.buffer.location(%307, %c41, %c4, %c0, %c8192) : (memref<16x16xf32, 2>, index, index, index, index)
    adf.buffer.location(%308, %c41, %c5, %c16384, %c24576) : (memref<32x16xf32, 2>, index, index, index, index)
    adf.buffer.location(%306, %c41, %c5, %c0, %c8192) : (memref<2x16x32xf32, 2>, index, index, index, index)
    %310 = adf.buffer.create @L1_L1_A_69() : memref<2x16x32xf32, 2>
    %311 = adf.buffer.create @L1_L1_B_69() : memref<16x16xf32, 2>
    %312 = adf.buffer.create @L1_L1_C_69() : memref<32x16xf32, 2>
    %313 = adf.buffer.create @L1_L1_D_69() : memref<2x16x16xf32, 2>
    adf.connect(%arg3, %310) : (!adf.plio<In, 128>, memref<2x16x32xf32, 2>)
    adf.connect(%arg52, %311) : (!adf.plio<In, 128>, memref<16x16xf32, 2>)
    adf.connect(%arg34, %312) : (!adf.plio<In, 128>, memref<32x16xf32, 2>)
    adf.connect(%309, %313) : (memref<2x16x16xf32, 2>, memref<2x16x16xf32, 2>)
    %314 = call @kernel_ttmc(%310, %311, %312, %313) {adf.kernel, "col, row" = [41 : index, 5 : index], ivs = [1 : index, 10 : index, 2 : index], kernel_ttmc = 69 : index} : (memref<2x16x32xf32, 2>, memref<16x16xf32, 2>, memref<32x16xf32, 2>, memref<2x16x16xf32, 2>) -> memref<2x16x16xf32, 2>
    adf.buffer.location(%314, %c42, %c5, %c4096, %c12288) : (memref<2x16x16xf32, 2>, index, index, index, index)
    adf.buffer.location(%311, %c42, %c5, %c16384, %c24576) : (memref<16x16xf32, 2>, index, index, index, index)
    adf.buffer.location(%312, %c42, %c5, %c0, %c8192) : (memref<32x16xf32, 2>, index, index, index, index)
    adf.buffer.location(%310, %c41, %c4, %c4096, %c12288) : (memref<2x16x32xf32, 2>, index, index, index, index)
    adf.connect(%314, %arg63) {write = 1 : index} : (memref<2x16x16xf32, 2>, !adf.plio<Out, 128>)
    %315 = adf.buffer.create @L1_L1_A_70() : memref<2x16x32xf32, 2>
    %316 = adf.buffer.create @L1_L1_B_70() : memref<16x16xf32, 2>
    %317 = adf.buffer.create @L1_L1_C_70() : memref<32x16xf32, 2>
    adf.connect(%arg0, %315) : (!adf.plio<In, 128>, memref<2x16x32xf32, 2>)
    adf.connect(%arg52, %316) : (!adf.plio<In, 128>, memref<16x16xf32, 2>)
    adf.connect(%arg36, %317) : (!adf.plio<In, 128>, memref<32x16xf32, 2>)
    %318 = call @kernel_ttmc0(%315, %316, %317) {adf.kernel, "col, row" = [45 : index, 4 : index], ivs = [0 : index, 11 : index, 2 : index], kernel = 0 : index, kernel_ttmc0 = 70 : index} : (memref<2x16x32xf32, 2>, memref<16x16xf32, 2>, memref<32x16xf32, 2>) -> memref<2x16x16xf32, 2>
    adf.buffer.location(%318, %c45, %c4, %c16384, %c24576) : (memref<2x16x16xf32, 2>, index, index, index, index)
    adf.buffer.location(%316, %c45, %c4, %c0, %c8192) : (memref<16x16xf32, 2>, index, index, index, index)
    adf.buffer.location(%317, %c45, %c5, %c16384, %c24576) : (memref<32x16xf32, 2>, index, index, index, index)
    adf.buffer.location(%315, %c45, %c5, %c0, %c8192) : (memref<2x16x32xf32, 2>, index, index, index, index)
    %319 = adf.buffer.create @L1_L1_A_71() : memref<2x16x32xf32, 2>
    %320 = adf.buffer.create @L1_L1_B_71() : memref<16x16xf32, 2>
    %321 = adf.buffer.create @L1_L1_C_71() : memref<32x16xf32, 2>
    %322 = adf.buffer.create @L1_L1_D_71() : memref<2x16x16xf32, 2>
    adf.connect(%arg3, %319) : (!adf.plio<In, 128>, memref<2x16x32xf32, 2>)
    adf.connect(%arg52, %320) : (!adf.plio<In, 128>, memref<16x16xf32, 2>)
    adf.connect(%arg37, %321) : (!adf.plio<In, 128>, memref<32x16xf32, 2>)
    adf.connect(%318, %322) : (memref<2x16x16xf32, 2>, memref<2x16x16xf32, 2>)
    %323 = call @kernel_ttmc(%319, %320, %321, %322) {adf.kernel, "col, row" = [45 : index, 5 : index], ivs = [1 : index, 11 : index, 2 : index], kernel_ttmc = 71 : index} : (memref<2x16x32xf32, 2>, memref<16x16xf32, 2>, memref<32x16xf32, 2>, memref<2x16x16xf32, 2>) -> memref<2x16x16xf32, 2>
    adf.buffer.location(%323, %c46, %c5, %c4096, %c12288) : (memref<2x16x16xf32, 2>, index, index, index, index)
    adf.buffer.location(%320, %c46, %c5, %c16384, %c24576) : (memref<16x16xf32, 2>, index, index, index, index)
    adf.buffer.location(%321, %c46, %c5, %c0, %c8192) : (memref<32x16xf32, 2>, index, index, index, index)
    adf.buffer.location(%319, %c45, %c4, %c4096, %c12288) : (memref<2x16x32xf32, 2>, index, index, index, index)
    adf.connect(%323, %arg64) {write = 1 : index} : (memref<2x16x16xf32, 2>, !adf.plio<Out, 128>)
    %324 = adf.buffer.create @L1_L1_A_72() : memref<2x16x32xf32, 2>
    %325 = adf.buffer.create @L1_L1_B_72() : memref<16x16xf32, 2>
    %326 = adf.buffer.create @L1_L1_C_72() : memref<32x16xf32, 2>
    adf.connect(%arg0, %324) : (!adf.plio<In, 128>, memref<2x16x32xf32, 2>)
    adf.connect(%arg65, %325) : (!adf.plio<In, 128>, memref<16x16xf32, 2>)
    adf.connect(%arg2, %326) : (!adf.plio<In, 128>, memref<32x16xf32, 2>)
    %327 = call @kernel_ttmc0(%324, %325, %326) {adf.kernel, "col, row" = [1 : index, 6 : index], ivs = [0 : index, 0 : index, 3 : index], kernel = 0 : index, kernel_ttmc0 = 72 : index} : (memref<2x16x32xf32, 2>, memref<16x16xf32, 2>, memref<32x16xf32, 2>) -> memref<2x16x16xf32, 2>
    adf.buffer.location(%327, %c1, %c6, %c16384, %c24576) : (memref<2x16x16xf32, 2>, index, index, index, index)
    adf.buffer.location(%325, %c1, %c6, %c0, %c8192) : (memref<16x16xf32, 2>, index, index, index, index)
    adf.buffer.location(%326, %c1, %c7, %c16384, %c24576) : (memref<32x16xf32, 2>, index, index, index, index)
    adf.buffer.location(%324, %c1, %c7, %c0, %c8192) : (memref<2x16x32xf32, 2>, index, index, index, index)
    %328 = adf.buffer.create @L1_L1_A_73() : memref<2x16x32xf32, 2>
    %329 = adf.buffer.create @L1_L1_B_73() : memref<16x16xf32, 2>
    %330 = adf.buffer.create @L1_L1_C_73() : memref<32x16xf32, 2>
    %331 = adf.buffer.create @L1_L1_D_73() : memref<2x16x16xf32, 2>
    adf.connect(%arg3, %328) : (!adf.plio<In, 128>, memref<2x16x32xf32, 2>)
    adf.connect(%arg65, %329) : (!adf.plio<In, 128>, memref<16x16xf32, 2>)
    adf.connect(%arg4, %330) : (!adf.plio<In, 128>, memref<32x16xf32, 2>)
    adf.connect(%327, %331) : (memref<2x16x16xf32, 2>, memref<2x16x16xf32, 2>)
    %332 = call @kernel_ttmc(%328, %329, %330, %331) {adf.kernel, "col, row" = [1 : index, 7 : index], ivs = [1 : index, 0 : index, 3 : index], kernel_ttmc = 73 : index} : (memref<2x16x32xf32, 2>, memref<16x16xf32, 2>, memref<32x16xf32, 2>, memref<2x16x16xf32, 2>) -> memref<2x16x16xf32, 2>
    adf.buffer.location(%332, %c2, %c7, %c4096, %c12288) : (memref<2x16x16xf32, 2>, index, index, index, index)
    adf.buffer.location(%329, %c2, %c7, %c16384, %c24576) : (memref<16x16xf32, 2>, index, index, index, index)
    adf.buffer.location(%330, %c2, %c7, %c0, %c8192) : (memref<32x16xf32, 2>, index, index, index, index)
    adf.buffer.location(%328, %c1, %c6, %c4096, %c12288) : (memref<2x16x32xf32, 2>, index, index, index, index)
    adf.connect(%332, %arg66) {write = 1 : index} : (memref<2x16x16xf32, 2>, !adf.plio<Out, 128>)
    %333 = adf.buffer.create @L1_L1_A_74() : memref<2x16x32xf32, 2>
    %334 = adf.buffer.create @L1_L1_B_74() : memref<16x16xf32, 2>
    %335 = adf.buffer.create @L1_L1_C_74() : memref<32x16xf32, 2>
    adf.connect(%arg0, %333) : (!adf.plio<In, 128>, memref<2x16x32xf32, 2>)
    adf.connect(%arg65, %334) : (!adf.plio<In, 128>, memref<16x16xf32, 2>)
    adf.connect(%arg6, %335) : (!adf.plio<In, 128>, memref<32x16xf32, 2>)
    %336 = call @kernel_ttmc0(%333, %334, %335) {adf.kernel, "col, row" = [5 : index, 6 : index], ivs = [0 : index, 1 : index, 3 : index], kernel = 0 : index, kernel_ttmc0 = 74 : index} : (memref<2x16x32xf32, 2>, memref<16x16xf32, 2>, memref<32x16xf32, 2>) -> memref<2x16x16xf32, 2>
    adf.buffer.location(%336, %c5, %c6, %c16384, %c24576) : (memref<2x16x16xf32, 2>, index, index, index, index)
    adf.buffer.location(%334, %c5, %c6, %c0, %c8192) : (memref<16x16xf32, 2>, index, index, index, index)
    adf.buffer.location(%335, %c5, %c7, %c16384, %c24576) : (memref<32x16xf32, 2>, index, index, index, index)
    adf.buffer.location(%333, %c5, %c7, %c0, %c8192) : (memref<2x16x32xf32, 2>, index, index, index, index)
    %337 = adf.buffer.create @L1_L1_A_75() : memref<2x16x32xf32, 2>
    %338 = adf.buffer.create @L1_L1_B_75() : memref<16x16xf32, 2>
    %339 = adf.buffer.create @L1_L1_C_75() : memref<32x16xf32, 2>
    %340 = adf.buffer.create @L1_L1_D_75() : memref<2x16x16xf32, 2>
    adf.connect(%arg3, %337) : (!adf.plio<In, 128>, memref<2x16x32xf32, 2>)
    adf.connect(%arg65, %338) : (!adf.plio<In, 128>, memref<16x16xf32, 2>)
    adf.connect(%arg7, %339) : (!adf.plio<In, 128>, memref<32x16xf32, 2>)
    adf.connect(%336, %340) : (memref<2x16x16xf32, 2>, memref<2x16x16xf32, 2>)
    %341 = call @kernel_ttmc(%337, %338, %339, %340) {adf.kernel, "col, row" = [5 : index, 7 : index], ivs = [1 : index, 1 : index, 3 : index], kernel_ttmc = 75 : index} : (memref<2x16x32xf32, 2>, memref<16x16xf32, 2>, memref<32x16xf32, 2>, memref<2x16x16xf32, 2>) -> memref<2x16x16xf32, 2>
    adf.buffer.location(%341, %c6, %c7, %c4096, %c12288) : (memref<2x16x16xf32, 2>, index, index, index, index)
    adf.buffer.location(%338, %c6, %c7, %c16384, %c24576) : (memref<16x16xf32, 2>, index, index, index, index)
    adf.buffer.location(%339, %c6, %c7, %c0, %c8192) : (memref<32x16xf32, 2>, index, index, index, index)
    adf.buffer.location(%337, %c5, %c6, %c4096, %c12288) : (memref<2x16x32xf32, 2>, index, index, index, index)
    adf.connect(%341, %arg67) {write = 1 : index} : (memref<2x16x16xf32, 2>, !adf.plio<Out, 128>)
    %342 = adf.buffer.create @L1_L1_A_76() : memref<2x16x32xf32, 2>
    %343 = adf.buffer.create @L1_L1_B_76() : memref<16x16xf32, 2>
    %344 = adf.buffer.create @L1_L1_C_76() : memref<32x16xf32, 2>
    adf.connect(%arg0, %342) : (!adf.plio<In, 128>, memref<2x16x32xf32, 2>)
    adf.connect(%arg65, %343) : (!adf.plio<In, 128>, memref<16x16xf32, 2>)
    adf.connect(%arg9, %344) : (!adf.plio<In, 128>, memref<32x16xf32, 2>)
    %345 = call @kernel_ttmc0(%342, %343, %344) {adf.kernel, "col, row" = [9 : index, 6 : index], ivs = [0 : index, 2 : index, 3 : index], kernel = 0 : index, kernel_ttmc0 = 76 : index} : (memref<2x16x32xf32, 2>, memref<16x16xf32, 2>, memref<32x16xf32, 2>) -> memref<2x16x16xf32, 2>
    adf.buffer.location(%345, %c9, %c6, %c16384, %c24576) : (memref<2x16x16xf32, 2>, index, index, index, index)
    adf.buffer.location(%343, %c9, %c6, %c0, %c8192) : (memref<16x16xf32, 2>, index, index, index, index)
    adf.buffer.location(%344, %c9, %c7, %c16384, %c24576) : (memref<32x16xf32, 2>, index, index, index, index)
    adf.buffer.location(%342, %c9, %c7, %c0, %c8192) : (memref<2x16x32xf32, 2>, index, index, index, index)
    %346 = adf.buffer.create @L1_L1_A_77() : memref<2x16x32xf32, 2>
    %347 = adf.buffer.create @L1_L1_B_77() : memref<16x16xf32, 2>
    %348 = adf.buffer.create @L1_L1_C_77() : memref<32x16xf32, 2>
    %349 = adf.buffer.create @L1_L1_D_77() : memref<2x16x16xf32, 2>
    adf.connect(%arg3, %346) : (!adf.plio<In, 128>, memref<2x16x32xf32, 2>)
    adf.connect(%arg65, %347) : (!adf.plio<In, 128>, memref<16x16xf32, 2>)
    adf.connect(%arg10, %348) : (!adf.plio<In, 128>, memref<32x16xf32, 2>)
    adf.connect(%345, %349) : (memref<2x16x16xf32, 2>, memref<2x16x16xf32, 2>)
    %350 = call @kernel_ttmc(%346, %347, %348, %349) {adf.kernel, "col, row" = [9 : index, 7 : index], ivs = [1 : index, 2 : index, 3 : index], kernel_ttmc = 77 : index} : (memref<2x16x32xf32, 2>, memref<16x16xf32, 2>, memref<32x16xf32, 2>, memref<2x16x16xf32, 2>) -> memref<2x16x16xf32, 2>
    adf.buffer.location(%350, %c10, %c7, %c4096, %c12288) : (memref<2x16x16xf32, 2>, index, index, index, index)
    adf.buffer.location(%347, %c10, %c7, %c16384, %c24576) : (memref<16x16xf32, 2>, index, index, index, index)
    adf.buffer.location(%348, %c10, %c7, %c0, %c8192) : (memref<32x16xf32, 2>, index, index, index, index)
    adf.buffer.location(%346, %c9, %c6, %c4096, %c12288) : (memref<2x16x32xf32, 2>, index, index, index, index)
    adf.connect(%350, %arg68) {write = 1 : index} : (memref<2x16x16xf32, 2>, !adf.plio<Out, 128>)
    %351 = adf.buffer.create @L1_L1_A_78() : memref<2x16x32xf32, 2>
    %352 = adf.buffer.create @L1_L1_B_78() : memref<16x16xf32, 2>
    %353 = adf.buffer.create @L1_L1_C_78() : memref<32x16xf32, 2>
    adf.connect(%arg0, %351) : (!adf.plio<In, 128>, memref<2x16x32xf32, 2>)
    adf.connect(%arg65, %352) : (!adf.plio<In, 128>, memref<16x16xf32, 2>)
    adf.connect(%arg12, %353) : (!adf.plio<In, 128>, memref<32x16xf32, 2>)
    %354 = call @kernel_ttmc0(%351, %352, %353) {adf.kernel, "col, row" = [13 : index, 6 : index], ivs = [0 : index, 3 : index, 3 : index], kernel = 0 : index, kernel_ttmc0 = 78 : index} : (memref<2x16x32xf32, 2>, memref<16x16xf32, 2>, memref<32x16xf32, 2>) -> memref<2x16x16xf32, 2>
    adf.buffer.location(%354, %c13, %c6, %c16384, %c24576) : (memref<2x16x16xf32, 2>, index, index, index, index)
    adf.buffer.location(%352, %c13, %c6, %c0, %c8192) : (memref<16x16xf32, 2>, index, index, index, index)
    adf.buffer.location(%353, %c13, %c7, %c16384, %c24576) : (memref<32x16xf32, 2>, index, index, index, index)
    adf.buffer.location(%351, %c13, %c7, %c0, %c8192) : (memref<2x16x32xf32, 2>, index, index, index, index)
    %355 = adf.buffer.create @L1_L1_A_79() : memref<2x16x32xf32, 2>
    %356 = adf.buffer.create @L1_L1_B_79() : memref<16x16xf32, 2>
    %357 = adf.buffer.create @L1_L1_C_79() : memref<32x16xf32, 2>
    %358 = adf.buffer.create @L1_L1_D_79() : memref<2x16x16xf32, 2>
    adf.connect(%arg3, %355) : (!adf.plio<In, 128>, memref<2x16x32xf32, 2>)
    adf.connect(%arg65, %356) : (!adf.plio<In, 128>, memref<16x16xf32, 2>)
    adf.connect(%arg13, %357) : (!adf.plio<In, 128>, memref<32x16xf32, 2>)
    adf.connect(%354, %358) : (memref<2x16x16xf32, 2>, memref<2x16x16xf32, 2>)
    %359 = call @kernel_ttmc(%355, %356, %357, %358) {adf.kernel, "col, row" = [13 : index, 7 : index], ivs = [1 : index, 3 : index, 3 : index], kernel_ttmc = 79 : index} : (memref<2x16x32xf32, 2>, memref<16x16xf32, 2>, memref<32x16xf32, 2>, memref<2x16x16xf32, 2>) -> memref<2x16x16xf32, 2>
    adf.buffer.location(%359, %c14, %c7, %c4096, %c12288) : (memref<2x16x16xf32, 2>, index, index, index, index)
    adf.buffer.location(%356, %c14, %c7, %c16384, %c24576) : (memref<16x16xf32, 2>, index, index, index, index)
    adf.buffer.location(%357, %c14, %c7, %c0, %c8192) : (memref<32x16xf32, 2>, index, index, index, index)
    adf.buffer.location(%355, %c13, %c6, %c4096, %c12288) : (memref<2x16x32xf32, 2>, index, index, index, index)
    adf.connect(%359, %arg69) {write = 1 : index} : (memref<2x16x16xf32, 2>, !adf.plio<Out, 128>)
    %360 = adf.buffer.create @L1_L1_A_80() : memref<2x16x32xf32, 2>
    %361 = adf.buffer.create @L1_L1_B_80() : memref<16x16xf32, 2>
    %362 = adf.buffer.create @L1_L1_C_80() : memref<32x16xf32, 2>
    adf.connect(%arg0, %360) : (!adf.plio<In, 128>, memref<2x16x32xf32, 2>)
    adf.connect(%arg65, %361) : (!adf.plio<In, 128>, memref<16x16xf32, 2>)
    adf.connect(%arg15, %362) : (!adf.plio<In, 128>, memref<32x16xf32, 2>)
    %363 = call @kernel_ttmc0(%360, %361, %362) {adf.kernel, "col, row" = [17 : index, 6 : index], ivs = [0 : index, 4 : index, 3 : index], kernel = 0 : index, kernel_ttmc0 = 80 : index} : (memref<2x16x32xf32, 2>, memref<16x16xf32, 2>, memref<32x16xf32, 2>) -> memref<2x16x16xf32, 2>
    adf.buffer.location(%363, %c17, %c6, %c16384, %c24576) : (memref<2x16x16xf32, 2>, index, index, index, index)
    adf.buffer.location(%361, %c17, %c6, %c0, %c8192) : (memref<16x16xf32, 2>, index, index, index, index)
    adf.buffer.location(%362, %c17, %c7, %c16384, %c24576) : (memref<32x16xf32, 2>, index, index, index, index)
    adf.buffer.location(%360, %c17, %c7, %c0, %c8192) : (memref<2x16x32xf32, 2>, index, index, index, index)
    %364 = adf.buffer.create @L1_L1_A_81() : memref<2x16x32xf32, 2>
    %365 = adf.buffer.create @L1_L1_B_81() : memref<16x16xf32, 2>
    %366 = adf.buffer.create @L1_L1_C_81() : memref<32x16xf32, 2>
    %367 = adf.buffer.create @L1_L1_D_81() : memref<2x16x16xf32, 2>
    adf.connect(%arg3, %364) : (!adf.plio<In, 128>, memref<2x16x32xf32, 2>)
    adf.connect(%arg65, %365) : (!adf.plio<In, 128>, memref<16x16xf32, 2>)
    adf.connect(%arg16, %366) : (!adf.plio<In, 128>, memref<32x16xf32, 2>)
    adf.connect(%363, %367) : (memref<2x16x16xf32, 2>, memref<2x16x16xf32, 2>)
    %368 = call @kernel_ttmc(%364, %365, %366, %367) {adf.kernel, "col, row" = [17 : index, 7 : index], ivs = [1 : index, 4 : index, 3 : index], kernel_ttmc = 81 : index} : (memref<2x16x32xf32, 2>, memref<16x16xf32, 2>, memref<32x16xf32, 2>, memref<2x16x16xf32, 2>) -> memref<2x16x16xf32, 2>
    adf.buffer.location(%368, %c18, %c7, %c4096, %c12288) : (memref<2x16x16xf32, 2>, index, index, index, index)
    adf.buffer.location(%365, %c18, %c7, %c16384, %c24576) : (memref<16x16xf32, 2>, index, index, index, index)
    adf.buffer.location(%366, %c18, %c7, %c0, %c8192) : (memref<32x16xf32, 2>, index, index, index, index)
    adf.buffer.location(%364, %c17, %c6, %c4096, %c12288) : (memref<2x16x32xf32, 2>, index, index, index, index)
    adf.connect(%368, %arg70) {write = 1 : index} : (memref<2x16x16xf32, 2>, !adf.plio<Out, 128>)
    %369 = adf.buffer.create @L1_L1_A_82() : memref<2x16x32xf32, 2>
    %370 = adf.buffer.create @L1_L1_B_82() : memref<16x16xf32, 2>
    %371 = adf.buffer.create @L1_L1_C_82() : memref<32x16xf32, 2>
    adf.connect(%arg0, %369) : (!adf.plio<In, 128>, memref<2x16x32xf32, 2>)
    adf.connect(%arg65, %370) : (!adf.plio<In, 128>, memref<16x16xf32, 2>)
    adf.connect(%arg18, %371) : (!adf.plio<In, 128>, memref<32x16xf32, 2>)
    %372 = call @kernel_ttmc0(%369, %370, %371) {adf.kernel, "col, row" = [21 : index, 6 : index], ivs = [0 : index, 5 : index, 3 : index], kernel = 0 : index, kernel_ttmc0 = 82 : index} : (memref<2x16x32xf32, 2>, memref<16x16xf32, 2>, memref<32x16xf32, 2>) -> memref<2x16x16xf32, 2>
    adf.buffer.location(%372, %c21, %c6, %c16384, %c24576) : (memref<2x16x16xf32, 2>, index, index, index, index)
    adf.buffer.location(%370, %c21, %c6, %c0, %c8192) : (memref<16x16xf32, 2>, index, index, index, index)
    adf.buffer.location(%371, %c21, %c7, %c16384, %c24576) : (memref<32x16xf32, 2>, index, index, index, index)
    adf.buffer.location(%369, %c21, %c7, %c0, %c8192) : (memref<2x16x32xf32, 2>, index, index, index, index)
    %373 = adf.buffer.create @L1_L1_A_83() : memref<2x16x32xf32, 2>
    %374 = adf.buffer.create @L1_L1_B_83() : memref<16x16xf32, 2>
    %375 = adf.buffer.create @L1_L1_C_83() : memref<32x16xf32, 2>
    %376 = adf.buffer.create @L1_L1_D_83() : memref<2x16x16xf32, 2>
    adf.connect(%arg3, %373) : (!adf.plio<In, 128>, memref<2x16x32xf32, 2>)
    adf.connect(%arg65, %374) : (!adf.plio<In, 128>, memref<16x16xf32, 2>)
    adf.connect(%arg19, %375) : (!adf.plio<In, 128>, memref<32x16xf32, 2>)
    adf.connect(%372, %376) : (memref<2x16x16xf32, 2>, memref<2x16x16xf32, 2>)
    %377 = call @kernel_ttmc(%373, %374, %375, %376) {adf.kernel, "col, row" = [21 : index, 7 : index], ivs = [1 : index, 5 : index, 3 : index], kernel_ttmc = 83 : index} : (memref<2x16x32xf32, 2>, memref<16x16xf32, 2>, memref<32x16xf32, 2>, memref<2x16x16xf32, 2>) -> memref<2x16x16xf32, 2>
    adf.buffer.location(%377, %c22, %c7, %c4096, %c12288) : (memref<2x16x16xf32, 2>, index, index, index, index)
    adf.buffer.location(%374, %c22, %c7, %c16384, %c24576) : (memref<16x16xf32, 2>, index, index, index, index)
    adf.buffer.location(%375, %c22, %c7, %c0, %c8192) : (memref<32x16xf32, 2>, index, index, index, index)
    adf.buffer.location(%373, %c21, %c6, %c4096, %c12288) : (memref<2x16x32xf32, 2>, index, index, index, index)
    adf.connect(%377, %arg71) {write = 1 : index} : (memref<2x16x16xf32, 2>, !adf.plio<Out, 128>)
    %378 = adf.buffer.create @L1_L1_A_84() : memref<2x16x32xf32, 2>
    %379 = adf.buffer.create @L1_L1_B_84() : memref<16x16xf32, 2>
    %380 = adf.buffer.create @L1_L1_C_84() : memref<32x16xf32, 2>
    adf.connect(%arg0, %378) : (!adf.plio<In, 128>, memref<2x16x32xf32, 2>)
    adf.connect(%arg65, %379) : (!adf.plio<In, 128>, memref<16x16xf32, 2>)
    adf.connect(%arg21, %380) : (!adf.plio<In, 128>, memref<32x16xf32, 2>)
    %381 = call @kernel_ttmc0(%378, %379, %380) {adf.kernel, "col, row" = [25 : index, 6 : index], ivs = [0 : index, 6 : index, 3 : index], kernel = 0 : index, kernel_ttmc0 = 84 : index} : (memref<2x16x32xf32, 2>, memref<16x16xf32, 2>, memref<32x16xf32, 2>) -> memref<2x16x16xf32, 2>
    adf.buffer.location(%381, %c25, %c6, %c16384, %c24576) : (memref<2x16x16xf32, 2>, index, index, index, index)
    adf.buffer.location(%379, %c25, %c6, %c0, %c8192) : (memref<16x16xf32, 2>, index, index, index, index)
    adf.buffer.location(%380, %c25, %c7, %c16384, %c24576) : (memref<32x16xf32, 2>, index, index, index, index)
    adf.buffer.location(%378, %c25, %c7, %c0, %c8192) : (memref<2x16x32xf32, 2>, index, index, index, index)
    %382 = adf.buffer.create @L1_L1_A_85() : memref<2x16x32xf32, 2>
    %383 = adf.buffer.create @L1_L1_B_85() : memref<16x16xf32, 2>
    %384 = adf.buffer.create @L1_L1_C_85() : memref<32x16xf32, 2>
    %385 = adf.buffer.create @L1_L1_D_85() : memref<2x16x16xf32, 2>
    adf.connect(%arg3, %382) : (!adf.plio<In, 128>, memref<2x16x32xf32, 2>)
    adf.connect(%arg65, %383) : (!adf.plio<In, 128>, memref<16x16xf32, 2>)
    adf.connect(%arg22, %384) : (!adf.plio<In, 128>, memref<32x16xf32, 2>)
    adf.connect(%381, %385) : (memref<2x16x16xf32, 2>, memref<2x16x16xf32, 2>)
    %386 = call @kernel_ttmc(%382, %383, %384, %385) {adf.kernel, "col, row" = [25 : index, 7 : index], ivs = [1 : index, 6 : index, 3 : index], kernel_ttmc = 85 : index} : (memref<2x16x32xf32, 2>, memref<16x16xf32, 2>, memref<32x16xf32, 2>, memref<2x16x16xf32, 2>) -> memref<2x16x16xf32, 2>
    adf.buffer.location(%386, %c26, %c7, %c4096, %c12288) : (memref<2x16x16xf32, 2>, index, index, index, index)
    adf.buffer.location(%383, %c26, %c7, %c16384, %c24576) : (memref<16x16xf32, 2>, index, index, index, index)
    adf.buffer.location(%384, %c26, %c7, %c0, %c8192) : (memref<32x16xf32, 2>, index, index, index, index)
    adf.buffer.location(%382, %c25, %c6, %c4096, %c12288) : (memref<2x16x32xf32, 2>, index, index, index, index)
    adf.connect(%386, %arg72) {write = 1 : index} : (memref<2x16x16xf32, 2>, !adf.plio<Out, 128>)
    %387 = adf.buffer.create @L1_L1_A_86() : memref<2x16x32xf32, 2>
    %388 = adf.buffer.create @L1_L1_B_86() : memref<16x16xf32, 2>
    %389 = adf.buffer.create @L1_L1_C_86() : memref<32x16xf32, 2>
    adf.connect(%arg0, %387) : (!adf.plio<In, 128>, memref<2x16x32xf32, 2>)
    adf.connect(%arg65, %388) : (!adf.plio<In, 128>, memref<16x16xf32, 2>)
    adf.connect(%arg24, %389) : (!adf.plio<In, 128>, memref<32x16xf32, 2>)
    %390 = call @kernel_ttmc0(%387, %388, %389) {adf.kernel, "col, row" = [29 : index, 6 : index], ivs = [0 : index, 7 : index, 3 : index], kernel = 0 : index, kernel_ttmc0 = 86 : index} : (memref<2x16x32xf32, 2>, memref<16x16xf32, 2>, memref<32x16xf32, 2>) -> memref<2x16x16xf32, 2>
    adf.buffer.location(%390, %c29, %c6, %c16384, %c24576) : (memref<2x16x16xf32, 2>, index, index, index, index)
    adf.buffer.location(%388, %c29, %c6, %c0, %c8192) : (memref<16x16xf32, 2>, index, index, index, index)
    adf.buffer.location(%389, %c29, %c7, %c16384, %c24576) : (memref<32x16xf32, 2>, index, index, index, index)
    adf.buffer.location(%387, %c29, %c7, %c0, %c8192) : (memref<2x16x32xf32, 2>, index, index, index, index)
    %391 = adf.buffer.create @L1_L1_A_87() : memref<2x16x32xf32, 2>
    %392 = adf.buffer.create @L1_L1_B_87() : memref<16x16xf32, 2>
    %393 = adf.buffer.create @L1_L1_C_87() : memref<32x16xf32, 2>
    %394 = adf.buffer.create @L1_L1_D_87() : memref<2x16x16xf32, 2>
    adf.connect(%arg3, %391) : (!adf.plio<In, 128>, memref<2x16x32xf32, 2>)
    adf.connect(%arg65, %392) : (!adf.plio<In, 128>, memref<16x16xf32, 2>)
    adf.connect(%arg25, %393) : (!adf.plio<In, 128>, memref<32x16xf32, 2>)
    adf.connect(%390, %394) : (memref<2x16x16xf32, 2>, memref<2x16x16xf32, 2>)
    %395 = call @kernel_ttmc(%391, %392, %393, %394) {adf.kernel, "col, row" = [29 : index, 7 : index], ivs = [1 : index, 7 : index, 3 : index], kernel_ttmc = 87 : index} : (memref<2x16x32xf32, 2>, memref<16x16xf32, 2>, memref<32x16xf32, 2>, memref<2x16x16xf32, 2>) -> memref<2x16x16xf32, 2>
    adf.buffer.location(%395, %c30, %c7, %c4096, %c12288) : (memref<2x16x16xf32, 2>, index, index, index, index)
    adf.buffer.location(%392, %c30, %c7, %c16384, %c24576) : (memref<16x16xf32, 2>, index, index, index, index)
    adf.buffer.location(%393, %c30, %c7, %c0, %c8192) : (memref<32x16xf32, 2>, index, index, index, index)
    adf.buffer.location(%391, %c29, %c6, %c4096, %c12288) : (memref<2x16x32xf32, 2>, index, index, index, index)
    adf.connect(%395, %arg73) {write = 1 : index} : (memref<2x16x16xf32, 2>, !adf.plio<Out, 128>)
    %396 = adf.buffer.create @L1_L1_A_88() : memref<2x16x32xf32, 2>
    %397 = adf.buffer.create @L1_L1_B_88() : memref<16x16xf32, 2>
    %398 = adf.buffer.create @L1_L1_C_88() : memref<32x16xf32, 2>
    adf.connect(%arg0, %396) : (!adf.plio<In, 128>, memref<2x16x32xf32, 2>)
    adf.connect(%arg65, %397) : (!adf.plio<In, 128>, memref<16x16xf32, 2>)
    adf.connect(%arg27, %398) : (!adf.plio<In, 128>, memref<32x16xf32, 2>)
    %399 = call @kernel_ttmc0(%396, %397, %398) {adf.kernel, "col, row" = [33 : index, 6 : index], ivs = [0 : index, 8 : index, 3 : index], kernel = 0 : index, kernel_ttmc0 = 88 : index} : (memref<2x16x32xf32, 2>, memref<16x16xf32, 2>, memref<32x16xf32, 2>) -> memref<2x16x16xf32, 2>
    adf.buffer.location(%399, %c33, %c6, %c16384, %c24576) : (memref<2x16x16xf32, 2>, index, index, index, index)
    adf.buffer.location(%397, %c33, %c6, %c0, %c8192) : (memref<16x16xf32, 2>, index, index, index, index)
    adf.buffer.location(%398, %c33, %c7, %c16384, %c24576) : (memref<32x16xf32, 2>, index, index, index, index)
    adf.buffer.location(%396, %c33, %c7, %c0, %c8192) : (memref<2x16x32xf32, 2>, index, index, index, index)
    %400 = adf.buffer.create @L1_L1_A_89() : memref<2x16x32xf32, 2>
    %401 = adf.buffer.create @L1_L1_B_89() : memref<16x16xf32, 2>
    %402 = adf.buffer.create @L1_L1_C_89() : memref<32x16xf32, 2>
    %403 = adf.buffer.create @L1_L1_D_89() : memref<2x16x16xf32, 2>
    adf.connect(%arg3, %400) : (!adf.plio<In, 128>, memref<2x16x32xf32, 2>)
    adf.connect(%arg65, %401) : (!adf.plio<In, 128>, memref<16x16xf32, 2>)
    adf.connect(%arg28, %402) : (!adf.plio<In, 128>, memref<32x16xf32, 2>)
    adf.connect(%399, %403) : (memref<2x16x16xf32, 2>, memref<2x16x16xf32, 2>)
    %404 = call @kernel_ttmc(%400, %401, %402, %403) {adf.kernel, "col, row" = [33 : index, 7 : index], ivs = [1 : index, 8 : index, 3 : index], kernel_ttmc = 89 : index} : (memref<2x16x32xf32, 2>, memref<16x16xf32, 2>, memref<32x16xf32, 2>, memref<2x16x16xf32, 2>) -> memref<2x16x16xf32, 2>
    adf.buffer.location(%404, %c34, %c7, %c4096, %c12288) : (memref<2x16x16xf32, 2>, index, index, index, index)
    adf.buffer.location(%401, %c34, %c7, %c16384, %c24576) : (memref<16x16xf32, 2>, index, index, index, index)
    adf.buffer.location(%402, %c34, %c7, %c0, %c8192) : (memref<32x16xf32, 2>, index, index, index, index)
    adf.buffer.location(%400, %c33, %c6, %c4096, %c12288) : (memref<2x16x32xf32, 2>, index, index, index, index)
    adf.connect(%404, %arg74) {write = 1 : index} : (memref<2x16x16xf32, 2>, !adf.plio<Out, 128>)
    %405 = adf.buffer.create @L1_L1_A_90() : memref<2x16x32xf32, 2>
    %406 = adf.buffer.create @L1_L1_B_90() : memref<16x16xf32, 2>
    %407 = adf.buffer.create @L1_L1_C_90() : memref<32x16xf32, 2>
    adf.connect(%arg0, %405) : (!adf.plio<In, 128>, memref<2x16x32xf32, 2>)
    adf.connect(%arg65, %406) : (!adf.plio<In, 128>, memref<16x16xf32, 2>)
    adf.connect(%arg30, %407) : (!adf.plio<In, 128>, memref<32x16xf32, 2>)
    %408 = call @kernel_ttmc0(%405, %406, %407) {adf.kernel, "col, row" = [37 : index, 6 : index], ivs = [0 : index, 9 : index, 3 : index], kernel = 0 : index, kernel_ttmc0 = 90 : index} : (memref<2x16x32xf32, 2>, memref<16x16xf32, 2>, memref<32x16xf32, 2>) -> memref<2x16x16xf32, 2>
    adf.buffer.location(%408, %c37, %c6, %c16384, %c24576) : (memref<2x16x16xf32, 2>, index, index, index, index)
    adf.buffer.location(%406, %c37, %c6, %c0, %c8192) : (memref<16x16xf32, 2>, index, index, index, index)
    adf.buffer.location(%407, %c37, %c7, %c16384, %c24576) : (memref<32x16xf32, 2>, index, index, index, index)
    adf.buffer.location(%405, %c37, %c7, %c0, %c8192) : (memref<2x16x32xf32, 2>, index, index, index, index)
    %409 = adf.buffer.create @L1_L1_A_91() : memref<2x16x32xf32, 2>
    %410 = adf.buffer.create @L1_L1_B_91() : memref<16x16xf32, 2>
    %411 = adf.buffer.create @L1_L1_C_91() : memref<32x16xf32, 2>
    %412 = adf.buffer.create @L1_L1_D_91() : memref<2x16x16xf32, 2>
    adf.connect(%arg3, %409) : (!adf.plio<In, 128>, memref<2x16x32xf32, 2>)
    adf.connect(%arg65, %410) : (!adf.plio<In, 128>, memref<16x16xf32, 2>)
    adf.connect(%arg31, %411) : (!adf.plio<In, 128>, memref<32x16xf32, 2>)
    adf.connect(%408, %412) : (memref<2x16x16xf32, 2>, memref<2x16x16xf32, 2>)
    %413 = call @kernel_ttmc(%409, %410, %411, %412) {adf.kernel, "col, row" = [37 : index, 7 : index], ivs = [1 : index, 9 : index, 3 : index], kernel_ttmc = 91 : index} : (memref<2x16x32xf32, 2>, memref<16x16xf32, 2>, memref<32x16xf32, 2>, memref<2x16x16xf32, 2>) -> memref<2x16x16xf32, 2>
    adf.buffer.location(%413, %c38, %c7, %c4096, %c12288) : (memref<2x16x16xf32, 2>, index, index, index, index)
    adf.buffer.location(%410, %c38, %c7, %c16384, %c24576) : (memref<16x16xf32, 2>, index, index, index, index)
    adf.buffer.location(%411, %c38, %c7, %c0, %c8192) : (memref<32x16xf32, 2>, index, index, index, index)
    adf.buffer.location(%409, %c37, %c6, %c4096, %c12288) : (memref<2x16x32xf32, 2>, index, index, index, index)
    adf.connect(%413, %arg75) {write = 1 : index} : (memref<2x16x16xf32, 2>, !adf.plio<Out, 128>)
    %414 = adf.buffer.create @L1_L1_A_92() : memref<2x16x32xf32, 2>
    %415 = adf.buffer.create @L1_L1_B_92() : memref<16x16xf32, 2>
    %416 = adf.buffer.create @L1_L1_C_92() : memref<32x16xf32, 2>
    adf.connect(%arg0, %414) : (!adf.plio<In, 128>, memref<2x16x32xf32, 2>)
    adf.connect(%arg65, %415) : (!adf.plio<In, 128>, memref<16x16xf32, 2>)
    adf.connect(%arg33, %416) : (!adf.plio<In, 128>, memref<32x16xf32, 2>)
    %417 = call @kernel_ttmc0(%414, %415, %416) {adf.kernel, "col, row" = [41 : index, 6 : index], ivs = [0 : index, 10 : index, 3 : index], kernel = 0 : index, kernel_ttmc0 = 92 : index} : (memref<2x16x32xf32, 2>, memref<16x16xf32, 2>, memref<32x16xf32, 2>) -> memref<2x16x16xf32, 2>
    adf.buffer.location(%417, %c41, %c6, %c16384, %c24576) : (memref<2x16x16xf32, 2>, index, index, index, index)
    adf.buffer.location(%415, %c41, %c6, %c0, %c8192) : (memref<16x16xf32, 2>, index, index, index, index)
    adf.buffer.location(%416, %c41, %c7, %c16384, %c24576) : (memref<32x16xf32, 2>, index, index, index, index)
    adf.buffer.location(%414, %c41, %c7, %c0, %c8192) : (memref<2x16x32xf32, 2>, index, index, index, index)
    %418 = adf.buffer.create @L1_L1_A_93() : memref<2x16x32xf32, 2>
    %419 = adf.buffer.create @L1_L1_B_93() : memref<16x16xf32, 2>
    %420 = adf.buffer.create @L1_L1_C_93() : memref<32x16xf32, 2>
    %421 = adf.buffer.create @L1_L1_D_93() : memref<2x16x16xf32, 2>
    adf.connect(%arg3, %418) : (!adf.plio<In, 128>, memref<2x16x32xf32, 2>)
    adf.connect(%arg65, %419) : (!adf.plio<In, 128>, memref<16x16xf32, 2>)
    adf.connect(%arg34, %420) : (!adf.plio<In, 128>, memref<32x16xf32, 2>)
    adf.connect(%417, %421) : (memref<2x16x16xf32, 2>, memref<2x16x16xf32, 2>)
    %422 = call @kernel_ttmc(%418, %419, %420, %421) {adf.kernel, "col, row" = [41 : index, 7 : index], ivs = [1 : index, 10 : index, 3 : index], kernel_ttmc = 93 : index} : (memref<2x16x32xf32, 2>, memref<16x16xf32, 2>, memref<32x16xf32, 2>, memref<2x16x16xf32, 2>) -> memref<2x16x16xf32, 2>
    adf.buffer.location(%422, %c42, %c7, %c4096, %c12288) : (memref<2x16x16xf32, 2>, index, index, index, index)
    adf.buffer.location(%419, %c42, %c7, %c16384, %c24576) : (memref<16x16xf32, 2>, index, index, index, index)
    adf.buffer.location(%420, %c42, %c7, %c0, %c8192) : (memref<32x16xf32, 2>, index, index, index, index)
    adf.buffer.location(%418, %c41, %c6, %c4096, %c12288) : (memref<2x16x32xf32, 2>, index, index, index, index)
    adf.connect(%422, %arg76) {write = 1 : index} : (memref<2x16x16xf32, 2>, !adf.plio<Out, 128>)
    %423 = adf.buffer.create @L1_L1_A_94() : memref<2x16x32xf32, 2>
    %424 = adf.buffer.create @L1_L1_B_94() : memref<16x16xf32, 2>
    %425 = adf.buffer.create @L1_L1_C_94() : memref<32x16xf32, 2>
    adf.connect(%arg0, %423) : (!adf.plio<In, 128>, memref<2x16x32xf32, 2>)
    adf.connect(%arg65, %424) : (!adf.plio<In, 128>, memref<16x16xf32, 2>)
    adf.connect(%arg36, %425) : (!adf.plio<In, 128>, memref<32x16xf32, 2>)
    %426 = call @kernel_ttmc0(%423, %424, %425) {adf.kernel, "col, row" = [45 : index, 6 : index], ivs = [0 : index, 11 : index, 3 : index], kernel = 0 : index, kernel_ttmc0 = 94 : index} : (memref<2x16x32xf32, 2>, memref<16x16xf32, 2>, memref<32x16xf32, 2>) -> memref<2x16x16xf32, 2>
    adf.buffer.location(%426, %c45, %c6, %c16384, %c24576) : (memref<2x16x16xf32, 2>, index, index, index, index)
    adf.buffer.location(%424, %c45, %c6, %c0, %c8192) : (memref<16x16xf32, 2>, index, index, index, index)
    adf.buffer.location(%425, %c45, %c7, %c16384, %c24576) : (memref<32x16xf32, 2>, index, index, index, index)
    adf.buffer.location(%423, %c45, %c7, %c0, %c8192) : (memref<2x16x32xf32, 2>, index, index, index, index)
    %427 = adf.buffer.create @L1_L1_A_95() : memref<2x16x32xf32, 2>
    %428 = adf.buffer.create @L1_L1_B_95() : memref<16x16xf32, 2>
    %429 = adf.buffer.create @L1_L1_C_95() : memref<32x16xf32, 2>
    %430 = adf.buffer.create @L1_L1_D_95() : memref<2x16x16xf32, 2>
    adf.connect(%arg3, %427) : (!adf.plio<In, 128>, memref<2x16x32xf32, 2>)
    adf.connect(%arg65, %428) : (!adf.plio<In, 128>, memref<16x16xf32, 2>)
    adf.connect(%arg37, %429) : (!adf.plio<In, 128>, memref<32x16xf32, 2>)
    adf.connect(%426, %430) : (memref<2x16x16xf32, 2>, memref<2x16x16xf32, 2>)
    %431 = call @kernel_ttmc(%427, %428, %429, %430) {adf.kernel, "col, row" = [45 : index, 7 : index], ivs = [1 : index, 11 : index, 3 : index], kernel_ttmc = 95 : index} : (memref<2x16x32xf32, 2>, memref<16x16xf32, 2>, memref<32x16xf32, 2>, memref<2x16x16xf32, 2>) -> memref<2x16x16xf32, 2>
    adf.buffer.location(%431, %c46, %c7, %c4096, %c12288) : (memref<2x16x16xf32, 2>, index, index, index, index)
    adf.buffer.location(%428, %c46, %c7, %c16384, %c24576) : (memref<16x16xf32, 2>, index, index, index, index)
    adf.buffer.location(%429, %c46, %c7, %c0, %c8192) : (memref<32x16xf32, 2>, index, index, index, index)
    adf.buffer.location(%427, %c45, %c6, %c4096, %c12288) : (memref<2x16x32xf32, 2>, index, index, index, index)
    adf.connect(%431, %arg77) {write = 1 : index} : (memref<2x16x16xf32, 2>, !adf.plio<Out, 128>)
    %432 = adf.buffer.create @L1_L1_A_96() : memref<2x16x32xf32, 2>
    %433 = adf.buffer.create @L1_L1_B_96() : memref<16x16xf32, 2>
    %434 = adf.buffer.create @L1_L1_C_96() : memref<32x16xf32, 2>
    adf.connect(%arg0, %432) : (!adf.plio<In, 128>, memref<2x16x32xf32, 2>)
    adf.connect(%arg78, %433) : (!adf.plio<In, 128>, memref<16x16xf32, 2>)
    adf.connect(%arg2, %434) : (!adf.plio<In, 128>, memref<32x16xf32, 2>)
    %435 = call @kernel_ttmc0(%432, %433, %434) {adf.kernel, "col, row" = [3 : index, 0 : index], ivs = [0 : index, 0 : index, 4 : index], kernel = 0 : index, kernel_ttmc0 = 96 : index} : (memref<2x16x32xf32, 2>, memref<16x16xf32, 2>, memref<32x16xf32, 2>) -> memref<2x16x16xf32, 2>
    adf.buffer.location(%435, %c3, %c0, %c16384, %c24576) : (memref<2x16x16xf32, 2>, index, index, index, index)
    adf.buffer.location(%433, %c3, %c0, %c0, %c8192) : (memref<16x16xf32, 2>, index, index, index, index)
    adf.buffer.location(%434, %c3, %c1, %c16384, %c24576) : (memref<32x16xf32, 2>, index, index, index, index)
    adf.buffer.location(%432, %c3, %c1, %c0, %c8192) : (memref<2x16x32xf32, 2>, index, index, index, index)
    %436 = adf.buffer.create @L1_L1_A_97() : memref<2x16x32xf32, 2>
    %437 = adf.buffer.create @L1_L1_B_97() : memref<16x16xf32, 2>
    %438 = adf.buffer.create @L1_L1_C_97() : memref<32x16xf32, 2>
    %439 = adf.buffer.create @L1_L1_D_97() : memref<2x16x16xf32, 2>
    adf.connect(%arg3, %436) : (!adf.plio<In, 128>, memref<2x16x32xf32, 2>)
    adf.connect(%arg78, %437) : (!adf.plio<In, 128>, memref<16x16xf32, 2>)
    adf.connect(%arg4, %438) : (!adf.plio<In, 128>, memref<32x16xf32, 2>)
    adf.connect(%435, %439) : (memref<2x16x16xf32, 2>, memref<2x16x16xf32, 2>)
    %440 = call @kernel_ttmc(%436, %437, %438, %439) {adf.kernel, "col, row" = [3 : index, 1 : index], ivs = [1 : index, 0 : index, 4 : index], kernel_ttmc = 97 : index} : (memref<2x16x32xf32, 2>, memref<16x16xf32, 2>, memref<32x16xf32, 2>, memref<2x16x16xf32, 2>) -> memref<2x16x16xf32, 2>
    adf.buffer.location(%440, %c4, %c1, %c4096, %c12288) : (memref<2x16x16xf32, 2>, index, index, index, index)
    adf.buffer.location(%437, %c4, %c1, %c16384, %c24576) : (memref<16x16xf32, 2>, index, index, index, index)
    adf.buffer.location(%438, %c4, %c1, %c0, %c8192) : (memref<32x16xf32, 2>, index, index, index, index)
    adf.buffer.location(%436, %c3, %c0, %c4096, %c12288) : (memref<2x16x32xf32, 2>, index, index, index, index)
    adf.connect(%440, %arg79) {write = 1 : index} : (memref<2x16x16xf32, 2>, !adf.plio<Out, 128>)
    %441 = adf.buffer.create @L1_L1_A_98() : memref<2x16x32xf32, 2>
    %442 = adf.buffer.create @L1_L1_B_98() : memref<16x16xf32, 2>
    %443 = adf.buffer.create @L1_L1_C_98() : memref<32x16xf32, 2>
    adf.connect(%arg0, %441) : (!adf.plio<In, 128>, memref<2x16x32xf32, 2>)
    adf.connect(%arg78, %442) : (!adf.plio<In, 128>, memref<16x16xf32, 2>)
    adf.connect(%arg6, %443) : (!adf.plio<In, 128>, memref<32x16xf32, 2>)
    %444 = call @kernel_ttmc0(%441, %442, %443) {adf.kernel, "col, row" = [7 : index, 0 : index], ivs = [0 : index, 1 : index, 4 : index], kernel = 0 : index, kernel_ttmc0 = 98 : index} : (memref<2x16x32xf32, 2>, memref<16x16xf32, 2>, memref<32x16xf32, 2>) -> memref<2x16x16xf32, 2>
    adf.buffer.location(%444, %c7, %c0, %c16384, %c24576) : (memref<2x16x16xf32, 2>, index, index, index, index)
    adf.buffer.location(%442, %c7, %c0, %c0, %c8192) : (memref<16x16xf32, 2>, index, index, index, index)
    adf.buffer.location(%443, %c7, %c1, %c16384, %c24576) : (memref<32x16xf32, 2>, index, index, index, index)
    adf.buffer.location(%441, %c7, %c1, %c0, %c8192) : (memref<2x16x32xf32, 2>, index, index, index, index)
    %445 = adf.buffer.create @L1_L1_A_99() : memref<2x16x32xf32, 2>
    %446 = adf.buffer.create @L1_L1_B_99() : memref<16x16xf32, 2>
    %447 = adf.buffer.create @L1_L1_C_99() : memref<32x16xf32, 2>
    %448 = adf.buffer.create @L1_L1_D_99() : memref<2x16x16xf32, 2>
    adf.connect(%arg3, %445) : (!adf.plio<In, 128>, memref<2x16x32xf32, 2>)
    adf.connect(%arg78, %446) : (!adf.plio<In, 128>, memref<16x16xf32, 2>)
    adf.connect(%arg7, %447) : (!adf.plio<In, 128>, memref<32x16xf32, 2>)
    adf.connect(%444, %448) : (memref<2x16x16xf32, 2>, memref<2x16x16xf32, 2>)
    %449 = call @kernel_ttmc(%445, %446, %447, %448) {adf.kernel, "col, row" = [7 : index, 1 : index], ivs = [1 : index, 1 : index, 4 : index], kernel_ttmc = 99 : index} : (memref<2x16x32xf32, 2>, memref<16x16xf32, 2>, memref<32x16xf32, 2>, memref<2x16x16xf32, 2>) -> memref<2x16x16xf32, 2>
    adf.buffer.location(%449, %c8, %c1, %c4096, %c12288) : (memref<2x16x16xf32, 2>, index, index, index, index)
    adf.buffer.location(%446, %c8, %c1, %c16384, %c24576) : (memref<16x16xf32, 2>, index, index, index, index)
    adf.buffer.location(%447, %c8, %c1, %c0, %c8192) : (memref<32x16xf32, 2>, index, index, index, index)
    adf.buffer.location(%445, %c7, %c0, %c4096, %c12288) : (memref<2x16x32xf32, 2>, index, index, index, index)
    adf.connect(%449, %arg80) {write = 1 : index} : (memref<2x16x16xf32, 2>, !adf.plio<Out, 128>)
    %450 = adf.buffer.create @L1_L1_A_100() : memref<2x16x32xf32, 2>
    %451 = adf.buffer.create @L1_L1_B_100() : memref<16x16xf32, 2>
    %452 = adf.buffer.create @L1_L1_C_100() : memref<32x16xf32, 2>
    adf.connect(%arg0, %450) : (!adf.plio<In, 128>, memref<2x16x32xf32, 2>)
    adf.connect(%arg78, %451) : (!adf.plio<In, 128>, memref<16x16xf32, 2>)
    adf.connect(%arg9, %452) : (!adf.plio<In, 128>, memref<32x16xf32, 2>)
    %453 = call @kernel_ttmc0(%450, %451, %452) {adf.kernel, "col, row" = [11 : index, 0 : index], ivs = [0 : index, 2 : index, 4 : index], kernel = 0 : index, kernel_ttmc0 = 100 : index} : (memref<2x16x32xf32, 2>, memref<16x16xf32, 2>, memref<32x16xf32, 2>) -> memref<2x16x16xf32, 2>
    adf.buffer.location(%453, %c11, %c0, %c16384, %c24576) : (memref<2x16x16xf32, 2>, index, index, index, index)
    adf.buffer.location(%451, %c11, %c0, %c0, %c8192) : (memref<16x16xf32, 2>, index, index, index, index)
    adf.buffer.location(%452, %c11, %c1, %c16384, %c24576) : (memref<32x16xf32, 2>, index, index, index, index)
    adf.buffer.location(%450, %c11, %c1, %c0, %c8192) : (memref<2x16x32xf32, 2>, index, index, index, index)
    %454 = adf.buffer.create @L1_L1_A_101() : memref<2x16x32xf32, 2>
    %455 = adf.buffer.create @L1_L1_B_101() : memref<16x16xf32, 2>
    %456 = adf.buffer.create @L1_L1_C_101() : memref<32x16xf32, 2>
    %457 = adf.buffer.create @L1_L1_D_101() : memref<2x16x16xf32, 2>
    adf.connect(%arg3, %454) : (!adf.plio<In, 128>, memref<2x16x32xf32, 2>)
    adf.connect(%arg78, %455) : (!adf.plio<In, 128>, memref<16x16xf32, 2>)
    adf.connect(%arg10, %456) : (!adf.plio<In, 128>, memref<32x16xf32, 2>)
    adf.connect(%453, %457) : (memref<2x16x16xf32, 2>, memref<2x16x16xf32, 2>)
    %458 = call @kernel_ttmc(%454, %455, %456, %457) {adf.kernel, "col, row" = [11 : index, 1 : index], ivs = [1 : index, 2 : index, 4 : index], kernel_ttmc = 101 : index} : (memref<2x16x32xf32, 2>, memref<16x16xf32, 2>, memref<32x16xf32, 2>, memref<2x16x16xf32, 2>) -> memref<2x16x16xf32, 2>
    adf.buffer.location(%458, %c12, %c1, %c4096, %c12288) : (memref<2x16x16xf32, 2>, index, index, index, index)
    adf.buffer.location(%455, %c12, %c1, %c16384, %c24576) : (memref<16x16xf32, 2>, index, index, index, index)
    adf.buffer.location(%456, %c12, %c1, %c0, %c8192) : (memref<32x16xf32, 2>, index, index, index, index)
    adf.buffer.location(%454, %c11, %c0, %c4096, %c12288) : (memref<2x16x32xf32, 2>, index, index, index, index)
    adf.connect(%458, %arg81) {write = 1 : index} : (memref<2x16x16xf32, 2>, !adf.plio<Out, 128>)
    %459 = adf.buffer.create @L1_L1_A_102() : memref<2x16x32xf32, 2>
    %460 = adf.buffer.create @L1_L1_B_102() : memref<16x16xf32, 2>
    %461 = adf.buffer.create @L1_L1_C_102() : memref<32x16xf32, 2>
    adf.connect(%arg0, %459) : (!adf.plio<In, 128>, memref<2x16x32xf32, 2>)
    adf.connect(%arg78, %460) : (!adf.plio<In, 128>, memref<16x16xf32, 2>)
    adf.connect(%arg12, %461) : (!adf.plio<In, 128>, memref<32x16xf32, 2>)
…
m1">, memref<1xi128, "stream">, memref<1xi512, "stream1">, memref<1xi128, "stream">, memref<1xi512, "stream1">, memref<1xi128, "stream">, memref<1xi512, "stream1">, memref<1xi128, "stream">, memref<1xi512, "stream1">, memref<1xi128, "stream">, memref<1xi512, "stream1">, memref<1xi128, "stream">, memref<1xi512, "stream1">, memref<1xi128, "stream">, memref<1xi512, "stream1">, memref<1xi128, "stream">, memref<1xi512, "stream1">, memref<1xi128, "stream">, memref<1xi512, "stream1">, memref<1xi128, "stream">, memref<1xi512, "stream1">, memref<1xi128, "stream">, memref<1xi512, "stream1">, memref<1xi128, "stream">, memref<1xi512, "stream1">, memref<1xi128, "stream">, memref<1xi512, "stream1">, memref<1xi128, "stream">, memref<1xi512, "stream1">, memref<1xi128, "stream">, memref<1xi512, "stream1">, memref<1xi128, "stream">, memref<1xi512, "stream1">, memref<1xi128, "stream">, memref<1xi512, "stream1">, memref<1xi128, "stream">, memref<1xi512, "stream1">, memref<1xi128, "stream">, memref<1xi512, "stream1">, memref<1xi128, "stream">, memref<1xi512, "stream1">, memref<1xi128, "stream">, memref<1xi512, "stream1">, memref<1xi128, "stream">, memref<1xi512, "stream1">, memref<1xi128, "stream">, memref<1xi512, "stream1">, memref<1xi128, "stream">, memref<1xi512, "stream1">, memref<1xi128, "stream">, memref<1xi512, "stream1">, memref<1xi128, "stream">, memref<1xi512, "stream1">, memref<1xi128, "stream">, memref<1xi512, "stream1">, memref<1xi128, "stream">, memref<1xi512, "stream1">, memref<1xi128, "stream">, memref<1xi512, "stream1">, memref<1xi128, "stream">, memref<1xi512, "stream1">, memref<1xi128, "stream">, memref<1xi512, "stream1">, memref<1xi128, "stream">, memref<1xi512, "stream1">, memref<1xi128, "stream">, memref<1xi512, "stream1">, memref<1xi128, "stream">, memref<1xi512, "stream1">, memref<1xi128, "stream">, memref<1xi512, "stream1">, memref<1xi128, "stream">, memref<1xi512, "stream1">) -> ()
    call @store0_top(%arg3, %alloc_186, %alloc_198, %alloc_188, %alloc_216, %alloc_196, %alloc_218, %alloc_224, %alloc_141, %alloc_206, %alloc_183, %alloc_180, %alloc_192, %alloc_148, %alloc_142, %alloc_143, %alloc_155, %alloc_152, %alloc_204, %alloc_205, %alloc_162, %alloc_130, %alloc_219, %alloc_149, %alloc_209, %alloc_194, %alloc_187, %alloc_134, %alloc_163, %alloc_153, %alloc_220, %alloc_215, %alloc_146, %alloc_213, %alloc_137, %alloc_175, %alloc_210, %alloc_172, %alloc_181, %alloc_147, %alloc_200, %alloc_145, %alloc_185, %alloc_178, %alloc_158, %alloc_201, %alloc_161, %alloc_193, %alloc_138, %alloc_190, %alloc_207, %alloc_191, %alloc_184, %alloc_179, %alloc_140, %alloc_131, %alloc_135, %alloc_166, %alloc_221, %alloc_129, %alloc_177, %alloc_182, %alloc_160, %alloc_222, %alloc_203, %alloc_202, %alloc_159, %alloc_212, %alloc_169, %alloc_197, %alloc_164, %alloc_176, %alloc_167, %alloc_139, %alloc_217, %alloc_156, %alloc_150, %alloc_223, %alloc_214, %alloc_211, %alloc_174, %alloc_154, %alloc_157, %alloc_168, %alloc_136, %alloc_144, %alloc_170, %alloc_132, %alloc_199, %alloc_208, %alloc_171, %alloc_195, %alloc_151, %alloc_165, %alloc_133, %alloc_189, %alloc_173) : (memref<4x512x48xi512>, memref<1xi512, "stream1">, memref<1xi512, "stream1">, memref<1xi512, "stream1">, memref<1xi512, "stream1">, memref<1xi512, "stream1">, memref<1xi512, "stream1">, memref<1xi512, "stream1">, memref<1xi512, "stream1">, memref<1xi512, "stream1">, memref<1xi512, "stream1">, memref<1xi512, "stream1">, memref<1xi512, "stream1">, memref<1xi512, "stream1">, memref<1xi512, "stream1">, memref<1xi512, "stream1">, memref<1xi512, "stream1">, memref<1xi512, "stream1">, memref<1xi512, "stream1">, memref<1xi512, "stream1">, memref<1xi512, "stream1">, memref<1xi512, "stream1">, memref<1xi512, "stream1">, memref<1xi512, "stream1">, memref<1xi512, "stream1">, memref<1xi512, "stream1">, memref<1xi512, "stream1">, memref<1xi512, "stream1">, memref<1xi512, "stream1">, memref<1xi512, "stream1">, memref<1xi512, "stream1">, memref<1xi512, "stream1">, memref<1xi512, "stream1">, memref<1xi512, "stream1">, memref<1xi512, "stream1">, memref<1xi512, "stream1">, memref<1xi512, "stream1">, memref<1xi512, "stream1">, memref<1xi512, "stream1">, memref<1xi512, "stream1">, memref<1xi512, "stream1">, memref<1xi512, "stream1">, memref<1xi512, "stream1">, memref<1xi512, "stream1">, memref<1xi512, "stream1">, memref<1xi512, "stream1">, memref<1xi512, "stream1">, memref<1xi512, "stream1">, memref<1xi512, "stream1">, memref<1xi512, "stream1">, memref<1xi512, "stream1">, memref<1xi512, "stream1">, memref<1xi512, "stream1">, memref<1xi512, "stream1">, memref<1xi512, "stream1">, memref<1xi512, "stream1">, memref<1xi512, "stream1">, memref<1xi512, "stream1">, memref<1xi512, "stream1">, memref<1xi512, "stream1">, memref<1xi512, "stream1">, memref<1xi512, "stream1">, memref<1xi512, "stream1">, memref<1xi512, "stream1">, memref<1xi512, "stream1">, memref<1xi512, "stream1">, memref<1xi512, "stream1">, memref<1xi512, "stream1">, memref<1xi512, "stream1">, memref<1xi512, "stream1">, memref<1xi512, "stream1">, memref<1xi512, "stream1">, memref<1xi512, "stream1">, memref<1xi512, "stream1">, memref<1xi512, "stream1">, memref<1xi512, "stream1">, memref<1xi512, "stream1">, memref<1xi512, "stream1">, memref<1xi512, "stream1">, memref<1xi512, "stream1">, memref<1xi512, "stream1">, memref<1xi512, "stream1">, memref<1xi512, "stream1">, memref<1xi512, "stream1">, memref<1xi512, "stream1">, memref<1xi512, "stream1">, memref<1xi512, "stream1">, memref<1xi512, "stream1">, memref<1xi512, "stream1">, memref<1xi512, "stream1">, memref<1xi512, "stream1">, memref<1xi512, "stream1">, memref<1xi512, "stream1">, memref<1xi512, "stream1">, memref<1xi512, "stream1">, memref<1xi512, "stream1">, memref<1xi512, "stream1">) -> ()
    call @load0_top(%arg0, %alloc_225, %alloc_226) : (memref<4x1024x256xi512>, memref<1xi512, "stream2">, memref<1xi512, "stream2">) -> ()
    call @load0_1_top(%alloc_226, %alloc_128, %alloc_225, %alloc_125) : (memref<1xi512, "stream2">, memref<1xi128, "stream">, memref<1xi512, "stream2">, memref<1xi128, "stream">) -> ()
    call @send3_top(%arg90, %alloc_125, %arg101, %alloc_128) : (memref<1xi128, "plio">, memref<1xi128, "stream">, memref<1xi128, "plio">, memref<1xi128, "stream">) -> ()
    call @load2_top(%arg2, %alloc_242, %alloc_236, %alloc_245, %alloc_237, %alloc_229, %alloc_247, %alloc_239, %alloc_235, %alloc_250, %alloc_231, %alloc_233, %alloc_246, %alloc_227, %alloc_234, %alloc_228, %alloc_241, %alloc_249, %alloc_232, %alloc_243, %alloc_244, %alloc_240, %alloc_230, %alloc_248, %alloc_238) : (memref<4096x48xi512>, memref<1xi512, "stream1">, memref<1xi512, "stream1">, memref<1xi512, "stream1">, memref<1xi512, "stream1">, memref<1xi512, "stream1">, memref<1xi512, "stream1">, memref<1xi512, "stream1">, memref<1xi512, "stream1">, memref<1xi512, "stream1">, memref<1xi512, "stream1">, memref<1xi512, "stream1">, memref<1xi512, "stream1">, memref<1xi512, "stream1">, memref<1xi512, "stream1">, memref<1xi512, "stream1">, memref<1xi512, "stream1">, memref<1xi512, "stream1">, memref<1xi512, "stream1">, memref<1xi512, "stream1">, memref<1xi512, "stream1">, memref<1xi512, "stream1">, memref<1xi512, "stream1">, memref<1xi512, "stream1">, memref<1xi512, "stream1">) -> ()
    call @load2_23_top(%alloc_250, %alloc_126, %alloc_249, %alloc_124, %alloc_248, %alloc_123, %alloc_247, %alloc_122, %alloc_246, %alloc_121, %alloc_245, %alloc_120, %alloc_244, %alloc_119, %alloc_243, %alloc_118, %alloc_242, %alloc_117, %alloc_241, %alloc_116, %alloc_240, %alloc_115, %alloc_239, %alloc_114, %alloc_238, %alloc_113, %alloc_237, %alloc_112, %alloc_236, %alloc_111, %alloc_235, %alloc_110, %alloc_234, %alloc_109, %alloc_233, %alloc_108, %alloc_232, %alloc_107, %alloc_231, %alloc_106, %alloc_230, %alloc_105, %alloc_229, %alloc_104, %alloc_228, %alloc_103, %alloc_227, %alloc_102) : (memref<1xi512, "stream1">, memref<1xi128, "stream">, memref<1xi512, "stream1">, memref<1xi128, "stream">, memref<1xi512, "stream1">, memref<1xi128, "stream">, memref<1xi512, "stream1">, memref<1xi128, "stream">, memref<1xi512, "stream1">, memref<1xi128, "stream">, memref<1xi512, "stream1">, memref<1xi128, "stream">, memref<1xi512, "stream1">, memref<1xi128, "stream">, memref<1xi512, "stream1">, memref<1xi128, "stream">, memref<1xi512, "stream1">, memref<1xi128, "stream">, memref<1xi512, "stream1">, memref<1xi128, "stream">, memref<1xi512, "stream1">, memref<1xi128, "stream">, memref<1xi512, "stream1">, memref<1xi128, "stream">, memref<1xi512, "stream1">, memref<1xi128, "stream">, memref<1xi512, "stream1">, memref<1xi128, "stream">, memref<1xi512, "stream1">, memref<1xi128, "stream">, memref<1xi512, "stream1">, memref<1xi128, "stream">, memref<1xi512, "stream1">, memref<1xi128, "stream">, memref<1xi512, "stream1">, memref<1xi128, "stream">, memref<1xi512, "stream1">, memref<1xi128, "stream">, memref<1xi512, "stream1">, memref<1xi128, "stream">, memref<1xi512, "stream1">, memref<1xi128, "stream">, memref<1xi512, "stream1">, memref<1xi128, "stream">, memref<1xi512, "stream1">, memref<1xi128, "stream">, memref<1xi512, "stream1">, memref<1xi128, "stream">) -> ()
    call @load1_top(%arg1, %alloc_256, %alloc_257, %alloc_255, %alloc_251, %alloc_252, %alloc_258, %alloc_253, %alloc_254) : (memref<1024x32xi512>, memref<1xi512, "stream1">, memref<1xi512, "stream1">, memref<1xi512, "stream1">, memref<1xi512, "stream1">, memref<1xi512, "stream1">, memref<1xi512, "stream1">, memref<1xi512, "stream1">, memref<1xi512, "stream1">) -> ()
    call @load1_7_top(%alloc_258, %alloc_127, %alloc_257, %alloc_101, %alloc_256, %alloc_100, %alloc_255, %alloc_99, %alloc_254, %alloc_98, %alloc_253, %alloc_97, %alloc_252, %alloc_96, %alloc_251, %alloc_95) : (memref<1xi512, "stream1">, memref<1xi128, "stream">, memref<1xi512, "stream1">, memref<1xi128, "stream">, memref<1xi512, "stream1">, memref<1xi128, "stream">, memref<1xi512, "stream1">, memref<1xi128, "stream">, memref<1xi512, "stream1">, memref<1xi128, "stream">, memref<1xi512, "stream1">, memref<1xi128, "stream">, memref<1xi512, "stream1">, memref<1xi128, "stream">, memref<1xi512, "stream1">, memref<1xi128, "stream">) -> ()
    return
  }
  func.func @ttmc(%arg0: memref<4x1024x256xi512>, %arg1: memref<1024x32xi512>, %arg2: memref<4096x48xi512>, %arg3: memref<4x512x48xi512>, %arg4: memref<1xi128, "plio">, %arg5: memref<1xi128, "plio">, %arg6: memref<1xi128, "plio">, %arg7: memref<1xi128, "plio">, %arg8: memref<1xi128, "plio">, %arg9: memref<1xi128, "plio">, %arg10: memref<1xi128, "plio">, %arg11: memref<1xi128, "plio">, %arg12: memref<1xi128, "plio">, %arg13: memref<1xi128, "plio">, %arg14: memref<1xi128, "plio">, %arg15: memref<1xi128, "plio">, %arg16: memref<1xi128, "plio">, %arg17: memref<1xi128, "plio">, %arg18: memref<1xi128, "plio">, %arg19: memref<1xi128, "plio">, %arg20: memref<1xi128, "plio">, %arg21: memref<1xi128, "plio">, %arg22: memref<1xi128, "plio">, %arg23: memref<1xi128, "plio">, %arg24: memref<1xi128, "plio">, %arg25: memref<1xi128, "plio">, %arg26: memref<1xi128, "plio">, %arg27: memref<1xi128, "plio">, %arg28: memref<1xi128, "plio">, %arg29: memref<1xi128, "plio">, %arg30: memref<1xi128, "plio">, %arg31: memref<1xi128, "plio">, %arg32: memref<1xi128, "plio">, %arg33: memref<1xi128, "plio">, %arg34: memref<1xi128, "plio">, %arg35: memref<1xi128, "plio">, %arg36: memref<1xi128, "plio">, %arg37: memref<1xi128, "plio">, %arg38: memref<1xi128, "plio">, %arg39: memref<1xi128, "plio">, %arg40: memref<1xi128, "plio">, %arg41: memref<1xi128, "plio">, %arg42: memref<1xi128, "plio">, %arg43: memref<1xi128, "plio">, %arg44: memref<1xi128, "plio">, %arg45: memref<1xi128, "plio">, %arg46: memref<1xi128, "plio">, %arg47: memref<1xi128, "plio">, %arg48: memref<1xi128, "plio">, %arg49: memref<1xi128, "plio">, %arg50: memref<1xi128, "plio">, %arg51: memref<1xi128, "plio">, %arg52: memref<1xi128, "plio">, %arg53: memref<1xi128, "plio">, %arg54: memref<1xi128, "plio">, %arg55: memref<1xi128, "plio">, %arg56: memref<1xi128, "plio">, %arg57: memref<1xi128, "plio">, %arg58: memref<1xi128, "plio">, %arg59: memref<1xi128, "plio">, %arg60: memref<1xi128, "plio">, %arg61: memref<1xi128, "plio">, %arg62: memref<1xi128, "plio">, %arg63: memref<1xi128, "plio">, %arg64: memref<1xi128, "plio">, %arg65: memref<1xi128, "plio">, %arg66: memref<1xi128, "plio">, %arg67: memref<1xi128, "plio">, %arg68: memref<1xi128, "plio">, %arg69: memref<1xi128, "plio">, %arg70: memref<1xi128, "plio">, %arg71: memref<1xi128, "plio">, %arg72: memref<1xi128, "plio">, %arg73: memref<1xi128, "plio">, %arg74: memref<1xi128, "plio">, %arg75: memref<1xi128, "plio">, %arg76: memref<1xi128, "plio">, %arg77: memref<1xi128, "plio">, %arg78: memref<1xi128, "plio">, %arg79: memref<1xi128, "plio">, %arg80: memref<1xi128, "plio">, %arg81: memref<1xi128, "plio">, %arg82: memref<1xi128, "plio">, %arg83: memref<1xi128, "plio">, %arg84: memref<1xi128, "plio">, %arg85: memref<1xi128, "plio">, %arg86: memref<1xi128, "plio">, %arg87: memref<1xi128, "plio">, %arg88: memref<1xi128, "plio">, %arg89: memref<1xi128, "plio">, %arg90: memref<1xi128, "plio">, %arg91: memref<1xi128, "plio">, %arg92: memref<1xi128, "plio">, %arg93: memref<1xi128, "plio">, %arg94: memref<1xi128, "plio">, %arg95: memref<1xi128, "plio">, %arg96: memref<1xi128, "plio">, %arg97: memref<1xi128, "plio">, %arg98: memref<1xi128, "plio">, %arg99: memref<1xi128, "plio">, %arg100: memref<1xi128, "plio">, %arg101: memref<1xi128, "plio">, %arg102: memref<1xi128, "plio">, %arg103: memref<1xi128, "plio">, %arg104: memref<1xi128, "plio">, %arg105: memref<1xi128, "plio">, %arg106: memref<1xi128, "plio">, %arg107: memref<1xi128, "plio">, %arg108: memref<1xi128, "plio">, %arg109: memref<1xi128, "plio">, %arg110: memref<1xi128, "plio">, %arg111: memref<1xi128, "plio">, %arg112: memref<1xi128, "plio">, %arg113: memref<1xi128, "plio">, %arg114: memref<1xi128, "plio">, %arg115: memref<1xi128, "plio">, %arg116: memref<1xi128, "plio">, %arg117: memref<1xi128, "plio">, %arg118: memref<1xi128, "plio">, %arg119: memref<1xi128, "plio">, %arg120: memref<1xi128, "plio">, %arg121: memref<1xi128, "plio">, %arg122: memref<1xi128, "plio">, %arg123: memref<1xi128, "plio">, %arg124: memref<1xi128, "plio">, %arg125: memref<1xi128, "plio">, %arg126: memref<1xi128, "plio">, %arg127: memref<1xi128, "plio">, %arg128: memref<1xi128, "plio">, %arg129: memref<1xi128, "plio">, %arg130: memref<1xi128, "plio">, %arg131: memref<1xi128, "plio">, %arg132: memref<1xi128, "plio">, %arg133: memref<1xi128, "plio">) attributes {adf.func, plio = true} {
    %0 = adf.graph.io(PLIO) : !adf.plio<Out, 128>
    adf.connect(%0, %arg124) {top_config} : (!adf.plio<Out, 128>, memref<1xi128, "plio">)
    %1 = adf.graph.io(PLIO) : !adf.plio<Out, 128>
    adf.connect(%1, %arg123) {top_config} : (!adf.plio<Out, 128>, memref<1xi128, "plio">)
    %2 = adf.graph.io(PLIO) : !adf.plio<Out, 128>
    adf.connect(%2, %arg95) {top_config} : (!adf.plio<Out, 128>, memref<1xi128, "plio">)
    %3 = adf.graph.io(PLIO) : !adf.plio<Out, 128>
    adf.connect(%3, %arg6) {top_config} : (!adf.plio<Out, 128>, memref<1xi128, "plio">)
    %4 = adf.graph.io(PLIO) : !adf.plio<Out, 128>
    adf.connect(%4, %arg132) {top_config} : (!adf.plio<Out, 128>, memref<1xi128, "plio">)
    %5 = adf.graph.io(PLIO) : !adf.plio<Out, 128>
    adf.connect(%5, %arg98) {top_config} : (!adf.plio<Out, 128>, memref<1xi128, "plio">)
    %6 = adf.graph.io(PLIO) : !adf.plio<Out, 128>
    adf.connect(%6, %arg33) {top_config} : (!adf.plio<Out, 128>, memref<1xi128, "plio">)
    %7 = adf.graph.io(PLIO) : !adf.plio<Out, 128>
    adf.connect(%7, %arg68) {top_config} : (!adf.plio<Out, 128>, memref<1xi128, "plio">)
    %8 = adf.graph.io(PLIO) : !adf.plio<Out, 128>
    adf.connect(%8, %arg14) {top_config} : (!adf.plio<Out, 128>, memref<1xi128, "plio">)
    %9 = adf.graph.io(PLIO) : !adf.plio<Out, 128>
    adf.connect(%9, %arg103) {top_config} : (!adf.plio<Out, 128>, memref<1xi128, "plio">)
    %10 = adf.graph.io(PLIO) : !adf.plio<Out, 128>
    adf.connect(%10, %arg93) {top_config} : (!adf.plio<Out, 128>, memref<1xi128, "plio">)
    %11 = adf.graph.io(PLIO) : !adf.plio<Out, 128>
    adf.connect(%11, %arg16) {top_config} : (!adf.plio<Out, 128>, memref<1xi128, "plio">)
    %12 = adf.graph.io(PLIO) : !adf.plio<In, 128>
    adf.connect(%arg43, %12) {top_config} : (memref<1xi128, "plio">, !adf.plio<In, 128>)
    %13 = adf.graph.io(PLIO) : !adf.plio<Out, 128>
    adf.connect(%13, %arg19) {top_config} : (!adf.plio<Out, 128>, memref<1xi128, "plio">)
    %14 = adf.graph.io(PLIO) : !adf.plio<Out, 128>
    adf.connect(%14, %arg5) {top_config} : (!adf.plio<Out, 128>, memref<1xi128, "plio">)
    %15 = adf.graph.io(PLIO) : !adf.plio<Out, 128>
    adf.connect(%15, %arg125) {top_config} : (!adf.plio<Out, 128>, memref<1xi128, "plio">)
    %16 = adf.graph.io(PLIO) : !adf.plio<Out, 128>
    adf.connect(%16, %arg76) {top_config} : (!adf.plio<Out, 128>, memref<1xi128, "plio">)
    %17 = adf.graph.io(PLIO) : !adf.plio<Out, 128>
    adf.connect(%17, %arg89) {top_config} : (!adf.plio<Out, 128>, memref<1xi128, "plio">)
    %18 = adf.graph.io(PLIO) : !adf.plio<Out, 128>
    adf.connect(%18, %arg120) {top_config} : (!adf.plio<Out, 128>, memref<1xi128, "plio">)
    %19 = adf.graph.io(PLIO) : !adf.plio<Out, 128>
    adf.connect(%19, %arg71) {top_config} : (!adf.plio<Out, 128>, memref<1xi128, "plio">)
    %20 = adf.graph.io(PLIO) : !adf.plio<Out, 128>
    adf.connect(%20, %arg36) {top_config} : (!adf.plio<Out, 128>, memref<1xi128, "plio">)
    %21 = adf.graph.io(PLIO) : !adf.plio<Out, 128>
    adf.connect(%21, %arg7) {top_config} : (!adf.plio<Out, 128>, memref<1xi128, "plio">)
    %22 = adf.graph.io(PLIO) : !adf.plio<Out, 128>
    adf.connect(%22, %arg94) {top_config} : (!adf.plio<Out, 128>, memref<1xi128, "plio">)
    %23 = adf.graph.io(PLIO) : !adf.plio<Out, 128>
    adf.connect(%23, %arg129) {top_config} : (!adf.plio<Out, 128>, memref<1xi128, "plio">)
    %24 = adf.graph.io(PLIO) : !adf.plio<Out, 128>
    adf.connect(%24, %arg24) {top_config} : (!adf.plio<Out, 128>, memref<1xi128, "plio">)
    %25 = adf.graph.io(PLIO) : !adf.plio<In, 128>
    adf.connect(%arg79, %25) {top_config} : (memref<1xi128, "plio">, !adf.plio<In, 128>)
    %26 = adf.graph.io(PLIO) : !adf.plio<Out, 128>
    adf.connect(%26, %arg121) {top_config} : (!adf.plio<Out, 128>, memref<1xi128, "plio">)
    %27 = adf.graph.io(PLIO) : !adf.plio<Out, 128>
    adf.connect(%27, %arg30) {top_config} : (!adf.plio<Out, 128>, memref<1xi128, "plio">)
    %28 = adf.graph.io(PLIO) : !adf.plio<Out, 128>
    adf.connect(%28, %arg87) {top_config} : (!adf.plio<Out, 128>, memref<1xi128, "plio">)
    %29 = adf.graph.io(PLIO) : !adf.plio<Out, 128>
    adf.connect(%29, %arg126) {top_config} : (!adf.plio<Out, 128>, memref<1xi128, "plio">)
    %30 = adf.graph.io(PLIO) : !adf.plio<Out, 128>
    adf.connect(%30, %arg63) {top_config} : (!adf.plio<Out, 128>, memref<1xi128, "plio">)
    %31 = adf.graph.io(PLIO) : !adf.plio<Out, 128>
    adf.connect(%31, %arg83) {top_config} : (!adf.plio<Out, 128>, memref<1xi128, "plio">)
    %32 = adf.graph.io(PLIO) : !adf.plio<Out, 128>
    adf.connect(%32, %arg118) {top_config} : (!adf.plio<Out, 128>, memref<1xi128, "plio">)
    %33 = adf.graph.io(PLIO) : !adf.plio<Out, 128>
    adf.connect(%33, %arg21) {top_config} : (!adf.plio<Out, 128>, memref<1xi128, "plio">)
    %34 = adf.graph.io(PLIO) : !adf.plio<Out, 128>
    adf.connect(%34, %arg38) {top_config} : (!adf.plio<Out, 128>, memref<1xi128, "plio">)
    %35 = adf.graph.io(PLIO) : !adf.plio<Out, 128>
    adf.connect(%35, %arg70) {top_config} : (!adf.plio<Out, 128>, memref<1xi128, "plio">)
    %36 = adf.graph.io(PLIO) : !adf.plio<Out, 128>
    adf.connect(%36, %arg85) {top_config} : (!adf.plio<Out, 128>, memref<1xi128, "plio">)
    %37 = adf.graph.io(PLIO) : !adf.plio<Out, 128>
    adf.connect(%37, %arg72) {top_config} : (!adf.plio<Out, 128>, memref<1xi128, "plio">)
    %38 = adf.graph.io(PLIO) : !adf.plio<In, 128>
    adf.connect(%arg4, %38) {top_config} : (memref<1xi128, "plio">, !adf.plio<In, 128>)
    %39 = adf.graph.io(PLIO) : !adf.plio<Out, 128>
    adf.connect(%39, %arg13) {top_config} : (!adf.plio<Out, 128>, memref<1xi128, "plio">)
    %40 = adf.graph.io(PLIO) : !adf.plio<Out, 128>
    adf.connect(%40, %arg69) {top_config} : (!adf.plio<Out, 128>, memref<1xi128, "plio">)
    %41 = adf.graph.io(PLIO) : !adf.plio<Out, 128>
    adf.connect(%41, %arg51) {top_config} : (!adf.plio<Out, 128>, memref<1xi128, "plio">)
    %42 = adf.graph.io(PLIO) : !adf.plio<Out, 128>
    adf.connect(%42, %arg133) {top_config} : (!adf.plio<Out, 128>, memref<1xi128, "plio">)
    %43 = adf.graph.io(PLIO) : !adf.plio<Out, 128>
    adf.connect(%43, %arg74) {top_config} : (!adf.plio<Out, 128>, memref<1xi128, "plio">)
    %44 = adf.graph.io(PLIO) : !adf.plio<Out, 128>
    adf.connect(%44, %arg115) {top_config} : (!adf.plio<Out, 128>, memref<1xi128, "plio">)
    %45 = adf.graph.io(PLIO) : !adf.plio<Out, 128>
    adf.connect(%45, %arg130) {top_config} : (!adf.plio<Out, 128>, memref<1xi128, "plio">)
    %46 = adf.graph.io(PLIO) : !adf.plio<Out, 128>
    adf.connect(%46, %arg26) {top_config} : (!adf.plio<Out, 128>, memref<1xi128, "plio">)
    %47 = adf.graph.io(PLIO) : !adf.plio<Out, 128>
    adf.connect(%47, %arg86) {top_config} : (!adf.plio<Out, 128>, memref<1xi128, "plio">)
    %48 = adf.graph.io(PLIO) : !adf.plio<Out, 128>
    adf.connect(%48, %arg34) {top_config} : (!adf.plio<Out, 128>, memref<1xi128, "plio">)
    %49 = adf.graph.io(PLIO) : !adf.plio<Out, 128>
    adf.connect(%49, %arg22) {top_config} : (!adf.plio<Out, 128>, memref<1xi128, "plio">)
    %50 = adf.graph.io(PLIO) : !adf.plio<Out, 128>
    adf.connect(%50, %arg52) {top_config} : (!adf.plio<Out, 128>, memref<1xi128, "plio">)
    %51 = adf.graph.io(PLIO) : !adf.plio<In, 128>
    adf.connect(%arg10, %51) {top_config} : (memref<1xi128, "plio">, !adf.plio<In, 128>)
    %52 = adf.graph.io(PLIO) : !adf.plio<Out, 128>
    adf.connect(%52, %arg73) {top_config} : (!adf.plio<Out, 128>, memref<1xi128, "plio">)
    %53 = adf.graph.io(PLIO) : !adf.plio<Out, 128>
    adf.connect(%53, %arg37) {top_config} : (!adf.plio<Out, 128>, memref<1xi128, "plio">)
    %54 = adf.graph.io(PLIO) : !adf.plio<Out, 128>
    adf.connect(%54, %arg84) {top_config} : (!adf.plio<Out, 128>, memref<1xi128, "plio">)
    %55 = adf.graph.io(PLIO) : !adf.plio<Out, 128>
    adf.connect(%55, %arg109) {top_config} : (!adf.plio<Out, 128>, memref<1xi128, "plio">)
    %56 = adf.graph.io(PLIO) : !adf.plio<Out, 128>
    adf.connect(%56, %arg128) {top_config} : (!adf.plio<Out, 128>, memref<1xi128, "plio">)
    %57 = adf.graph.io(PLIO) : !adf.plio<Out, 128>
    adf.connect(%57, %arg66) {top_config} : (!adf.plio<Out, 128>, memref<1xi128, "plio">)
    %58 = adf.graph.io(PLIO) : !adf.plio<Out, 128>
    adf.connect(%58, %arg58) {top_config} : (!adf.plio<Out, 128>, memref<1xi128, "plio">)
    %59 = adf.graph.io(PLIO) : !adf.plio<Out, 128>
    adf.connect(%59, %arg112) {top_config} : (!adf.plio<Out, 128>, memref<1xi128, "plio">)
    %60 = adf.graph.io(PLIO) : !adf.plio<Out, 128>
    adf.connect(%60, %arg75) {top_config} : (!adf.plio<Out, 128>, memref<1xi128, "plio">)
    %61 = adf.graph.io(PLIO) : !adf.plio<Out, 128>
    adf.connect(%61, %arg107) {top_config} : (!adf.plio<Out, 128>, memref<1xi128, "plio">)
    %62 = adf.graph.io(PLIO) : !adf.plio<Out, 128>
    adf.connect(%62, %arg61) {top_config} : (!adf.plio<Out, 128>, memref<1xi128, "plio">)
    %63 = adf.graph.io(PLIO) : !adf.plio<Out, 128>
    adf.connect(%63, %arg114) {top_config} : (!adf.plio<Out, 128>, memref<1xi128, "plio">)
    %64 = adf.graph.io(PLIO) : !adf.plio<In, 128>
    adf.connect(%arg64, %64) {top_config} : (memref<1xi128, "plio">, !adf.plio<In, 128>)
    %65 = adf.graph.io(PLIO) : !adf.plio<Out, 128>
    adf.connect(%65, %arg20) {top_config} : (!adf.plio<Out, 128>, memref<1xi128, "plio">)
    %66 = adf.graph.io(PLIO) : !adf.plio<Out, 128>
    adf.connect(%66, %arg119) {top_config} : (!adf.plio<Out, 128>, memref<1xi128, "plio">)
    %67 = adf.graph.io(PLIO) : !adf.plio<Out, 128>
    adf.connect(%67, %arg82) {top_config} : (!adf.plio<Out, 128>, memref<1xi128, "plio">)
    %68 = adf.graph.io(PLIO) : !adf.plio<Out, 128>
    adf.connect(%68, %arg78) {top_config} : (!adf.plio<Out, 128>, memref<1xi128, "plio">)
    %69 = adf.graph.io(PLIO) : !adf.plio<Out, 128>
    adf.connect(%69, %arg96) {top_config} : (!adf.plio<Out, 128>, memref<1xi128, "plio">)
    %70 = adf.graph.io(PLIO) : !adf.plio<Out, 128>
    adf.connect(%70, %arg91) {top_config} : (!adf.plio<Out, 128>, memref<1xi128, "plio">)
    %71 = adf.graph.io(PLIO) : !adf.plio<Out, 128>
    adf.connect(%71, %arg25) {top_config} : (!adf.plio<Out, 128>, memref<1xi128, "plio">)
    %72 = adf.graph.io(PLIO) : !adf.plio<Out, 128>
    adf.connect(%72, %arg9) {top_config} : (!adf.plio<Out, 128>, memref<1xi128, "plio">)
    %73 = adf.graph.io(PLIO) : !adf.plio<Out, 128>
    adf.connect(%73, %arg65) {top_config} : (!adf.plio<Out, 128>, memref<1xi128, "plio">)
    %74 = adf.graph.io(PLIO) : !adf.plio<Out, 128>
    adf.connect(%74, %arg32) {top_config} : (!adf.plio<Out, 128>, memref<1xi128, "plio">)
    %75 = adf.graph.io(PLIO) : !adf.plio<Out, 128>
    adf.connect(%75, %arg117) {top_config} : (!adf.plio<Out, 128>, memref<1xi128, "plio">)
    %76 = adf.graph.io(PLIO) : !adf.plio<Out, 128>
    adf.connect(%76, %arg46) {top_config} : (!adf.plio<Out, 128>, memref<1xi128, "plio">)
    %77 = adf.graph.io(PLIO) : !adf.plio<In, 128>
    adf.connect(%arg77, %77) {top_config} : (memref<1xi128, "plio">, !adf.plio<In, 128>)
    %78 = adf.graph.io(PLIO) : !adf.plio<Out, 128>
    adf.connect(%78, %arg45) {top_config} : (!adf.plio<Out, 128>, memref<1xi128, "plio">)
    %79 = adf.graph.io(PLIO) : !adf.plio<Out, 128>
    adf.connect(%79, %arg44) {top_config} : (!adf.plio<Out, 128>, memref<1xi128, "plio">)
    %80 = adf.graph.io(PLIO) : !adf.plio<Out, 128>
    adf.connect(%80, %arg60) {top_config} : (!adf.plio<Out, 128>, memref<1xi128, "plio">)
    %81 = adf.graph.io(PLIO) : !adf.plio<Out, 128>
    adf.connect(%81, %arg110) {top_config} : (!adf.plio<Out, 128>, memref<1xi128, "plio">)
    %82 = adf.graph.io(PLIO) : !adf.plio<Out, 128>
    adf.connect(%82, %arg50) {top_config} : (!adf.plio<Out, 128>, memref<1xi128, "plio">)
    %83 = adf.graph.io(PLIO) : !adf.plio<Out, 128>
    adf.connect(%83, %arg104) {top_config} : (!adf.plio<Out, 128>, memref<1xi128, "plio">)
    %84 = adf.graph.io(PLIO) : !adf.plio<Out, 128>
    adf.connect(%84, %arg57) {top_config} : (!adf.plio<Out, 128>, memref<1xi128, "plio">)
    %85 = adf.graph.io(PLIO) : !adf.plio<Out, 128>
    adf.connect(%85, %arg28) {top_config} : (!adf.plio<Out, 128>, memref<1xi128, "plio">)
    %86 = adf.graph.io(PLIO) : !adf.plio<Out, 128>
    adf.connect(%86, %arg102) {top_config} : (!adf.plio<Out, 128>, memref<1xi128, "plio">)
    %87 = adf.graph.io(PLIO) : !adf.plio<Out, 128>
    adf.connect(%87, %arg97) {top_config} : (!adf.plio<Out, 128>, memref<1xi128, "plio">)
    %88 = adf.graph.io(PLIO) : !adf.plio<Out, 128>
    adf.connect(%88, %arg48) {top_config} : (!adf.plio<Out, 128>, memref<1xi128, "plio">)
    %89 = adf.graph.io(PLIO) : !adf.plio<Out, 128>
    adf.connect(%89, %arg81) {top_config} : (!adf.plio<Out, 128>, memref<1xi128, "plio">)
    %90 = adf.graph.io(PLIO) : !adf.plio<In, 128>
    adf.connect(%arg105, %90) {top_config} : (memref<1xi128, "plio">, !adf.plio<In, 128>)
    %91 = adf.graph.io(PLIO) : !adf.plio<Out, 128>
    adf.connect(%91, %arg49) {top_config} : (!adf.plio<Out, 128>, memref<1xi128, "plio">)
    %92 = adf.graph.io(PLIO) : !adf.plio<In, 128>
    adf.connect(%arg127, %92) {top_config} : (memref<1xi128, "plio">, !adf.plio<In, 128>)
    %93 = adf.graph.io(PLIO) : !adf.plio<In, 128>
    adf.connect(%arg56, %93) {top_config} : (memref<1xi128, "plio">, !adf.plio<In, 128>)
    %94 = adf.graph.io(PLIO) : !adf.plio<Out, 128>
    adf.connect(%94, %arg27) {top_config} : (!adf.plio<Out, 128>, memref<1xi128, "plio">)
    %95 = adf.graph.io(PLIO) : !adf.plio<In, 128>
    adf.connect(%arg111, %95) {top_config} : (memref<1xi128, "plio">, !adf.plio<In, 128>)
    %96 = adf.graph.io(PLIO) : !adf.plio<In, 128>
    adf.connect(%arg11, %96) {top_config} : (memref<1xi128, "plio">, !adf.plio<In, 128>)
    %97 = adf.graph.io(PLIO) : !adf.plio<Out, 128>
    adf.connect(%97, %arg23) {top_config} : (!adf.plio<Out, 128>, memref<1xi128, "plio">)
    %98 = adf.graph.io(PLIO) : !adf.plio<In, 128>
    adf.connect(%arg108, %98) {top_config} : (memref<1xi128, "plio">, !adf.plio<In, 128>)
    %99 = adf.graph.io(PLIO) : !adf.plio<In, 128>
    adf.connect(%arg42, %99) {top_config} : (memref<1xi128, "plio">, !adf.plio<In, 128>)
    %100 = adf.graph.io(PLIO) : !adf.plio<Out, 128>
    adf.connect(%100, %arg88) {top_config} : (!adf.plio<Out, 128>, memref<1xi128, "plio">)
    %101 = adf.graph.io(PLIO) : !adf.plio<In, 128>
    adf.connect(%arg59, %101) {top_config} : (memref<1xi128, "plio">, !adf.plio<In, 128>)
    %102 = adf.graph.io(PLIO) : !adf.plio<In, 128>
    adf.connect(%arg47, %102) {top_config} : (memref<1xi128, "plio">, !adf.plio<In, 128>)
    %103 = adf.graph.io(PLIO) : !adf.plio<Out, 128>
    adf.connect(%103, %arg122) {top_config} : (!adf.plio<Out, 128>, memref<1xi128, "plio">)
    %104 = adf.graph.io(PLIO) : !adf.plio<In, 128>
    adf.connect(%arg8, %104) {top_config} : (memref<1xi128, "plio">, !adf.plio<In, 128>)
    %105 = adf.graph.io(PLIO) : !adf.plio<In, 128>
    adf.connect(%arg29, %105) {top_config} : (memref<1xi128, "plio">, !adf.plio<In, 128>)
    %106 = adf.graph.io(PLIO) : !adf.plio<Out, 128>
    adf.connect(%106, %arg31) {top_config} : (!adf.plio<Out, 128>, memref<1xi128, "plio">)
    %107 = adf.graph.io(PLIO) : !adf.plio<In, 128>
    adf.connect(%arg116, %107) {top_config} : (memref<1xi128, "plio">, !adf.plio<In, 128>)
    %108 = adf.graph.io(PLIO) : !adf.plio<In, 128>
    adf.connect(%arg18, %108) {top_config} : (memref<1xi128, "plio">, !adf.plio<In, 128>)
    %109 = adf.graph.io(PLIO) : !adf.plio<Out, 128>
    adf.connect(%109, %arg17) {top_config} : (!adf.plio<Out, 128>, memref<1xi128, "plio">)
    %110 = adf.graph.io(PLIO) : !adf.plio<In, 128>
    adf.connect(%arg100, %110) {top_config} : (memref<1xi128, "plio">, !adf.plio<In, 128>)
    %111 = adf.graph.io(PLIO) : !adf.plio<In, 128>
    adf.connect(%arg41, %111) {top_config} : (memref<1xi128, "plio">, !adf.plio<In, 128>)
    %112 = adf.graph.io(PLIO) : !adf.plio<Out, 128>
    adf.connect(%112, %arg39) {top_config} : (!adf.plio<Out, 128>, memref<1xi128, "plio">)
    %113 = adf.graph.io(PLIO) : !adf.plio<In, 128>
    adf.connect(%arg35, %113) {top_config} : (memref<1xi128, "plio">, !adf.plio<In, 128>)
    %114 = adf.graph.io(PLIO) : !adf.plio<In, 128>
    adf.connect(%arg99, %114) {top_config} : (memref<1xi128, "plio">, !adf.plio<In, 128>)
    %115 = adf.graph.io(PLIO) : !adf.plio<Out, 128>
    adf.connect(%115, %arg113) {top_config} : (!adf.plio<Out, 128>, memref<1xi128, "plio">)
    %116 = adf.graph.io(PLIO) : !adf.plio<In, 128>
    adf.connect(%arg92, %116) {top_config} : (memref<1xi128, "plio">, !adf.plio<In, 128>)
    %117 = adf.graph.io(PLIO) : !adf.plio<In, 128>
    adf.connect(%arg106, %117) {top_config} : (memref<1xi128, "plio">, !adf.plio<In, 128>)
    %118 = adf.graph.io(PLIO) : !adf.plio<Out, 128>
    adf.connect(%118, %arg12) {top_config} : (!adf.plio<Out, 128>, memref<1xi128, "plio">)
    %119 = adf.graph.io(PLIO) : !adf.plio<In, 128>
    adf.connect(%arg131, %119) {top_config} : (memref<1xi128, "plio">, !adf.plio<In, 128>)
    %120 = adf.graph.io(PLIO) : !adf.plio<In, 128>
    adf.connect(%arg54, %120) {top_config} : (memref<1xi128, "plio">, !adf.plio<In, 128>)
    %121 = adf.graph.io(PLIO) : !adf.plio<Out, 128>
    adf.connect(%121, %arg15) {top_config} : (!adf.plio<Out, 128>, memref<1xi128, "plio">)
    %122 = adf.graph.io(PLIO) : !adf.plio<In, 128>
    adf.connect(%arg67, %122) {top_config} : (memref<1xi128, "plio">, !adf.plio<In, 128>)
    %123 = adf.graph.io(PLIO) : !adf.plio<In, 128>
    adf.connect(%arg40, %123) {top_config} : (memref<1xi128, "plio">, !adf.plio<In, 128>)
    %124 = adf.graph.io(PLIO) : !adf.plio<Out, 128>
    adf.connect(%124, %arg80) {top_config} : (!adf.plio<Out, 128>, memref<1xi128, "plio">)
    %125 = adf.graph.io(PLIO) : !adf.plio<In, 128>
    adf.connect(%arg55, %125) {top_config} : (memref<1xi128, "plio">, !adf.plio<In, 128>)
    %126 = adf.graph.io(PLIO) : !adf.plio<In, 128>
    adf.connect(%arg90, %126) {top_config} : (memref<1xi128, "plio">, !adf.plio<In, 128>)
    %127 = adf.graph.io(PLIO) : !adf.plio<In, 128>
    adf.connect(%arg53, %127) {top_config} : (memref<1xi128, "plio">, !adf.plio<In, 128>)
    %128 = adf.graph.io(PLIO) : !adf.plio<In, 128>
    adf.connect(%arg62, %128) {top_config} : (memref<1xi128, "plio">, !adf.plio<In, 128>)
    %129 = adf.graph.io(PLIO) : !adf.plio<In, 128>
    adf.connect(%arg101, %129) {top_config} : (memref<1xi128, "plio">, !adf.plio<In, 128>)
    adf.cell.launch @adf_cell0 {
      func.call @adf_cell0(%129, %128, %127, %126, %125, %124, %123, %122, %121, %120, %119, %118, %117, %116, %115, %114, %113, %112, %111, %110, %109, %108, %107, %106, %105, %104, %103, %102, %101, %100, %99, %98, %97, %96, %95, %94, %93, %92, %91, %90, %89, %88, %87, %86, %85, %84, %83, %82, %81, %80, %79, %78, %77, %76, %75, %74, %73, %72, %71, %70, %69, %68, %67, %66, %65, %64, %63, %62, %61, %60, %59, %58, %57, %56, %55, %54, %53, %52, %51, %50, %49, %48, %47, %46, %45, %44, %43, %42, %41, %40, %39, %38, %37, %36, %35, %34, %33, %32, %31, %30, %29, %28, %27, %26, %25, %24, %23, %22, %21, %20, %19, %18, %17, %16, %15, %14, %13, %12, %11, %10, %9, %8, %7, %6, %5, %4, %3, %2, %1, %0) {adf.cell} : (!adf.plio<In, 128>, !adf.plio<In, 128>, !adf.plio<In, 128>, !adf.plio<In, 128>, !adf.plio<In, 128>, !adf.plio<Out, 128>, !adf.plio<In, 128>, !adf.plio<In, 128>, !adf.plio<Out, 128>, !adf.plio<In, 128>, !adf.plio<In, 128>, !adf.plio<Out, 128>, !adf.plio<In, 128>, !adf.plio<In, 128>, !adf.plio<Out, 128>, !adf.plio<In, 128>, !adf.plio<In, 128>, !adf.plio<Out, 128>, !adf.plio<In, 128>, !adf.plio<In, 128>, !adf.plio<Out, 128>, !adf.plio<In, 128>, !adf.plio<In, 128>, !adf.plio<Out, 128>, !adf.plio<In, 128>, !adf.plio<In, 128>, !adf.plio<Out, 128>, !adf.plio<In, 128>, !adf.plio<In, 128>, !adf.plio<Out, 128>, !adf.plio<In, 128>, !adf.plio<In, 128>, !adf.plio<Out, 128>, !adf.plio<In, 128>, !adf.plio<In, 128>, !adf.plio<Out, 128>, !adf.plio<In, 128>, !adf.plio<In, 128>, !adf.plio<Out, 128>, !adf.plio<In, 128>, !adf.plio<Out, 128>, !adf.plio<Out, 128>, !adf.plio<Out, 128>, !adf.plio<Out, 128>, !adf.plio<Out, 128>, !adf.plio<Out, 128>, !adf.plio<Out, 128>, !adf.plio<Out, 128>, !adf.plio<Out, 128>, !adf.plio<Out, 128>, !adf.plio<Out, 128>, !adf.plio<Out, 128>, !adf.plio<In, 128>, !adf.plio<Out, 128>, !adf.plio<Out, 128>, !adf.plio<Out, 128>, !adf.plio<Out, 128>, !adf.plio<Out, 128>, !adf.plio<Out, 128>, !adf.plio<Out, 128>, !adf.plio<Out, 128>, !adf.plio<Out, 128>, !adf.plio<Out, 128>, !adf.plio<Out, 128>, !adf.plio<Out, 128>, !adf.plio<In, 128>, !adf.plio<Out, 128>, !adf.plio<Out, 128>, !adf.plio<Out, 128>, !adf.plio<Out, 128>, !adf.plio<Out, 128>, !adf.plio<Out, 128>, !adf.plio<Out, 128>, !adf.plio<Out, 128>, !adf.plio<Out, 128>, !adf.plio<Out, 128>, !adf.plio<Out, 128>, !adf.plio<Out, 128>, !adf.plio<In, 128>, !adf.plio<Out, 128>, !adf.plio<Out, 128>, !adf.plio<Out, 128>, !adf.plio<Out, 128>, !adf.plio<Out, 128>, !adf.plio<Out, 128>, !adf.plio<Out, 128>, !adf.plio<Out, 128>, !adf.plio<Out, 128>, !adf.plio<Out, 128>, !adf.plio<Out, 128>, !adf.plio<Out, 128>, !adf.plio<In, 128>, !adf.plio<Out, 128>, !adf.plio<Out, 128>, !adf.plio<Out, 128>, !adf.plio<Out, 128>, !adf.plio<Out, 128>, !adf.plio<Out, 128>, !adf.plio<Out, 128>, !adf.plio<Out, 128>, !adf.plio<Out, 128>, !adf.plio<Out, 128>, !adf.plio<Out, 128>, !adf.plio<Out, 128>, !adf.plio<In, 128>, !adf.plio<Out, 128>, !adf.plio<Out, 128>, !adf.plio<Out, 128>, !adf.plio<Out, 128>, !adf.plio<Out, 128>, !adf.plio<Out, 128>, !adf.plio<Out, 128>, !adf.plio<Out, 128>, !adf.plio<Out, 128>, !adf.plio<Out, 128>, !adf.plio<Out, 128>, !adf.plio<Out, 128>, !adf.plio<In, 128>, !adf.plio<Out, 128>, !adf.plio<Out, 128>, !adf.plio<Out, 128>, !adf.plio<Out, 128>, !adf.plio<Out, 128>, !adf.plio<Out, 128>, !adf.plio<Out, 128>, !adf.plio<Out, 128>, !adf.plio<Out, 128>, !adf.plio<Out, 128>, !adf.plio<Out, 128>, !adf.plio<Out, 128>) -> ()
      adf.cell.launch.end
    }
    adf.pl.launch @ttmc_pl {
      func.call @ttmc_pl(%arg0, %arg1, %arg2, %arg3, %arg4, %arg5, %arg6, %arg7, %arg8, %arg9, %arg10, %arg11, %arg12, %arg13, %arg14, %arg15, %arg16, %arg17, %arg18, %arg19, %arg20, %arg21, %arg22, %arg23, %arg24, %arg25, %arg26, %arg27, %arg28, %arg29, %arg30, %arg31, %arg32, %arg33, %arg34, %arg35, %arg36, %arg37, %arg38, %arg39, %arg40, %arg41, %arg42, %arg43, %arg44, %arg45, %arg46, %arg47, %arg48, %arg49, %arg50, %arg51, %arg52, %arg53, %arg54, %arg55, %arg56, %arg57, %arg58, %arg59, %arg60, %arg61, %arg62, %arg63, %arg64, %arg65, %arg66, %arg67, %arg68, %arg69, %arg70, %arg71, %arg72, %arg73, %arg74, %arg75, %arg76, %arg77, %arg78, %arg79, %arg80, %arg81, %arg82, %arg83, %arg84, %arg85, %arg86, %arg87, %arg88, %arg89, %arg90, %arg91, %arg92, %arg93, %arg94, %arg95, %arg96, %arg97, %arg98, %arg99, %arg100, %arg101, %arg102, %arg103, %arg104, %arg105, %arg106, %arg107, %arg108, %arg109, %arg110, %arg111, %arg112, %arg113, %arg114, %arg115, %arg116, %arg117, %arg118, %arg119, %arg120, %arg121, %arg122, %arg123, %arg124, %arg125, %arg126, %arg127, %arg128, %arg129, %arg130, %arg131, %arg132, %arg133) {adf.pl} : (memref<4x1024x256xi512>, memref<1024x32xi512>, memref<4096x48xi512>, memref<4x512x48xi512>, memref<1xi128, "plio">, memref<1xi128, "plio">, memref<1xi128, "plio">, memref<1xi128, "plio">, memref<1xi128, "plio">, memref<1xi128, "plio">, memref<1xi128, "plio">, memref<1xi128, "plio">, memref<1xi128, "plio">, memref<1xi128, "plio">, memref<1xi128, "plio">, memref<1xi128, "plio">, memref<1xi128, "plio">, memref<1xi128, "plio">, memref<1xi128, "plio">, memref<1xi128, "plio">, memref<1xi128, "plio">, memref<1xi128, "plio">, memref<1xi128, "plio">, memref<1xi128, "plio">, memref<1xi128, "plio">, memref<1xi128, "plio">, memref<1xi128, "plio">, memref<1xi128, "plio">, memref<1xi128, "plio">, memref<1xi128, "plio">, memref<1xi128, "plio">, memref<1xi128, "plio">, memref<1xi128, "plio">, memref<1xi128, "plio">, memref<1xi128, "plio">, memref<1xi128, "plio">, memref<1xi128, "plio">, memref<1xi128, "plio">, memref<1xi128, "plio">, memref<1xi128, "plio">, memref<1xi128, "plio">, memref<1xi128, "plio">, memref<1xi128, "plio">, memref<1xi128, "plio">, memref<1xi128, "plio">, memref<1xi128, "plio">, memref<1xi128, "plio">, memref<1xi128, "plio">, memref<1xi128, "plio">, memref<1xi128, "plio">, memref<1xi128, "plio">, memref<1xi128, "plio">, memref<1xi128, "plio">, memref<1xi128, "plio">, memref<1xi128, "plio">, memref<1xi128, "plio">, memref<1xi128, "plio">, memref<1xi128, "plio">, memref<1xi128, "plio">, memref<1xi128, "plio">, memref<1xi128, "plio">, memref<1xi128, "plio">, memref<1xi128, "plio">, memref<1xi128, "plio">, memref<1xi128, "plio">, memref<1xi128, "plio">, memref<1xi128, "plio">, memref<1xi128, "plio">, memref<1xi128, "plio">, memref<1xi128, "plio">, memref<1xi128, "plio">, memref<1xi128, "plio">, memref<1xi128, "plio">, memref<1xi128, "plio">, memref<1xi128, "plio">, memref<1xi128, "plio">, memref<1xi128, "plio">, memref<1xi128, "plio">, memref<1xi128, "plio">, memref<1xi128, "plio">, memref<1xi128, "plio">, memref<1xi128, "plio">, memref<1xi128, "plio">, memref<1xi128, "plio">, memref<1xi128, "plio">, memref<1xi128, "plio">, memref<1xi128, "plio">, memref<1xi128, "plio">, memref<1xi128, "plio">, memref<1xi128, "plio">, memref<1xi128, "plio">, memref<1xi128, "plio">, memref<1xi128, "plio">, memref<1xi128, "plio">, memref<1xi128, "plio">, memref<1xi128, "plio">, memref<1xi128, "plio">, memref<1xi128, "plio">, memref<1xi128, "plio">, memref<1xi128, "plio">, memref<1xi128, "plio">, memref<1xi128, "plio">, memref<1xi128, "plio">, memref<1xi128, "plio">, memref<1xi128, "plio">, memref<1xi128, "plio">, memref<1xi128, "plio">, memref<1xi128, "plio">, memref<1xi128, "plio">, memref<1xi128, "plio">, memref<1xi128, "plio">, memref<1xi128, "plio">, memref<1xi128, "plio">, memref<1xi128, "plio">, memref<1xi128, "plio">, memref<1xi128, "plio">, memref<1xi128, "plio">, memref<1xi128, "plio">, memref<1xi128, "plio">, memref<1xi128, "plio">, memref<1xi128, "plio">, memref<1xi128, "plio">, memref<1xi128, "plio">, memref<1xi128, "plio">, memref<1xi128, "plio">, memref<1xi128, "plio">, memref<1xi128, "plio">, memref<1xi128, "plio">, memref<1xi128, "plio">, memref<1xi128, "plio">, memref<1xi128, "plio">, memref<1xi128, "plio">, memref<1xi128, "plio">, memref<1xi128, "plio">) -> ()
      adf.pl.launch.wait
    }
    return
  }
  func.func @top(%arg0: memref<4x1024x256xi512>, %arg1: memref<1024x32xi512>, %arg2: memref<4096x48xi512>, %arg3: memref<4x512x48xi512>, %arg4: memref<1xi128, "plio">, %arg5: memref<1xi128, "plio">, %arg6: memref<1xi128, "plio">, %arg7: memref<1xi128, "plio">, %arg8: memref<1xi128, "plio">, %arg9: memref<1xi128, "plio">, %arg10: memref<1xi128, "plio">, %arg11: memref<1xi128, "plio">, %arg12: memref<1xi128, "plio">, %arg13: memref<1xi128, "plio">, %arg14: memref<1xi128, "plio">, %arg15: memref<1xi128, "plio">, %arg16: memref<1xi128, "plio">, %arg17: memref<1xi128, "plio">, %arg18: memref<1xi128, "plio">, %arg19: memref<1xi128, "plio">, %arg20: memref<1xi128, "plio">, %arg21: memref<1xi128, "plio">, %arg22: memref<1xi128, "plio">, %arg23: memref<1xi128, "plio">, %arg24: memref<1xi128, "plio">, %arg25: memref<1xi128, "plio">, %arg26: memref<1xi128, "plio">, %arg27: memref<1xi128, "plio">, %arg28: memref<1xi128, "plio">, %arg29: memref<1xi128, "plio">, %arg30: memref<1xi128, "plio">, %arg31: memref<1xi128, "plio">, %arg32: memref<1xi128, "plio">, %arg33: memref<1xi128, "plio">, %arg34: memref<1xi128, "plio">, %arg35: memref<1xi128, "plio">, %arg36: memref<1xi128, "plio">, %arg37: memref<1xi128, "plio">, %arg38: memref<1xi128, "plio">, %arg39: memref<1xi128, "plio">, %arg40: memref<1xi128, "plio">, %arg41: memref<1xi128, "plio">, %arg42: memref<1xi128, "plio">, %arg43: memref<1xi128, "plio">, %arg44: memref<1xi128, "plio">, %arg45: memref<1xi128, "plio">, %arg46: memref<1xi128, "plio">, %arg47: memref<1xi128, "plio">, %arg48: memref<1xi128, "plio">, %arg49: memref<1xi128, "plio">, %arg50: memref<1xi128, "plio">, %arg51: memref<1xi128, "plio">, %arg52: memref<1xi128, "plio">, %arg53: memref<1xi128, "plio">, %arg54: memref<1xi128, "plio">, %arg55: memref<1xi128, "plio">, %arg56: memref<1xi128, "plio">, %arg57: memref<1xi128, "plio">, %arg58: memref<1xi128, "plio">, %arg59: memref<1xi128, "plio">, %arg60: memref<1xi128, "plio">, %arg61: memref<1xi128, "plio">, %arg62: memref<1xi128, "plio">, %arg63: memref<1xi128, "plio">, %arg64: memref<1xi128, "plio">, %arg65: memref<1xi128, "plio">, %arg66: memref<1xi128, "plio">, %arg67: memref<1xi128, "plio">, %arg68: memref<1xi128, "plio">, %arg69: memref<1xi128, "plio">, %arg70: memref<1xi128, "plio">, %arg71: memref<1xi128, "plio">, %arg72: memref<1xi128, "plio">, %arg73: memref<1xi128, "plio">, %arg74: memref<1xi128, "plio">, %arg75: memref<1xi128, "plio">, %arg76: memref<1xi128, "plio">, %arg77: memref<1xi128, "plio">, %arg78: memref<1xi128, "plio">, %arg79: memref<1xi128, "plio">, %arg80: memref<1xi128, "plio">, %arg81: memref<1xi128, "plio">, %arg82: memref<1xi128, "plio">, %arg83: memref<1xi128, "plio">, %arg84: memref<1xi128, "plio">, %arg85: memref<1xi128, "plio">, %arg86: memref<1xi128, "plio">, %arg87: memref<1xi128, "plio">, %arg88: memref<1xi128, "plio">, %arg89: memref<1xi128, "plio">, %arg90: memref<1xi128, "plio">, %arg91: memref<1xi128, "plio">, %arg92: memref<1xi128, "plio">, %arg93: memref<1xi128, "plio">, %arg94: memref<1xi128, "plio">, %arg95: memref<1xi128, "plio">, %arg96: memref<1xi128, "plio">, %arg97: memref<1xi128, "plio">, %arg98: memref<1xi128, "plio">, %arg99: memref<1xi128, "plio">, %arg100: memref<1xi128, "plio">, %arg101: memref<1xi128, "plio">, %arg102: memref<1xi128, "plio">, %arg103: memref<1xi128, "plio">, %arg104: memref<1xi128, "plio">, %arg105: memref<1xi128, "plio">, %arg106: memref<1xi128, "plio">, %arg107: memref<1xi128, "plio">, %arg108: memref<1xi128, "plio">, %arg109: memref<1xi128, "plio">, %arg110: memref<1xi128, "plio">, %arg111: memref<1xi128, "plio">, %arg112: memref<1xi128, "plio">, %arg113: memref<1xi128, "plio">, %arg114: memref<1xi128, "plio">, %arg115: memref<1xi128, "plio">, %arg116: memref<1xi128, "plio">, %arg117: memref<1xi128, "plio">, %arg118: memref<1xi128, "plio">, %arg119: memref<1xi128, "plio">, %arg120: memref<1xi128, "plio">, %arg121: memref<1xi128, "plio">, %arg122: memref<1xi128, "plio">, %arg123: memref<1xi128, "plio">, %arg124: memref<1xi128, "plio">, %arg125: memref<1xi128, "plio">, %arg126: memref<1xi128, "plio">, %arg127: memref<1xi128, "plio">, %arg128: memref<1xi128, "plio">, %arg129: memref<1xi128, "plio">, %arg130: memref<1xi128, "plio">, %arg131: memref<1xi128, "plio">, %arg132: memref<1xi128, "plio">, %arg133: memref<1xi128, "plio">) attributes {outArgs = [3 : i32], top_func = "plio"} {
    call @ttmc_pl(%arg0, %arg1, %arg2, %arg3, %arg4, %arg5, %arg6, %arg7, %arg8, %arg9, %arg10, %arg11, %arg12, %arg13, %arg14, %arg15, %arg16, %arg17, %arg18, %arg19, %arg20, %arg21, %arg22, %arg23, %arg24, %arg25, %arg26, %arg27, %arg28, %arg29, %arg30, %arg31, %arg32, %arg33, %arg34, %arg35, %arg36, %arg37, %arg38, %arg39, %arg40, %arg41, %arg42, %arg43, %arg44, %arg45, %arg46, %arg47, %arg48, %arg49, %arg50, %arg51, %arg52, %arg53, %arg54, %arg55, %arg56, %arg57, %arg58, %arg59, %arg60, %arg61, %arg62, %arg63, %arg64, %arg65, %arg66, %arg67, %arg68, %arg69, %arg70, %arg71, %arg72, %arg73, %arg74, %arg75, %arg76, %arg77, %arg78, %arg79, %arg80, %arg81, %arg82, %arg83, %arg84, %arg85, %arg86, %arg87, %arg88, %arg89, %arg90, %arg91, %arg92, %arg93, %arg94, %arg95, %arg96, %arg97, %arg98, %arg99, %arg100, %arg101, %arg102, %arg103, %arg104, %arg105, %arg106, %arg107, %arg108, %arg109, %arg110, %arg111, %arg112, %arg113, %arg114, %arg115, %arg116, %arg117, %arg118, %arg119, %arg120, %arg121, %arg122, %arg123, %arg124, %arg125, %arg126, %arg127, %arg128, %arg129, %arg130, %arg131, %arg132, %arg133) : (memref<4x1024x256xi512>, memref<1024x32xi512>, memref<4096x48xi512>, memref<4x512x48xi512>, memref<1xi128, "plio">, memref<1xi128, "plio">, memref<1xi128, "plio">, memref<1xi128, "plio">, memref<1xi128, "plio">, memref<1xi128, "plio">, memref<1xi128, "plio">, memref<1xi128, "plio">, memref<1xi128, "plio">, memref<1xi128, "plio">, memref<1xi128, "plio">, memref<1xi128, "plio">, memref<1xi128, "plio">, memref<1xi128, "plio">, memref<1xi128, "plio">, memref<1xi128, "plio">, memref<1xi128, "plio">, memref<1xi128, "plio">, memref<1xi128, "plio">, memref<1xi128, "plio">, memref<1xi128, "plio">, memref<1xi128, "plio">, memref<1xi128, "plio">, memref<1xi128, "plio">, memref<1xi128, "plio">, memref<1xi128, "plio">, memref<1xi128, "plio">, memref<1xi128, "plio">, memref<1xi128, "plio">, memref<1xi128, "plio">, memref<1xi128, "plio">, memref<1xi128, "plio">, memref<1xi128, "plio">, memref<1xi128, "plio">, memref<1xi128, "plio">, memref<1xi128, "plio">, memref<1xi128, "plio">, memref<1xi128, "plio">, memref<1xi128, "plio">, memref<1xi128, "plio">, memref<1xi128, "plio">, memref<1xi128, "plio">, memref<1xi128, "plio">, memref<1xi128, "plio">, memref<1xi128, "plio">, memref<1xi128, "plio">, memref<1xi128, "plio">, memref<1xi128, "plio">, memref<1xi128, "plio">, memref<1xi128, "plio">, memref<1xi128, "plio">, memref<1xi128, "plio">, memref<1xi128, "plio">, memref<1xi128, "plio">, memref<1xi128, "plio">, memref<1xi128, "plio">, memref<1xi128, "plio">, memref<1xi128, "plio">, memref<1xi128, "plio">, memref<1xi128, "plio">, memref<1xi128, "plio">, memref<1xi128, "plio">, memref<1xi128, "plio">, memref<1xi128, "plio">, memref<1xi128, "plio">, memref<1xi128, "plio">, memref<1xi128, "plio">, memref<1xi128, "plio">, memref<1xi128, "plio">, memref<1xi128, "plio">, memref<1xi128, "plio">, memref<1xi128, "plio">, memref<1xi128, "plio">, memref<1xi128, "plio">, memref<1xi128, "plio">, memref<1xi128, "plio">, memref<1xi128, "plio">, memref<1xi128, "plio">, memref<1xi128, "plio">, memref<1xi128, "plio">, memref<1xi128, "plio">, memref<1xi128, "plio">, memref<1xi128, "plio">, memref<1xi128, "plio">, memref<1xi128, "plio">, memref<1xi128, "plio">, memref<1xi128, "plio">, memref<1xi128, "plio">, memref<1xi128, "plio">, memref<1xi128, "plio">, memref<1xi128, "plio">, memref<1xi128, "plio">, memref<1xi128, "plio">, memref<1xi128, "plio">, memref<1xi128, "plio">, memref<1xi128, "plio">, memref<1xi128, "plio">, memref<1xi128, "plio">, memref<1xi128, "plio">, memref<1xi128, "plio">, memref<1xi128, "plio">, memref<1xi128, "plio">, memref<1xi128, "plio">, memref<1xi128, "plio">, memref<1xi128, "plio">, memref<1xi128, "plio">, memref<1xi128, "plio">, memref<1xi128, "plio">, memref<1xi128, "plio">, memref<1xi128, "plio">, memref<1xi128, "plio">, memref<1xi128, "plio">, memref<1xi128, "plio">, memref<1xi128, "plio">, memref<1xi128, "plio">, memref<1xi128, "plio">, memref<1xi128, "plio">, memref<1xi128, "plio">, memref<1xi128, "plio">, memref<1xi128, "plio">, memref<1xi128, "plio">, memref<1xi128, "plio">, memref<1xi128, "plio">, memref<1xi128, "plio">, memref<1xi128, "plio">, memref<1xi128, "plio">, memref<1xi128, "plio">, memref<1xi128, "plio">, memref<1xi128, "plio">, memref<1xi128, "plio">) -> ()
    return
  }
  func.func private @ttmc_host(memref<4x1024x4096xf32>, memref<1024x512xf32>, memref<4096x768xf32>, memref<4x512x768xf32>) attributes {origin_func = "ttmc"}
  func.func @top_host(%arg0: memref<4x1024x4096xf32>, %arg1: memref<1024x512xf32>, %arg2: memref<4096x768xf32>, %arg3: memref<4x512x768xf32>) attributes {origin_func = "top", outArgs = [3 : i32], top_host} {
    call @ttmc_host(%arg0, %arg1, %arg2, %arg3) {origin_func = "ttmc"} : (memref<4x1024x4096xf32>, memref<1024x512xf32>, memref<4096x768xf32>, memref<4x512x768xf32>) -> ()
    return
  }
}

