#map = affine_map<(d0) -> (d0 * 128 + 127)>
#map1 = affine_map<(d0) -> (d0 * 128)>
module {
  func.func @kernel_gemm0(%arg0: memref<32x32xf32, 2>, %arg1: memref<32x32xf32, 2>) -> memref<32x32xf32, 2> attributes {adf.kernel, edge_kernel} {
    %cst = arith.constant 0.000000e+00 : f32
    %alloc = memref.alloc() : memref<32x32xf32, 2>
    affine.for %arg2 = 0 to 32 {
      affine.for %arg3 = 0 to 32 {
        affine.store %cst, %alloc[%arg2, %arg3] : memref<32x32xf32, 2>
      }
    }
    affine.for %arg2 = 0 to 32 {
      affine.for %arg3 = 0 to 32 {
        affine.for %arg4 = 0 to 32 {
          %0 = affine.load %arg0[%arg2, %arg4] : memref<32x32xf32, 2>
          %1 = affine.load %arg1[%arg4, %arg3] : memref<32x32xf32, 2>
          %2 = arith.mulf %0, %1 : f32
          %3 = affine.load %alloc[%arg2, %arg3] : memref<32x32xf32, 2>
          %4 = arith.addf %3, %2 : f32
          affine.store %4, %alloc[%arg2, %arg3] : memref<32x32xf32, 2>
        }
      }
    }
    return %alloc : memref<32x32xf32, 2>
  }
  func.func @kernel_gemm(%arg0: memref<32x32xf32, 2>, %arg1: memref<32x32xf32, 2>, %arg2: memref<32x32xf32, 2>) -> memref<32x32xf32, 2> attributes {adf.kernel} {
    %alloc = memref.alloc() : memref<32x32xf32, 2>
    affine.for %arg3 = 0 to 32 {
      affine.for %arg4 = 0 to 32 {
        %0 = affine.load %arg2[%arg3, %arg4] : memref<32x32xf32, 2>
        affine.store %0, %alloc[%arg3, %arg4] : memref<32x32xf32, 2>
        affine.for %arg5 = 0 to 32 {
          %1 = affine.load %arg0[%arg3, %arg5] : memref<32x32xf32, 2>
          %2 = affine.load %arg1[%arg5, %arg4] : memref<32x32xf32, 2>
          %3 = arith.mulf %1, %2 : f32
          %4 = affine.load %alloc[%arg3, %arg4] : memref<32x32xf32, 2>
          %5 = arith.addf %4, %3 : f32
          affine.store %5, %alloc[%arg3, %arg4] : memref<32x32xf32, 2>
        }
      }
    }
    return %alloc : memref<32x32xf32, 2>
  }
  func.func @adf_cell0(%arg0: !adf.plio<In, 128>, %arg1: !adf.plio<In, 128>, %arg2: !adf.plio<In, 128>, %arg3: !adf.plio<In, 128>, %arg4: !adf.plio<In, 128>, %arg5: !adf.plio<In, 128>, %arg6: !adf.plio<In, 128>, %arg7: !adf.plio<In, 128>, %arg8: !adf.plio<Out, 128>, %arg9: !adf.plio<In, 128>, %arg10: !adf.plio<In, 128>, %arg11: !adf.plio<In, 128>, %arg12: !adf.plio<In, 128>, %arg13: !adf.plio<Out, 128>, %arg14: !adf.plio<In, 128>, %arg15: !adf.plio<In, 128>, %arg16: !adf.plio<In, 128>, %arg17: !adf.plio<In, 128>, %arg18: !adf.plio<Out, 128>, %arg19: !adf.plio<In, 128>, %arg20: !adf.plio<In, 128>, %arg21: !adf.plio<In, 128>, %arg22: !adf.plio<In, 128>, %arg23: !adf.plio<Out, 128>, %arg24: !adf.plio<In, 128>, %arg25: !adf.plio<In, 128>, %arg26: !adf.plio<In, 128>, %arg27: !adf.plio<In, 128>, %arg28: !adf.plio<Out, 128>, %arg29: !adf.plio<In, 128>, %arg30: !adf.plio<In, 128>, %arg31: !adf.plio<In, 128>, %arg32: !adf.plio<In, 128>, %arg33: !adf.plio<Out, 128>, %arg34: !adf.plio<In, 128>, %arg35: !adf.plio<In, 128>, %arg36: !adf.plio<In, 128>, %arg37: !adf.plio<In, 128>, %arg38: !adf.plio<Out, 128>, %arg39: !adf.plio<In, 128>, %arg40: !adf.plio<In, 128>, %arg41: !adf.plio<In, 128>, %arg42: !adf.plio<In, 128>, %arg43: !adf.plio<Out, 128>, %arg44: !adf.plio<In, 128>, %arg45: !adf.plio<In, 128>, %arg46: !adf.plio<In, 128>, %arg47: !adf.plio<In, 128>, %arg48: !adf.plio<Out, 128>, %arg49: !adf.plio<Out, 128>, %arg50: !adf.plio<Out, 128>, %arg51: !adf.plio<Out, 128>, %arg52: !adf.plio<Out, 128>, %arg53: !adf.plio<Out, 128>, %arg54: !adf.plio<Out, 128>, %arg55: !adf.plio<Out, 128>, %arg56: !adf.plio<In, 128>, %arg57: !adf.plio<In, 128>, %arg58: !adf.plio<In, 128>, %arg59: !adf.plio<In, 128>, %arg60: !adf.plio<Out, 128>, %arg61: !adf.plio<Out, 128>, %arg62: !adf.plio<Out, 128>, %arg63: !adf.plio<Out, 128>, %arg64: !adf.plio<Out, 128>, %arg65: !adf.plio<Out, 128>, %arg66: !adf.plio<Out, 128>, %arg67: !adf.plio<Out, 128>, %arg68: !adf.plio<In, 128>, %arg69: !adf.plio<In, 128>, %arg70: !adf.plio<In, 128>, %arg71: !adf.plio<In, 128>, %arg72: !adf.plio<Out, 128>, %arg73: !adf.plio<Out, 128>, %arg74: !adf.plio<Out, 128>, %arg75: !adf.plio<Out, 128>, %arg76: !adf.plio<Out, 128>, %arg77: !adf.plio<Out, 128>, %arg78: !adf.plio<Out, 128>, %arg79: !adf.plio<Out, 128>, %arg80: !adf.plio<In, 128>, %arg81: !adf.plio<In, 128>, %arg82: !adf.plio<In, 128>, %arg83: !adf.plio<In, 128>, %arg84: !adf.plio<Out, 128>, %arg85: !adf.plio<Out, 128>, %arg86: !adf.plio<Out, 128>, %arg87: !adf.plio<Out, 128>, %arg88: !adf.plio<Out, 128>, %arg89: !adf.plio<Out, 128>, %arg90: !adf.plio<Out, 128>, %arg91: !adf.plio<Out, 128>, %arg92: !adf.plio<In, 128>, %arg93: !adf.plio<In, 128>, %arg94: !adf.plio<In, 128>, %arg95: !adf.plio<In, 128>, %arg96: !adf.plio<Out, 128>, %arg97: !adf.plio<Out, 128>, %arg98: !adf.plio<Out, 128>, %arg99: !adf.plio<Out, 128>, %arg100: !adf.plio<Out, 128>, %arg101: !adf.plio<Out, 128>, %arg102: !adf.plio<Out, 128>, %arg103: !adf.plio<Out, 128>, %arg104: !adf.plio<In, 128>, %arg105: !adf.plio<In, 128>, %arg106: !adf.plio<In, 128>, %arg107: !adf.plio<In, 128>, %arg108: !adf.plio<Out, 128>, %arg109: !adf.plio<Out, 128>, %arg110: !adf.plio<Out, 128>, %arg111: !adf.plio<Out, 128>, %arg112: !adf.plio<Out, 128>, %arg113: !adf.plio<Out, 128>, %arg114: !adf.plio<Out, 128>, %arg115: !adf.plio<Out, 128>, %arg116: !adf.plio<In, 128>, %arg117: !adf.plio<In, 128>, %arg118: !adf.plio<In, 128>, %arg119: !adf.plio<In, 128>, %arg120: !adf.plio<Out, 128>, %arg121: !adf.plio<Out, 128>, %arg122: !adf.plio<Out, 128>, %arg123: !adf.plio<Out, 128>, %arg124: !adf.plio<Out, 128>, %arg125: !adf.plio<Out, 128>, %arg126: !adf.plio<Out, 128>, %arg127: !adf.plio<Out, 128>, %arg128: !adf.plio<In, 128>, %arg129: !adf.plio<In, 128>, %arg130: !adf.plio<In, 128>, %arg131: !adf.plio<In, 128>, %arg132: !adf.plio<Out, 128>, %arg133: !adf.plio<Out, 128>, %arg134: !adf.plio<Out, 128>, %arg135: !adf.plio<Out, 128>, %arg136: !adf.plio<Out, 128>, %arg137: !adf.plio<Out, 128>, %arg138: !adf.plio<Out, 128>, %arg139: !adf.plio<Out, 128>, %arg140: !adf.plio<In, 128>, %arg141: !adf.plio<In, 128>, %arg142: !adf.plio<In, 128>, %arg143: !adf.plio<In, 128>, %arg144: !adf.plio<Out, 128>, %arg145: !adf.plio<Out, 128>, %arg146: !adf.plio<Out, 128>, %arg147: !adf.plio<Out, 128>, %arg148: !adf.plio<Out, 128>, %arg149: !adf.plio<Out, 128>, %arg150: !adf.plio<Out, 128>, %arg151: !adf.plio<Out, 128>, %arg152: !adf.plio<In, 128>, %arg153: !adf.plio<In, 128>, %arg154: !adf.plio<In, 128>, %arg155: !adf.plio<In, 128>, %arg156: !adf.plio<Out, 128>, %arg157: !adf.plio<Out, 128>, %arg158: !adf.plio<Out, 128>, %arg159: !adf.plio<Out, 128>, %arg160: !adf.plio<Out, 128>, %arg161: !adf.plio<Out, 128>, %arg162: !adf.plio<Out, 128>, %arg163: !adf.plio<Out, 128>) attributes {adf.cell, tripCount = [4 : index, 8 : index, 11 : index]} {
    %c47 = arith.constant 47 : index
    %c46 = arith.constant 46 : index
    %c45 = arith.constant 45 : index
    %c44 = arith.constant 44 : index
    %c43 = arith.constant 43 : index
    %c42 = arith.constant 42 : index
    %c41 = arith.constant 41 : index
    %c40 = arith.constant 40 : index
    %c39 = arith.constant 39 : index
    %c38 = arith.constant 38 : index
    %c37 = arith.constant 37 : index
    %c36 = arith.constant 36 : index
    %c35 = arith.constant 35 : index
    %c34 = arith.constant 34 : index
    %c33 = arith.constant 33 : index
    %c32 = arith.constant 32 : index
    %c31 = arith.constant 31 : index
    %c30 = arith.constant 30 : index
    %c29 = arith.constant 29 : index
    %c28 = arith.constant 28 : index
    %c27 = arith.constant 27 : index
    %c26 = arith.constant 26 : index
    %c25 = arith.constant 25 : index
    %c24 = arith.constant 24 : index
    %c23 = arith.constant 23 : index
    %c22 = arith.constant 22 : index
    %c21 = arith.constant 21 : index
    %c20 = arith.constant 20 : index
    %c19 = arith.constant 19 : index
    %c18 = arith.constant 18 : index
    %c17 = arith.constant 17 : index
    %c16 = arith.constant 16 : index
    %c15 = arith.constant 15 : index
    %c14 = arith.constant 14 : index
    %c13 = arith.constant 13 : index
    %c12 = arith.constant 12 : index
    %c11 = arith.constant 11 : index
    %c10 = arith.constant 10 : index
    %c9 = arith.constant 9 : index
    %c8 = arith.constant 8 : index
    %c7 = arith.constant 7 : index
    %c12288 = arith.constant 12288 : index
    %c4096 = arith.constant 4096 : index
    %c6 = arith.constant 6 : index
    %c5 = arith.constant 5 : index
    %c24576 = arith.constant 24576 : index
    %c16384 = arith.constant 16384 : index
    %c4 = arith.constant 4 : index
    %c2 = arith.constant 2 : index
    %c8192 = arith.constant 8192 : index
    %c0 = arith.constant 0 : index
    %c1 = arith.constant 1 : index
    %c3 = arith.constant 3 : index
    adf.config.plio(%arg8, 250) {"col, chl" = [6 : index, 4 : index]} : <Out, 128>
    adf.config.plio(%arg13, 250) {"col, chl" = [6 : index, 2 : index]} : <Out, 128>
    adf.config.plio(%arg18, 250) {"col, chl" = [6 : index, 0 : index]} : <Out, 128>
    adf.config.plio(%arg23, 250) {"col, chl" = [7 : index, 4 : index]} : <Out, 128>
    adf.config.plio(%arg28, 250) {"col, chl" = [7 : index, 2 : index]} : <Out, 128>
    adf.config.plio(%arg33, 250) {"col, chl" = [7 : index, 0 : index]} : <Out, 128>
    adf.config.plio(%arg38, 250) {"col, chl" = [8 : index, 4 : index]} : <Out, 128>
    adf.config.plio(%arg0, 250) {"col, chl" = [6 : index, 4 : index]} : <In, 128>
    adf.config.plio(%arg2, 250) {"col, chl" = [6 : index, 2 : index]} : <In, 128>
    adf.config.plio(%arg4, 250) {"col, chl" = [6 : index, 0 : index]} : <In, 128>
    adf.config.plio(%arg6, 250) {"col, chl" = [7 : index, 4 : index]} : <In, 128>
    adf.config.plio(%arg43, 250) {"col, chl" = [8 : index, 2 : index]} : <Out, 128>
    adf.config.plio(%arg48, 250) {"col, chl" = [10 : index, 4 : index]} : <Out, 128>
    adf.config.plio(%arg49, 250) {"col, chl" = [10 : index, 2 : index]} : <Out, 128>
    adf.config.plio(%arg50, 250) {"col, chl" = [10 : index, 0 : index]} : <Out, 128>
    adf.config.plio(%arg51, 250) {"col, chl" = [9 : index, 4 : index]} : <Out, 128>
    adf.config.plio(%arg52, 250) {"col, chl" = [9 : index, 2 : index]} : <Out, 128>
    adf.config.plio(%arg53, 250) {"col, chl" = [9 : index, 0 : index]} : <Out, 128>
    adf.config.plio(%arg54, 250) {"col, chl" = [11 : index, 4 : index]} : <Out, 128>
    adf.config.plio(%arg44, 250) {"col, chl" = [7 : index, 2 : index]} : <In, 128>
    adf.config.plio(%arg45, 250) {"col, chl" = [8 : index, 4 : index]} : <In, 128>
    adf.config.plio(%arg46, 250) {"col, chl" = [9 : index, 4 : index]} : <In, 128>
    adf.config.plio(%arg47, 250) {"col, chl" = [10 : index, 4 : index]} : <In, 128>
    adf.config.plio(%arg55, 250) {"col, chl" = [11 : index, 2 : index]} : <Out, 128>
    adf.config.plio(%arg60, 250) {"col, chl" = [14 : index, 4 : index]} : <Out, 128>
    adf.config.plio(%arg61, 250) {"col, chl" = [14 : index, 2 : index]} : <Out, 128>
    adf.config.plio(%arg62, 250) {"col, chl" = [14 : index, 0 : index]} : <Out, 128>
    adf.config.plio(%arg63, 250) {"col, chl" = [13 : index, 4 : index]} : <Out, 128>
    adf.config.plio(%arg64, 250) {"col, chl" = [13 : index, 2 : index]} : <Out, 128>
    adf.config.plio(%arg65, 250) {"col, chl" = [13 : index, 0 : index]} : <Out, 128>
    adf.config.plio(%arg66, 250) {"col, chl" = [15 : index, 4 : index]} : <Out, 128>
    adf.config.plio(%arg56, 250) {"col, chl" = [11 : index, 4 : index]} : <In, 128>
    adf.config.plio(%arg57, 250) {"col, chl" = [12 : index, 4 : index]} : <In, 128>
    adf.config.plio(%arg58, 250) {"col, chl" = [13 : index, 4 : index]} : <In, 128>
    adf.config.plio(%arg59, 250) {"col, chl" = [14 : index, 4 : index]} : <In, 128>
    adf.config.plio(%arg67, 250) {"col, chl" = [15 : index, 2 : index]} : <Out, 128>
    adf.config.plio(%arg72, 250) {"col, chl" = [18 : index, 4 : index]} : <Out, 128>
    adf.config.plio(%arg73, 250) {"col, chl" = [18 : index, 2 : index]} : <Out, 128>
    adf.config.plio(%arg74, 250) {"col, chl" = [18 : index, 0 : index]} : <Out, 128>
    adf.config.plio(%arg75, 250) {"col, chl" = [17 : index, 4 : index]} : <Out, 128>
    adf.config.plio(%arg76, 250) {"col, chl" = [17 : index, 2 : index]} : <Out, 128>
    adf.config.plio(%arg77, 250) {"col, chl" = [17 : index, 0 : index]} : <Out, 128>
    adf.config.plio(%arg78, 250) {"col, chl" = [19 : index, 4 : index]} : <Out, 128>
    adf.config.plio(%arg68, 250) {"col, chl" = [15 : index, 4 : index]} : <In, 128>
    adf.config.plio(%arg69, 250) {"col, chl" = [16 : index, 4 : index]} : <In, 128>
    adf.config.plio(%arg70, 250) {"col, chl" = [17 : index, 4 : index]} : <In, 128>
    adf.config.plio(%arg71, 250) {"col, chl" = [18 : index, 4 : index]} : <In, 128>
    adf.config.plio(%arg79, 250) {"col, chl" = [19 : index, 2 : index]} : <Out, 128>
    adf.config.plio(%arg84, 250) {"col, chl" = [22 : index, 4 : index]} : <Out, 128>
    adf.config.plio(%arg85, 250) {"col, chl" = [22 : index, 2 : index]} : <Out, 128>
    adf.config.plio(%arg86, 250) {"col, chl" = [22 : index, 0 : index]} : <Out, 128>
    adf.config.plio(%arg87, 250) {"col, chl" = [21 : index, 4 : index]} : <Out, 128>
    adf.config.plio(%arg88, 250) {"col, chl" = [21 : index, 2 : index]} : <Out, 128>
    adf.config.plio(%arg89, 250) {"col, chl" = [21 : index, 0 : index]} : <Out, 128>
    adf.config.plio(%arg90, 250) {"col, chl" = [23 : index, 4 : index]} : <Out, 128>
    adf.config.plio(%arg80, 250) {"col, chl" = [19 : index, 4 : index]} : <In, 128>
    adf.config.plio(%arg81, 250) {"col, chl" = [20 : index, 4 : index]} : <In, 128>
    adf.config.plio(%arg82, 250) {"col, chl" = [21 : index, 4 : index]} : <In, 128>
    adf.config.plio(%arg83, 250) {"col, chl" = [22 : index, 4 : index]} : <In, 128>
    adf.config.plio(%arg91, 250) {"col, chl" = [23 : index, 2 : index]} : <Out, 128>
    adf.config.plio(%arg96, 250) {"col, chl" = [26 : index, 4 : index]} : <Out, 128>
    adf.config.plio(%arg97, 250) {"col, chl" = [26 : index, 2 : index]} : <Out, 128>
    adf.config.plio(%arg98, 250) {"col, chl" = [26 : index, 0 : index]} : <Out, 128>
    adf.config.plio(%arg99, 250) {"col, chl" = [25 : index, 4 : index]} : <Out, 128>
    adf.config.plio(%arg100, 250) {"col, chl" = [25 : index, 2 : index]} : <Out, 128>
    adf.config.plio(%arg101, 250) {"col, chl" = [25 : index, 0 : index]} : <Out, 128>
    adf.config.plio(%arg102, 250) {"col, chl" = [27 : index, 4 : index]} : <Out, 128>
    adf.config.plio(%arg92, 250) {"col, chl" = [23 : index, 4 : index]} : <In, 128>
    adf.config.plio(%arg93, 250) {"col, chl" = [24 : index, 4 : index]} : <In, 128>
    adf.config.plio(%arg94, 250) {"col, chl" = [25 : index, 4 : index]} : <In, 128>
    adf.config.plio(%arg95, 250) {"col, chl" = [26 : index, 4 : index]} : <In, 128>
    adf.config.plio(%arg103, 250) {"col, chl" = [27 : index, 2 : index]} : <Out, 128>
    adf.config.plio(%arg108, 250) {"col, chl" = [30 : index, 4 : index]} : <Out, 128>
    adf.config.plio(%arg109, 250) {"col, chl" = [30 : index, 2 : index]} : <Out, 128>
    adf.config.plio(%arg110, 250) {"col, chl" = [30 : index, 0 : index]} : <Out, 128>
    adf.config.plio(%arg111, 250) {"col, chl" = [29 : index, 4 : index]} : <Out, 128>
    adf.config.plio(%arg112, 250) {"col, chl" = [29 : index, 2 : index]} : <Out, 128>
    adf.config.plio(%arg113, 250) {"col, chl" = [29 : index, 0 : index]} : <Out, 128>
    adf.config.plio(%arg114, 250) {"col, chl" = [31 : index, 4 : index]} : <Out, 128>
    adf.config.plio(%arg104, 250) {"col, chl" = [27 : index, 4 : index]} : <In, 128>
    adf.config.plio(%arg105, 250) {"col, chl" = [28 : index, 4 : index]} : <In, 128>
    adf.config.plio(%arg106, 250) {"col, chl" = [29 : index, 4 : index]} : <In, 128>
    adf.config.plio(%arg107, 250) {"col, chl" = [30 : index, 4 : index]} : <In, 128>
    adf.config.plio(%arg115, 250) {"col, chl" = [31 : index, 2 : index]} : <Out, 128>
    adf.config.plio(%arg120, 250) {"col, chl" = [34 : index, 4 : index]} : <Out, 128>
    adf.config.plio(%arg121, 250) {"col, chl" = [34 : index, 2 : index]} : <Out, 128>
    adf.config.plio(%arg122, 250) {"col, chl" = [34 : index, 0 : index]} : <Out, 128>
    adf.config.plio(%arg123, 250) {"col, chl" = [33 : index, 4 : index]} : <Out, 128>
    adf.config.plio(%arg124, 250) {"col, chl" = [33 : index, 2 : index]} : <Out, 128>
    adf.config.plio(%arg125, 250) {"col, chl" = [33 : index, 0 : index]} : <Out, 128>
    adf.config.plio(%arg126, 250) {"col, chl" = [35 : index, 4 : index]} : <Out, 128>
    adf.config.plio(%arg116, 250) {"col, chl" = [31 : index, 4 : index]} : <In, 128>
    adf.config.plio(%arg117, 250) {"col, chl" = [32 : index, 4 : index]} : <In, 128>
    adf.config.plio(%arg118, 250) {"col, chl" = [33 : index, 4 : index]} : <In, 128>
    adf.config.plio(%arg119, 250) {"col, chl" = [34 : index, 4 : index]} : <In, 128>
    adf.config.plio(%arg127, 250) {"col, chl" = [35 : index, 2 : index]} : <Out, 128>
    adf.config.plio(%arg132, 250) {"col, chl" = [38 : index, 4 : index]} : <Out, 128>
    adf.config.plio(%arg133, 250) {"col, chl" = [38 : index, 2 : index]} : <Out, 128>
    adf.config.plio(%arg134, 250) {"col, chl" = [38 : index, 0 : index]} : <Out, 128>
    adf.config.plio(%arg135, 250) {"col, chl" = [37 : index, 4 : index]} : <Out, 128>
    adf.config.plio(%arg136, 250) {"col, chl" = [37 : index, 2 : index]} : <Out, 128>
    adf.config.plio(%arg137, 250) {"col, chl" = [37 : index, 0 : index]} : <Out, 128>
    adf.config.plio(%arg138, 250) {"col, chl" = [39 : index, 4 : index]} : <Out, 128>
    adf.config.plio(%arg128, 250) {"col, chl" = [35 : index, 4 : index]} : <In, 128>
    adf.config.plio(%arg129, 250) {"col, chl" = [36 : index, 4 : index]} : <In, 128>
    adf.config.plio(%arg130, 250) {"col, chl" = [37 : index, 4 : index]} : <In, 128>
    adf.config.plio(%arg131, 250) {"col, chl" = [38 : index, 4 : index]} : <In, 128>
    adf.config.plio(%arg139, 250) {"col, chl" = [39 : index, 2 : index]} : <Out, 128>
    adf.config.plio(%arg144, 250) {"col, chl" = [42 : index, 4 : index]} : <Out, 128>
    adf.config.plio(%arg145, 250) {"col, chl" = [42 : index, 2 : index]} : <Out, 128>
    adf.config.plio(%arg146, 250) {"col, chl" = [42 : index, 0 : index]} : <Out, 128>
    adf.config.plio(%arg147, 250) {"col, chl" = [41 : index, 4 : index]} : <Out, 128>
    adf.config.plio(%arg148, 250) {"col, chl" = [41 : index, 2 : index]} : <Out, 128>
    adf.config.plio(%arg149, 250) {"col, chl" = [41 : index, 0 : index]} : <Out, 128>
    adf.config.plio(%arg150, 250) {"col, chl" = [43 : index, 4 : index]} : <Out, 128>
    adf.config.plio(%arg140, 250) {"col, chl" = [39 : index, 4 : index]} : <In, 128>
    adf.config.plio(%arg141, 250) {"col, chl" = [40 : index, 4 : index]} : <In, 128>
    adf.config.plio(%arg142, 250) {"col, chl" = [41 : index, 4 : index]} : <In, 128>
    adf.config.plio(%arg143, 250) {"col, chl" = [42 : index, 4 : index]} : <In, 128>
    adf.config.plio(%arg151, 250) {"col, chl" = [43 : index, 2 : index]} : <Out, 128>
    adf.config.plio(%arg1, 250) {"col, chl" = [23 : index, 2 : index]} : <In, 128>
    adf.config.plio(%arg3, 250) {"col, chl" = [24 : index, 2 : index]} : <In, 128>
    adf.config.plio(%arg5, 250) {"col, chl" = [25 : index, 2 : index]} : <In, 128>
    adf.config.plio(%arg7, 250) {"col, chl" = [26 : index, 2 : index]} : <In, 128>
    adf.config.plio(%arg156, 250) {"col, chl" = [44 : index, 4 : index]} : <Out, 128>
    adf.config.plio(%arg9, 250) {"col, chl" = [23 : index, 0 : index]} : <In, 128>
    adf.config.plio(%arg10, 250) {"col, chl" = [24 : index, 0 : index]} : <In, 128>
    adf.config.plio(%arg11, 250) {"col, chl" = [25 : index, 0 : index]} : <In, 128>
    adf.config.plio(%arg12, 250) {"col, chl" = [26 : index, 0 : index]} : <In, 128>
    adf.config.plio(%arg157, 250) {"col, chl" = [44 : index, 2 : index]} : <Out, 128>
    adf.config.plio(%arg14, 250) {"col, chl" = [22 : index, 2 : index]} : <In, 128>
    adf.config.plio(%arg15, 250) {"col, chl" = [22 : index, 0 : index]} : <In, 128>
    adf.config.plio(%arg16, 250) {"col, chl" = [27 : index, 2 : index]} : <In, 128>
    adf.config.plio(%arg17, 250) {"col, chl" = [27 : index, 0 : index]} : <In, 128>
    adf.config.plio(%arg158, 250) {"col, chl" = [44 : index, 0 : index]} : <Out, 128>
    adf.config.plio(%arg19, 250) {"col, chl" = [21 : index, 2 : index]} : <In, 128>
    adf.config.plio(%arg20, 250) {"col, chl" = [21 : index, 0 : index]} : <In, 128>
    adf.config.plio(%arg21, 250) {"col, chl" = [28 : index, 2 : index]} : <In, 128>
    adf.config.plio(%arg22, 250) {"col, chl" = [28 : index, 0 : index]} : <In, 128>
    adf.config.plio(%arg159, 250) {"col, chl" = [43 : index, 0 : index]} : <Out, 128>
    adf.config.plio(%arg24, 250) {"col, chl" = [20 : index, 2 : index]} : <In, 128>
    adf.config.plio(%arg25, 250) {"col, chl" = [20 : index, 0 : index]} : <In, 128>
    adf.config.plio(%arg26, 250) {"col, chl" = [29 : index, 2 : index]} : <In, 128>
    adf.config.plio(%arg27, 250) {"col, chl" = [29 : index, 0 : index]} : <In, 128>
    adf.config.plio(%arg160, 250) {"col, chl" = [40 : index, 4 : index]} : <Out, 128>
    adf.config.plio(%arg29, 250) {"col, chl" = [19 : index, 2 : index]} : <In, 128>
    adf.config.plio(%arg30, 250) {"col, chl" = [19 : index, 0 : index]} : <In, 128>
    adf.config.plio(%arg31, 250) {"col, chl" = [30 : index, 2 : index]} : <In, 128>
    adf.config.plio(%arg32, 250) {"col, chl" = [30 : index, 0 : index]} : <In, 128>
    adf.config.plio(%arg161, 250) {"col, chl" = [40 : index, 2 : index]} : <Out, 128>
    adf.config.plio(%arg34, 250) {"col, chl" = [18 : index, 2 : index]} : <In, 128>
    adf.config.plio(%arg35, 250) {"col, chl" = [18 : index, 0 : index]} : <In, 128>
    adf.config.plio(%arg36, 250) {"col, chl" = [31 : index, 2 : index]} : <In, 128>
    adf.config.plio(%arg37, 250) {"col, chl" = [31 : index, 0 : index]} : <In, 128>
    adf.config.plio(%arg162, 250) {"col, chl" = [40 : index, 0 : index]} : <Out, 128>
    adf.config.plio(%arg152, 250) {"col, chl" = [43 : index, 4 : index]} : <In, 128>
    adf.config.plio(%arg39, 250) {"col, chl" = [17 : index, 2 : index]} : <In, 128>
    adf.config.plio(%arg153, 250) {"col, chl" = [44 : index, 4 : index]} : <In, 128>
    adf.config.plio(%arg40, 250) {"col, chl" = [17 : index, 0 : index]} : <In, 128>
    adf.config.plio(%arg154, 250) {"col, chl" = [44 : index, 2 : index]} : <In, 128>
    adf.config.plio(%arg41, 250) {"col, chl" = [32 : index, 2 : index]} : <In, 128>
    adf.config.plio(%arg155, 250) {"col, chl" = [44 : index, 0 : index]} : <In, 128>
    adf.config.plio(%arg42, 250) {"col, chl" = [32 : index, 0 : index]} : <In, 128>
    adf.config.plio(%arg163, 250) {"col, chl" = [39 : index, 0 : index]} : <Out, 128>
    %0 = adf.buffer.create @L1_L1_A() : memref<32x32xf32, 2>
    %1 = adf.buffer.create @L1_L1_B() : memref<32x32xf32, 2>
    adf.connect(%arg0, %0) : (!adf.plio<In, 128>, memref<32x32xf32, 2>)
    adf.connect(%arg1, %1) : (!adf.plio<In, 128>, memref<32x32xf32, 2>)
    %2 = call @kernel_gemm0(%0, %1) {adf.kernel, "col, row" = [3 : index, 0 : index], ivs = [0 : index, 0 : index, 0 : index], kernel = 0 : index, kernel_gemm0 = 0 : index} : (memref<32x32xf32, 2>, memref<32x32xf32, 2>) -> memref<32x32xf32, 2>
    adf.buffer.location(%2, %c3, %c0, %c0, %c8192) : (memref<32x32xf32, 2>, index, index, index, index)
    adf.buffer.location(%1, %c2, %c0, %c0, %c8192) : (memref<32x32xf32, 2>, index, index, index, index)
    adf.buffer.location(%0, %c3, %c1, %c0, %c8192) : (memref<32x32xf32, 2>, index, index, index, index)
    %3 = adf.buffer.create @L1_L1_A_1() : memref<32x32xf32, 2>
    %4 = adf.buffer.create @L1_L1_B_1() : memref<32x32xf32, 2>
    %5 = adf.buffer.create @L1_L1_C_1() : memref<32x32xf32, 2>
    adf.connect(%arg2, %3) : (!adf.plio<In, 128>, memref<32x32xf32, 2>)
    adf.connect(%arg3, %4) : (!adf.plio<In, 128>, memref<32x32xf32, 2>)
    adf.connect(%2, %5) : (memref<32x32xf32, 2>, memref<32x32xf32, 2>)
    %6 = call @kernel_gemm(%3, %4, %5) {adf.kernel, "col, row" = [4 : index, 0 : index], ivs = [1 : index, 0 : index, 0 : index], kernel_gemm = 1 : index} : (memref<32x32xf32, 2>, memref<32x32xf32, 2>, memref<32x32xf32, 2>) -> memref<32x32xf32, 2>
    adf.buffer.location(%6, %c4, %c0, %c0, %c8192) : (memref<32x32xf32, 2>, index, index, index, index)
    adf.buffer.location(%4, %c3, %c0, %c16384, %c24576) : (memref<32x32xf32, 2>, index, index, index, index)
    adf.buffer.location(%3, %c4, %c1, %c0, %c8192) : (memref<32x32xf32, 2>, index, index, index, index)
    %7 = adf.buffer.create @L1_L1_A_2() : memref<32x32xf32, 2>
    %8 = adf.buffer.create @L1_L1_B_2() : memref<32x32xf32, 2>
    %9 = adf.buffer.create @L1_L1_C_2() : memref<32x32xf32, 2>
    adf.connect(%arg4, %7) : (!adf.plio<In, 128>, memref<32x32xf32, 2>)
    adf.connect(%arg5, %8) : (!adf.plio<In, 128>, memref<32x32xf32, 2>)
    adf.connect(%6, %9) : (memref<32x32xf32, 2>, memref<32x32xf32, 2>)
    %10 = call @kernel_gemm(%7, %8, %9) {adf.kernel, "col, row" = [5 : index, 0 : index], ivs = [2 : index, 0 : index, 0 : index], kernel_gemm = 2 : index} : (memref<32x32xf32, 2>, memref<32x32xf32, 2>, memref<32x32xf32, 2>) -> memref<32x32xf32, 2>
    adf.buffer.location(%10, %c5, %c0, %c0, %c8192) : (memref<32x32xf32, 2>, index, index, index, index)
    adf.buffer.location(%8, %c4, %c0, %c16384, %c24576) : (memref<32x32xf32, 2>, index, index, index, index)
    adf.buffer.location(%7, %c5, %c1, %c0, %c8192) : (memref<32x32xf32, 2>, index, index, index, index)
    %11 = adf.buffer.create @L1_L1_A_3() : memref<32x32xf32, 2>
    %12 = adf.buffer.create @L1_L1_B_3() : memref<32x32xf32, 2>
    %13 = adf.buffer.create @L1_L1_C_3() : memref<32x32xf32, 2>
    adf.connect(%arg6, %11) : (!adf.plio<In, 128>, memref<32x32xf32, 2>)
    adf.connect(%arg7, %12) : (!adf.plio<In, 128>, memref<32x32xf32, 2>)
    adf.connect(%10, %13) : (memref<32x32xf32, 2>, memref<32x32xf32, 2>)
    %14 = call @kernel_gemm(%11, %12, %13) {adf.kernel, "col, row" = [6 : index, 0 : index], ivs = [3 : index, 0 : index, 0 : index], kernel_gemm = 3 : index} : (memref<32x32xf32, 2>, memref<32x32xf32, 2>, memref<32x32xf32, 2>) -> memref<32x32xf32, 2>
    adf.buffer.location(%14, %c6, %c0, %c0, %c8192) : (memref<32x32xf32, 2>, index, index, index, index)
    adf.buffer.location(%12, %c5, %c0, %c16384, %c24576) : (memref<32x32xf32, 2>, index, index, index, index)
    adf.buffer.location(%11, %c6, %c1, %c0, %c8192) : (memref<32x32xf32, 2>, index, index, index, index)
    adf.connect(%14, %arg8) {write = 3 : index} : (memref<32x32xf32, 2>, !adf.plio<Out, 128>)
    %15 = adf.buffer.create @L1_L1_A_4() : memref<32x32xf32, 2>
    %16 = adf.buffer.create @L1_L1_B_4() : memref<32x32xf32, 2>
    adf.connect(%arg0, %15) : (!adf.plio<In, 128>, memref<32x32xf32, 2>)
    adf.connect(%arg9, %16) : (!adf.plio<In, 128>, memref<32x32xf32, 2>)
    %17 = call @kernel_gemm0(%15, %16) {adf.kernel, "col, row" = [3 : index, 1 : index], ivs = [0 : index, 1 : index, 0 : index], kernel = 0 : index, kernel_gemm0 = 4 : index} : (memref<32x32xf32, 2>, memref<32x32xf32, 2>) -> memref<32x32xf32, 2>
    adf.buffer.location(%17, %c4, %c1, %c16384, %c24576) : (memref<32x32xf32, 2>, index, index, index, index)
    adf.buffer.location(%16, %c3, %c2, %c0, %c8192) : (memref<32x32xf32, 2>, index, index, index, index)
    adf.buffer.location(%15, %c3, %c0, %c4096, %c12288) : (memref<32x32xf32, 2>, index, index, index, index)
    %18 = adf.buffer.create @L1_L1_A_5() : memref<32x32xf32, 2>
    %19 = adf.buffer.create @L1_L1_B_5() : memref<32x32xf32, 2>
    %20 = adf.buffer.create @L1_L1_C_5() : memref<32x32xf32, 2>
    adf.connect(%arg2, %18) : (!adf.plio<In, 128>, memref<32x32xf32, 2>)
    adf.connect(%arg10, %19) : (!adf.plio<In, 128>, memref<32x32xf32, 2>)
    adf.connect(%17, %20) : (memref<32x32xf32, 2>, memref<32x32xf32, 2>)
    %21 = call @kernel_gemm(%18, %19, %20) {adf.kernel, "col, row" = [4 : index, 1 : index], ivs = [1 : index, 1 : index, 0 : index], kernel_gemm = 5 : index} : (memref<32x32xf32, 2>, memref<32x32xf32, 2>, memref<32x32xf32, 2>) -> memref<32x32xf32, 2>
    adf.buffer.location(%21, %c5, %c1, %c16384, %c24576) : (memref<32x32xf32, 2>, index, index, index, index)
    adf.buffer.location(%19, %c4, %c2, %c0, %c8192) : (memref<32x32xf32, 2>, index, index, index, index)
    adf.buffer.location(%18, %c4, %c0, %c4096, %c12288) : (memref<32x32xf32, 2>, index, index, index, index)
    %22 = adf.buffer.create @L1_L1_A_6() : memref<32x32xf32, 2>
    %23 = adf.buffer.create @L1_L1_B_6() : memref<32x32xf32, 2>
    %24 = adf.buffer.create @L1_L1_C_6() : memref<32x32xf32, 2>
    adf.connect(%arg4, %22) : (!adf.plio<In, 128>, memref<32x32xf32, 2>)
    adf.connect(%arg11, %23) : (!adf.plio<In, 128>, memref<32x32xf32, 2>)
    adf.connect(%21, %24) : (memref<32x32xf32, 2>, memref<32x32xf32, 2>)
    %25 = call @kernel_gemm(%22, %23, %24) {adf.kernel, "col, row" = [5 : index, 1 : index], ivs = [2 : index, 1 : index, 0 : index], kernel_gemm = 6 : index} : (memref<32x32xf32, 2>, memref<32x32xf32, 2>, memref<32x32xf32, 2>) -> memref<32x32xf32, 2>
    adf.buffer.location(%25, %c6, %c1, %c16384, %c24576) : (memref<32x32xf32, 2>, index, index, index, index)
    adf.buffer.location(%23, %c5, %c2, %c0, %c8192) : (memref<32x32xf32, 2>, index, index, index, index)
    adf.buffer.location(%22, %c5, %c0, %c4096, %c12288) : (memref<32x32xf32, 2>, index, index, index, index)
    %26 = adf.buffer.create @L1_L1_A_7() : memref<32x32xf32, 2>
    %27 = adf.buffer.create @L1_L1_B_7() : memref<32x32xf32, 2>
    %28 = adf.buffer.create @L1_L1_C_7() : memref<32x32xf32, 2>
    adf.connect(%arg6, %26) : (!adf.plio<In, 128>, memref<32x32xf32, 2>)
    adf.connect(%arg12, %27) : (!adf.plio<In, 128>, memref<32x32xf32, 2>)
    adf.connect(%25, %28) : (memref<32x32xf32, 2>, memref<32x32xf32, 2>)
    %29 = call @kernel_gemm(%26, %27, %28) {adf.kernel, "col, row" = [6 : index, 1 : index], ivs = [3 : index, 1 : index, 0 : index], kernel_gemm = 7 : index} : (memref<32x32xf32, 2>, memref<32x32xf32, 2>, memref<32x32xf32, 2>) -> memref<32x32xf32, 2>
    adf.buffer.location(%29, %c7, %c1, %c0, %c8192) : (memref<32x32xf32, 2>, index, index, index, index)
    adf.buffer.location(%27, %c6, %c2, %c0, %c8192) : (memref<32x32xf32, 2>, index, index, index, index)
    adf.buffer.location(%26, %c6, %c0, %c16384, %c24576) : (memref<32x32xf32, 2>, index, index, index, index)
    adf.connect(%29, %arg13) {write = 3 : index} : (memref<32x32xf32, 2>, !adf.plio<Out, 128>)
    %30 = adf.buffer.create @L1_L1_A_8() : memref<32x32xf32, 2>
    %31 = adf.buffer.create @L1_L1_B_8() : memref<32x32xf32, 2>
    adf.connect(%arg0, %30) : (!adf.plio<In, 128>, memref<32x32xf32, 2>)
    adf.connect(%arg14, %31) : (!adf.plio<In, 128>, memref<32x32xf32, 2>)
    %32 = call @kernel_gemm0(%30, %31) {adf.kernel, "col, row" = [3 : index, 2 : index], ivs = [0 : index, 2 : index, 0 : index], kernel = 0 : index, kernel_gemm0 = 8 : index} : (memref<32x32xf32, 2>, memref<32x32xf32, 2>) -> memref<32x32xf32, 2>
    adf.buffer.location(%32, %c3, %c2, %c16384, %c24576) : (memref<32x32xf32, 2>, index, index, index, index)
    adf.buffer.location(%31, %c3, %c3, %c0, %c8192) : (memref<32x32xf32, 2>, index, index, index, index)
    adf.buffer.location(%30, %c3, %c1, %c16384, %c24576) : (memref<32x32xf32, 2>, index, index, index, index)
    %33 = adf.buffer.create @L1_L1_A_9() : memref<32x32xf32, 2>
    %34 = adf.buffer.create @L1_L1_B_9() : memref<32x32xf32, 2>
    %35 = adf.buffer.create @L1_L1_C_9() : memref<32x32xf32, 2>
    adf.connect(%arg2, %33) : (!adf.plio<In, 128>, memref<32x32xf32, 2>)
    adf.connect(%arg15, %34) : (!adf.plio<In, 128>, memref<32x32xf32, 2>)
    adf.connect(%32, %35) : (memref<32x32xf32, 2>, memref<32x32xf32, 2>)
    %36 = call @kernel_gemm(%33, %34, %35) {adf.kernel, "col, row" = [4 : index, 2 : index], ivs = [1 : index, 2 : index, 0 : index], kernel_gemm = 9 : index} : (memref<32x32xf32, 2>, memref<32x32xf32, 2>, memref<32x32xf32, 2>) -> memref<32x32xf32, 2>
    adf.buffer.location(%36, %c4, %c2, %c16384, %c24576) : (memref<32x32xf32, 2>, index, index, index, index)
    adf.buffer.location(%34, %c4, %c3, %c0, %c8192) : (memref<32x32xf32, 2>, index, index, index, index)
    adf.buffer.location(%33, %c4, %c1, %c4096, %c12288) : (memref<32x32xf32, 2>, index, index, index, index)
    %37 = adf.buffer.create @L1_L1_A_10() : memref<32x32xf32, 2>
    %38 = adf.buffer.create @L1_L1_B_10() : memref<32x32xf32, 2>
    %39 = adf.buffer.create @L1_L1_C_10() : memref<32x32xf32, 2>
    adf.connect(%arg4, %37) : (!adf.plio<In, 128>, memref<32x32xf32, 2>)
    adf.connect(%arg16, %38) : (!adf.plio<In, 128>, memref<32x32xf32, 2>)
    adf.connect(%36, %39) : (memref<32x32xf32, 2>, memref<32x32xf32, 2>)
    %40 = call @kernel_gemm(%37, %38, %39) {adf.kernel, "col, row" = [5 : index, 2 : index], ivs = [2 : index, 2 : index, 0 : index], kernel_gemm = 10 : index} : (memref<32x32xf32, 2>, memref<32x32xf32, 2>, memref<32x32xf32, 2>) -> memref<32x32xf32, 2>
    adf.buffer.location(%40, %c5, %c2, %c16384, %c24576) : (memref<32x32xf32, 2>, index, index, index, index)
    adf.buffer.location(%38, %c5, %c3, %c0, %c8192) : (memref<32x32xf32, 2>, index, index, index, index)
    adf.buffer.location(%37, %c5, %c1, %c4096, %c12288) : (memref<32x32xf32, 2>, index, index, index, index)
    %41 = adf.buffer.create @L1_L1_A_11() : memref<32x32xf32, 2>
    %42 = adf.buffer.create @L1_L1_B_11() : memref<32x32xf32, 2>
    %43 = adf.buffer.create @L1_L1_C_11() : memref<32x32xf32, 2>
    adf.connect(%arg6, %41) : (!adf.plio<In, 128>, memref<32x32xf32, 2>)
    adf.connect(%arg17, %42) : (!adf.plio<In, 128>, memref<32x32xf32, 2>)
    adf.connect(%40, %43) : (memref<32x32xf32, 2>, memref<32x32xf32, 2>)
    %44 = call @kernel_gemm(%41, %42, %43) {adf.kernel, "col, row" = [6 : index, 2 : index], ivs = [3 : index, 2 : index, 0 : index], kernel_gemm = 11 : index} : (memref<32x32xf32, 2>, memref<32x32xf32, 2>, memref<32x32xf32, 2>) -> memref<32x32xf32, 2>
    adf.buffer.location(%44, %c6, %c2, %c16384, %c24576) : (memref<32x32xf32, 2>, index, index, index, index)
    adf.buffer.location(%42, %c6, %c3, %c0, %c8192) : (memref<32x32xf32, 2>, index, index, index, index)
    adf.buffer.location(%41, %c6, %c1, %c4096, %c12288) : (memref<32x32xf32, 2>, index, index, index, index)
    adf.connect(%44, %arg18) {write = 3 : index} : (memref<32x32xf32, 2>, !adf.plio<Out, 128>)
    %45 = adf.buffer.create @L1_L1_A_12() : memref<32x32xf32, 2>
    %46 = adf.buffer.create @L1_L1_B_12() : memref<32x32xf32, 2>
    adf.connect(%arg0, %45) : (!adf.plio<In, 128>, memref<32x32xf32, 2>)
    adf.connect(%arg19, %46) : (!adf.plio<In, 128>, memref<32x32xf32, 2>)
    %47 = call @kernel_gemm0(%45, %46) {adf.kernel, "col, row" = [3 : index, 3 : index], ivs = [0 : index, 3 : index, 0 : index], kernel = 0 : index, kernel_gemm0 = 12 : index} : (memref<32x32xf32, 2>, memref<32x32xf32, 2>) -> memref<32x32xf32, 2>
    adf.buffer.location(%47, %c4, %c3, %c16384, %c24576) : (memref<32x32xf32, 2>, index, index, index, index)
    adf.buffer.location(%46, %c3, %c4, %c0, %c8192) : (memref<32x32xf32, 2>, index, index, index, index)
    adf.buffer.location(%45, %c3, %c2, %c4096, %c12288) : (memref<32x32xf32, 2>, index, index, index, index)
    %48 = adf.buffer.create @L1_L1_A_13() : memref<32x32xf32, 2>
    %49 = adf.buffer.create @L1_L1_B_13() : memref<32x32xf32, 2>
    %50 = adf.buffer.create @L1_L1_C_13() : memref<32x32xf32, 2>
    adf.connect(%arg2, %48) : (!adf.plio<In, 128>, memref<32x32xf32, 2>)
    adf.connect(%arg20, %49) : (!adf.plio<In, 128>, memref<32x32xf32, 2>)
    adf.connect(%47, %50) : (memref<32x32xf32, 2>, memref<32x32xf32, 2>)
    %51 = call @kernel_gemm(%48, %49, %50) {adf.kernel, "col, row" = [4 : index, 3 : index], ivs = [1 : index, 3 : index, 0 : index], kernel_gemm = 13 : index} : (memref<32x32xf32, 2>, memref<32x32xf32, 2>, memref<32x32xf32, 2>) -> memref<32x32xf32, 2>
    adf.buffer.location(%51, %c5, %c3, %c16384, %c24576) : (memref<32x32xf32, 2>, index, index, index, index)
    adf.buffer.location(%49, %c4, %c4, %c0, %c8192) : (memref<32x32xf32, 2>, index, index, index, index)
    adf.buffer.location(%48, %c4, %c2, %c4096, %c12288) : (memref<32x32xf32, 2>, index, index, index, index)
    %52 = adf.buffer.create @L1_L1_A_14() : memref<32x32xf32, 2>
    %53 = adf.buffer.create @L1_L1_B_14() : memref<32x32xf32, 2>
    %54 = adf.buffer.create @L1_L1_C_14() : memref<32x32xf32, 2>
    adf.connect(%arg4, %52) : (!adf.plio<In, 128>, memref<32x32xf32, 2>)
    adf.connect(%arg21, %53) : (!adf.plio<In, 128>, memref<32x32xf32, 2>)
    adf.connect(%51, %54) : (memref<32x32xf32, 2>, memref<32x32xf32, 2>)
    %55 = call @kernel_gemm(%52, %53, %54) {adf.kernel, "col, row" = [5 : index, 3 : index], ivs = [2 : index, 3 : index, 0 : index], kernel_gemm = 14 : index} : (memref<32x32xf32, 2>, memref<32x32xf32, 2>, memref<32x32xf32, 2>) -> memref<32x32xf32, 2>
    adf.buffer.location(%55, %c6, %c3, %c16384, %c24576) : (memref<32x32xf32, 2>, index, index, index, index)
    adf.buffer.location(%53, %c5, %c4, %c0, %c8192) : (memref<32x32xf32, 2>, index, index, index, index)
    adf.buffer.location(%52, %c5, %c2, %c4096, %c12288) : (memref<32x32xf32, 2>, index, index, index, index)
    %56 = adf.buffer.create @L1_L1_A_15() : memref<32x32xf32, 2>
    %57 = adf.buffer.create @L1_L1_B_15() : memref<32x32xf32, 2>
    %58 = adf.buffer.create @L1_L1_C_15() : memref<32x32xf32, 2>
    adf.connect(%arg6, %56) : (!adf.plio<In, 128>, memref<32x32xf32, 2>)
    adf.connect(%arg22, %57) : (!adf.plio<In, 128>, memref<32x32xf32, 2>)
    adf.connect(%55, %58) : (memref<32x32xf32, 2>, memref<32x32xf32, 2>)
    %59 = call @kernel_gemm(%56, %57, %58) {adf.kernel, "col, row" = [6 : index, 3 : index], ivs = [3 : index, 3 : index, 0 : index], kernel_gemm = 15 : index} : (memref<32x32xf32, 2>, memref<32x32xf32, 2>, memref<32x32xf32, 2>) -> memref<32x32xf32, 2>
    adf.buffer.location(%59, %c7, %c3, %c0, %c8192) : (memref<32x32xf32, 2>, index, index, index, index)
    adf.buffer.location(%57, %c6, %c4, %c0, %c8192) : (memref<32x32xf32, 2>, index, index, index, index)
    adf.buffer.location(%56, %c6, %c2, %c4096, %c12288) : (memref<32x32xf32, 2>, index, index, index, index)
    adf.connect(%59, %arg23) {write = 3 : index} : (memref<32x32xf32, 2>, !adf.plio<Out, 128>)
    %60 = adf.buffer.create @L1_L1_A_16() : memref<32x32xf32, 2>
    %61 = adf.buffer.create @L1_L1_B_16() : memref<32x32xf32, 2>
    adf.connect(%arg0, %60) : (!adf.plio<In, 128>, memref<32x32xf32, 2>)
    adf.connect(%arg24, %61) : (!adf.plio<In, 128>, memref<32x32xf32, 2>)
    %62 = call @kernel_gemm0(%60, %61) {adf.kernel, "col, row" = [3 : index, 4 : index], ivs = [0 : index, 4 : index, 0 : index], kernel = 0 : index, kernel_gemm0 = 16 : index} : (memref<32x32xf32, 2>, memref<32x32xf32, 2>) -> memref<32x32xf32, 2>
    adf.buffer.location(%62, %c3, %c4, %c16384, %c24576) : (memref<32x32xf32, 2>, index, index, index, index)
    adf.buffer.location(%61, %c3, %c5, %c0, %c8192) : (memref<32x32xf32, 2>, index, index, index, index)
    adf.buffer.location(%60, %c3, %c3, %c16384, %c24576) : (memref<32x32xf32, 2>, index, index, index, index)
    %63 = adf.buffer.create @L1_L1_A_17() : memref<32x32xf32, 2>
    %64 = adf.buffer.create @L1_L1_B_17() : memref<32x32xf32, 2>
    %65 = adf.buffer.create @L1_L1_C_17() : memref<32x32xf32, 2>
    adf.connect(%arg2, %63) : (!adf.plio<In, 128>, memref<32x32xf32, 2>)
    adf.connect(%arg25, %64) : (!adf.plio<In, 128>, memref<32x32xf32, 2>)
    adf.connect(%62, %65) : (memref<32x32xf32, 2>, memref<32x32xf32, 2>)
    %66 = call @kernel_gemm(%63, %64, %65) {adf.kernel, "col, row" = [4 : index, 4 : index], ivs = [1 : index, 4 : index, 0 : index], kernel_gemm = 17 : index} : (memref<32x32xf32, 2>, memref<32x32xf32, 2>, memref<32x32xf32, 2>) -> memref<32x32xf32, 2>
    adf.buffer.location(%66, %c4, %c4, %c16384, %c24576) : (memref<32x32xf32, 2>, index, index, index, index)
    adf.buffer.location(%64, %c4, %c5, %c0, %c8192) : (memref<32x32xf32, 2>, index, index, index, index)
    adf.buffer.location(%63, %c4, %c3, %c4096, %c12288) : (memref<32x32xf32, 2>, index, index, index, index)
    %67 = adf.buffer.create @L1_L1_A_18() : memref<32x32xf32, 2>
    %68 = adf.buffer.create @L1_L1_B_18() : memref<32x32xf32, 2>
    %69 = adf.buffer.create @L1_L1_C_18() : memref<32x32xf32, 2>
    adf.connect(%arg4, %67) : (!adf.plio<In, 128>, memref<32x32xf32, 2>)
    adf.connect(%arg26, %68) : (!adf.plio<In, 128>, memref<32x32xf32, 2>)
    adf.connect(%66, %69) : (memref<32x32xf32, 2>, memref<32x32xf32, 2>)
    %70 = call @kernel_gemm(%67, %68, %69) {adf.kernel, "col, row" = [5 : index, 4 : index], ivs = [2 : index, 4 : index, 0 : index], kernel_gemm = 18 : index} : (memref<32x32xf32, 2>, memref<32x32xf32, 2>, memref<32x32xf32, 2>) -> memref<32x32xf32, 2>
    adf.buffer.location(%70, %c5, %c4, %c16384, %c24576) : (memref<32x32xf32, 2>, index, index, index, index)
    adf.buffer.location(%68, %c5, %c5, %c0, %c8192) : (memref<32x32xf32, 2>, index, index, index, index)
    adf.buffer.location(%67, %c5, %c3, %c4096, %c12288) : (memref<32x32xf32, 2>, index, index, index, index)
    %71 = adf.buffer.create @L1_L1_A_19() : memref<32x32xf32, 2>
    %72 = adf.buffer.create @L1_L1_B_19() : memref<32x32xf32, 2>
    %73 = adf.buffer.create @L1_L1_C_19() : memref<32x32xf32, 2>
    adf.connect(%arg6, %71) : (!adf.plio<In, 128>, memref<32x32xf32, 2>)
    adf.connect(%arg27, %72) : (!adf.plio<In, 128>, memref<32x32xf32, 2>)
    adf.connect(%70, %73) : (memref<32x32xf32, 2>, memref<32x32xf32, 2>)
    %74 = call @kernel_gemm(%71, %72, %73) {adf.kernel, "col, row" = [6 : index, 4 : index], ivs = [3 : index, 4 : index, 0 : index], kernel_gemm = 19 : index} : (memref<32x32xf32, 2>, memref<32x32xf32, 2>, memref<32x32xf32, 2>) -> memref<32x32xf32, 2>
    adf.buffer.location(%74, %c6, %c4, %c16384, %c24576) : (memref<32x32xf32, 2>, index, index, index, index)
    adf.buffer.location(%72, %c6, %c5, %c0, %c8192) : (memref<32x32xf32, 2>, index, index, index, index)
    adf.buffer.location(%71, %c6, %c3, %c4096, %c12288) : (memref<32x32xf32, 2>, index, index, index, index)
    adf.connect(%74, %arg28) {write = 3 : index} : (memref<32x32xf32, 2>, !adf.plio<Out, 128>)
    %75 = adf.buffer.create @L1_L1_A_20() : memref<32x32xf32, 2>
    %76 = adf.buffer.create @L1_L1_B_20() : memref<32x32xf32, 2>
    adf.connect(%arg0, %75) : (!adf.plio<In, 128>, memref<32x32xf32, 2>)
    adf.connect(%arg29, %76) : (!adf.plio<In, 128>, memref<32x32xf32, 2>)
    %77 = call @kernel_gemm0(%75, %76) {adf.kernel, "col, row" = [3 : index, 5 : index], ivs = [0 : index, 5 : index, 0 : index], kernel = 0 : index, kernel_gemm0 = 20 : index} : (memref<32x32xf32, 2>, memref<32x32xf32, 2>) -> memref<32x32xf32, 2>
    adf.buffer.location(%77, %c4, %c5, %c16384, %c24576) : (memref<32x32xf32, 2>, index, index, index, index)
    adf.buffer.location(%76, %c3, %c6, %c0, %c8192) : (memref<32x32xf32, 2>, index, index, index, index)
    adf.buffer.location(%75, %c3, %c4, %c4096, %c12288) : (memref<32x32xf32, 2>, index, index, index, index)
    %78 = adf.buffer.create @L1_L1_A_21() : memref<32x32xf32, 2>
    %79 = adf.buffer.create @L1_L1_B_21() : memref<32x32xf32, 2>
    %80 = adf.buffer.create @L1_L1_C_21() : memref<32x32xf32, 2>
    adf.connect(%arg2, %78) : (!adf.plio<In, 128>, memref<32x32xf32, 2>)
    adf.connect(%arg30, %79) : (!adf.plio<In, 128>, memref<32x32xf32, 2>)
    adf.connect(%77, %80) : (memref<32x32xf32, 2>, memref<32x32xf32, 2>)
    %81 = call @kernel_gemm(%78, %79, %80) {adf.kernel, "col, row" = [4 : index, 5 : index], ivs = [1 : index, 5 : index, 0 : index], kernel_gemm = 21 : index} : (memref<32x32xf32, 2>, memref<32x32xf32, 2>, memref<32x32xf32, 2>) -> memref<32x32xf32, 2>
    adf.buffer.location(%81, %c5, %c5, %c16384, %c24576) : (memref<32x32xf32, 2>, index, index, index, index)
    adf.buffer.location(%79, %c4, %c6, %c0, %c8192) : (memref<32x32xf32, 2>, index, index, index, index)
    adf.buffer.location(%78, %c4, %c4, %c4096, %c12288) : (memref<32x32xf32, 2>, index, index, index, index)
    %82 = adf.buffer.create @L1_L1_A_22() : memref<32x32xf32, 2>
    %83 = adf.buffer.create @L1_L1_B_22() : memref<32x32xf32, 2>
    %84 = adf.buffer.create @L1_L1_C_22() : memref<32x32xf32, 2>
    adf.connect(%arg4, %82) : (!adf.plio<In, 128>, memref<32x32xf32, 2>)
    adf.connect(%arg31, %83) : (!adf.plio<In, 128>, memref<32x32xf32, 2>)
    adf.connect(%81, %84) : (memref<32x32xf32, 2>, memref<32x32xf32, 2>)
    %85 = call @kernel_gemm(%82, %83, %84) {adf.kernel, "col, row" = [5 : index, 5 : index], ivs = [2 : index, 5 : index, 0 : index], kernel_gemm = 22 : index} : (memref<32x32xf32, 2>, memref<32x32xf32, 2>, memref<32x32xf32, 2>) -> memref<32x32xf32, 2>
    adf.buffer.location(%85, %c6, %c5, %c16384, %c24576) : (memref<32x32xf32, 2>, index, index, index, index)
    adf.buffer.location(%83, %c5, %c6, %c0, %c8192) : (memref<32x32xf32, 2>, index, index, index, index)
    adf.buffer.location(%82, %c5, %c4, %c4096, %c12288) : (memref<32x32xf32, 2>, index, index, index, index)
    %86 = adf.buffer.create @L1_L1_A_23() : memref<32x32xf32, 2>
    %87 = adf.buffer.create @L1_L1_B_23() : memref<32x32xf32, 2>
    %88 = adf.buffer.create @L1_L1_C_23() : memref<32x32xf32, 2>
    adf.connect(%arg6, %86) : (!adf.plio<In, 128>, memref<32x32xf32, 2>)
    adf.connect(%arg32, %87) : (!adf.plio<In, 128>, memref<32x32xf32, 2>)
    adf.connect(%85, %88) : (memref<32x32xf32, 2>, memref<32x32xf32, 2>)
    %89 = call @kernel_gemm(%86, %87, %88) {adf.kernel, "col, row" = [6 : index, 5 : index], ivs = [3 : index, 5 : index, 0 : index], kernel_gemm = 23 : index} : (memref<32x32xf32, 2>, memref<32x32xf32, 2>, memref<32x32xf32, 2>) -> memref<32x32xf32, 2>
    adf.buffer.location(%89, %c7, %c5, %c0, %c8192) : (memref<32x32xf32, 2>, index, index, index, index)
    adf.buffer.location(%87, %c6, %c6, %c0, %c8192) : (memref<32x32xf32, 2>, index, index, index, index)
    adf.buffer.location(%86, %c6, %c4, %c4096, %c12288) : (memref<32x32xf32, 2>, index, index, index, index)
    adf.connect(%89, %arg33) {write = 3 : index} : (memref<32x32xf32, 2>, !adf.plio<Out, 128>)
    %90 = adf.buffer.create @L1_L1_A_24() : memref<32x32xf32, 2>
    %91 = adf.buffer.create @L1_L1_B_24() : memref<32x32xf32, 2>
    adf.connect(%arg0, %90) : (!adf.plio<In, 128>, memref<32x32xf32, 2>)
    adf.connect(%arg34, %91) : (!adf.plio<In, 128>, memref<32x32xf32, 2>)
    %92 = call @kernel_gemm0(%90, %91) {adf.kernel, "col, row" = [3 : index, 6 : index], ivs = [0 : index, 6 : index, 0 : index], kernel = 0 : index, kernel_gemm0 = 24 : index} : (memref<32x32xf32, 2>, memref<32x32xf32, 2>) -> memref<32x32xf32, 2>
    adf.buffer.location(%92, %c3, %c6, %c16384, %c24576) : (memref<32x32xf32, 2>, index, index, index, index)
    adf.buffer.location(%91, %c3, %c7, %c0, %c8192) : (memref<32x32xf32, 2>, index, index, index, index)
    adf.buffer.location(%90, %c3, %c5, %c16384, %c24576) : (memref<32x32xf32, 2>, index, index, index, index)
    %93 = adf.buffer.create @L1_L1_A_25() : memref<32x32xf32, 2>
    %94 = adf.buffer.create @L1_L1_B_25() : memref<32x32xf32, 2>
    %95 = adf.buffer.create @L1_L1_C_25() : memref<32x32xf32, 2>
    adf.connect(%arg2, %93) : (!adf.plio<In, 128>, memref<32x32xf32, 2>)
    adf.connect(%arg35, %94) : (!adf.plio<In, 128>, memref<32x32xf32, 2>)
    adf.connect(%92, %95) : (memref<32x32xf32, 2>, memref<32x32xf32, 2>)
    %96 = call @kernel_gemm(%93, %94, %95) {adf.kernel, "col, row" = [4 : index, 6 : index], ivs = [1 : index, 6 : index, 0 : index], kernel_gemm = 25 : index} : (memref<32x32xf32, 2>, memref<32x32xf32, 2>, memref<32x32xf32, 2>) -> memref<32x32xf32, 2>
    adf.buffer.location(%96, %c4, %c6, %c16384, %c24576) : (memref<32x32xf32, 2>, index, index, index, index)
    adf.buffer.location(%94, %c4, %c7, %c0, %c8192) : (memref<32x32xf32, 2>, index, index, index, index)
    adf.buffer.location(%93, %c4, %c5, %c4096, %c12288) : (memref<32x32xf32, 2>, index, index, index, index)
    %97 = adf.buffer.create @L1_L1_A_26() : memref<32x32xf32, 2>
    %98 = adf.buffer.create @L1_L1_B_26() : memref<32x32xf32, 2>
    %99 = adf.buffer.create @L1_L1_C_26() : memref<32x32xf32, 2>
    adf.connect(%arg4, %97) : (!adf.plio<In, 128>, memref<32x32xf32, 2>)
    adf.connect(%arg36, %98) : (!adf.plio<In, 128>, memref<32x32xf32, 2>)
    adf.connect(%96, %99) : (memref<32x32xf32, 2>, memref<32x32xf32, 2>)
    %100 = call @kernel_gemm(%97, %98, %99) {adf.kernel, "col, row" = [5 : index, 6 : index], ivs = [2 : index, 6 : index, 0 : index], kernel_gemm = 26 : index} : (memref<32x32xf32, 2>, memref<32x32xf32, 2>, memref<32x32xf32, 2>) -> memref<32x32xf32, 2>
    adf.buffer.location(%100, %c5, %c6, %c16384, %c24576) : (memref<32x32xf32, 2>, index, index, index, index)
    adf.buffer.location(%98, %c5, %c7, %c0, %c8192) : (memref<32x32xf32, 2>, index, index, index, index)
    adf.buffer.location(%97, %c5, %c5, %c4096, %c12288) : (memref<32x32xf32, 2>, index, index, index, index)
    %101 = adf.buffer.create @L1_L1_A_27() : memref<32x32xf32, 2>
    %102 = adf.buffer.create @L1_L1_B_27() : memref<32x32xf32, 2>
    %103 = adf.buffer.create @L1_L1_C_27() : memref<32x32xf32, 2>
    adf.connect(%arg6, %101) : (!adf.plio<In, 128>, memref<32x32xf32, 2>)
    adf.connect(%arg37, %102) : (!adf.plio<In, 128>, memref<32x32xf32, 2>)
    adf.connect(%100, %103) : (memref<32x32xf32, 2>, memref<32x32xf32, 2>)
    %104 = call @kernel_gemm(%101, %102, %103) {adf.kernel, "col, row" = [6 : index, 6 : index], ivs = [3 : index, 6 : index, 0 : index], kernel_gemm = 27 : index} : (memref<32x32xf32, 2>, memref<32x32xf32, 2>, memref<32x32xf32, 2>) -> memref<32x32xf32, 2>
    adf.buffer.location(%104, %c6, %c6, %c16384, %c24576) : (memref<32x32xf32, 2>, index, index, index, index)
    adf.buffer.location(%102, %c6, %c7, %c0, %c8192) : (memref<32x32xf32, 2>, index, index, index, index)
    adf.buffer.location(%101, %c6, %c5, %c4096, %c12288) : (memref<32x32xf32, 2>, index, index, index, index)
    adf.connect(%104, %arg38) {write = 3 : index} : (memref<32x32xf32, 2>, !adf.plio<Out, 128>)
    %105 = adf.buffer.create @L1_L1_A_28() : memref<32x32xf32, 2>
    %106 = adf.buffer.create @L1_L1_B_28() : memref<32x32xf32, 2>
    adf.connect(%arg0, %105) : (!adf.plio<In, 128>, memref<32x32xf32, 2>)
    adf.connect(%arg39, %106) : (!adf.plio<In, 128>, memref<32x32xf32, 2>)
    %107 = call @kernel_gemm0(%105, %106) {adf.kernel, "col, row" = [3 : index, 7 : index], ivs = [0 : index, 7 : index, 0 : index], kernel = 0 : index, kernel_gemm0 = 28 : index} : (memref<32x32xf32, 2>, memref<32x32xf32, 2>) -> memref<32x32xf32, 2>
    adf.buffer.location(%107, %c4, %c7, %c16384, %c24576) : (memref<32x32xf32, 2>, index, index, index, index)
    adf.buffer.location(%106, %c3, %c7, %c16384, %c24576) : (memref<32x32xf32, 2>, index, index, index, index)
    adf.buffer.location(%105, %c3, %c6, %c4096, %c12288) : (memref<32x32xf32, 2>, index, index, index, index)
    %108 = adf.buffer.create @L1_L1_A_29() : memref<32x32xf32, 2>
    %109 = adf.buffer.create @L1_L1_B_29() : memref<32x32xf32, 2>
    %110 = adf.buffer.create @L1_L1_C_29() : memref<32x32xf32, 2>
    adf.connect(%arg2, %108) : (!adf.plio<In, 128>, memref<32x32xf32, 2>)
    adf.connect(%arg40, %109) : (!adf.plio<In, 128>, memref<32x32xf32, 2>)
    adf.connect(%107, %110) : (memref<32x32xf32, 2>, memref<32x32xf32, 2>)
    %111 = call @kernel_gemm(%108, %109, %110) {adf.kernel, "col, row" = [4 : index, 7 : index], ivs = [1 : index, 7 : index, 0 : index], kernel_gemm = 29 : index} : (memref<32x32xf32, 2>, memref<32x32xf32, 2>, memref<32x32xf32, 2>) -> memref<32x32xf32, 2>
    adf.buffer.location(%111, %c5, %c7, %c16384, %c24576) : (memref<32x32xf32, 2>, index, index, index, index)
    adf.buffer.location(%109, %c4, %c7, %c4096, %c12288) : (memref<32x32xf32, 2>, index, index, index, index)
    adf.buffer.location(%108, %c4, %c6, %c4096, %c12288) : (memref<32x32xf32, 2>, index, index, index, index)
    %112 = adf.buffer.create @L1_L1_A_30() : memref<32x32xf32, 2>
    %113 = adf.buffer.create @L1_L1_B_30() : memref<32x32xf32, 2>
    %114 = adf.buffer.create @L1_L1_C_30() : memref<32x32xf32, 2>
    adf.connect(%arg4, %112) : (!adf.plio<In, 128>, memref<32x32xf32, 2>)
    adf.connect(%arg41, %113) : (!adf.plio<In, 128>, memref<32x32xf32, 2>)
    adf.connect(%111, %114) : (memref<32x32xf32, 2>, memref<32x32xf32, 2>)
    %115 = call @kernel_gemm(%112, %113, %114) {adf.kernel, "col, row" = [5 : index, 7 : index], ivs = [2 : index, 7 : index, 0 : index], kernel_gemm = 30 : index} : (memref<32x32xf32, 2>, memref<32x32xf32, 2>, memref<32x32xf32, 2>) -> memref<32x32xf32, 2>
    adf.buffer.location(%115, %c6, %c7, %c16384, %c24576) : (memref<32x32xf32, 2>, index, index, index, index)
    adf.buffer.location(%113, %c5, %c7, %c4096, %c12288) : (memref<32x32xf32, 2>, index, index, index, index)
    adf.buffer.location(%112, %c5, %c6, %c4096, %c12288) : (memref<32x32xf32, 2>, index, index, index, index)
    %116 = adf.buffer.create @L1_L1_A_31() : memref<32x32xf32, 2>
    %117 = adf.buffer.create @L1_L1_B_31() : memref<32x32xf32, 2>
    %118 = adf.buffer.create @L1_L1_C_31() : memref<32x32xf32, 2>
    adf.connect(%arg6, %116) : (!adf.plio<In, 128>, memref<32x32xf32, 2>)
    adf.connect(%arg42, %117) : (!adf.plio<In, 128>, memref<32x32xf32, 2>)
    adf.connect(%115, %118) : (memref<32x32xf32, 2>, memref<32x32xf32, 2>)
    %119 = call @kernel_gemm(%116, %117, %118) {adf.kernel, "col, row" = [6 : index, 7 : index], ivs = [3 : index, 7 : index, 0 : index], kernel_gemm = 31 : index} : (memref<32x32xf32, 2>, memref<32x32xf32, 2>, memref<32x32xf32, 2>) -> memref<32x32xf32, 2>
    adf.buffer.location(%119, %c7, %c7, %c0, %c8192) : (memref<32x32xf32, 2>, index, index, index, index)
    adf.buffer.location(%117, %c6, %c7, %c4096, %c12288) : (memref<32x32xf32, 2>, index, index, index, index)
    adf.buffer.location(%116, %c6, %c6, %c4096, %c12288) : (memref<32x32xf32, 2>, index, index, index, index)
    adf.connect(%119, %arg43) {write = 3 : index} : (memref<32x32xf32, 2>, !adf.plio<Out, 128>)
    %120 = adf.buffer.create @L1_L1_A_32() : memref<32x32xf32, 2>
    %121 = adf.buffer.create @L1_L1_B_32() : memref<32x32xf32, 2>
    adf.connect(%arg44, %120) : (!adf.plio<In, 128>, memref<32x32xf32, 2>)
    adf.connect(%arg1, %121) : (!adf.plio<In, 128>, memref<32x32xf32, 2>)
    %122 = call @kernel_gemm0(%120, %121) {adf.kernel, "col, row" = [7 : index, 0 : index], ivs = [0 : index, 0 : index, 1 : index], kernel = 0 : index, kernel_gemm0 = 32 : index} : (memref<32x32xf32, 2>, memref<32x32xf32, 2>) -> memref<32x32xf32, 2>
    adf.buffer.location(%122, %c7, %c0, %c0, %c8192) : (memref<32x32xf32, 2>, index, index, index, index)
    adf.buffer.location(%121, %c6, %c0, %c4096, %c12288) : (memref<32x32xf32, 2>, index, index, index, index)
    adf.buffer.location(%120, %c7, %c1, %c16384, %c24576) : (memref<32x32xf32, 2>, index, index, index, index)
    %123 = adf.buffer.create @L1_L1_A_33() : memref<32x32xf32, 2>
    %124 = adf.buffer.create @L1_L1_B_33() : memref<32x32xf32, 2>
    %125 = adf.buffer.create @L1_L1_C_33() : memref<32x32xf32, 2>
    adf.connect(%arg45, %123) : (!adf.plio<In, 128>, memref<32x32xf32, 2>)
    adf.connect(%arg3, %124) : (!adf.plio<In, 128>, memref<32x32xf32, 2>)
    adf.connect(%122, %125) : (memref<32x32xf32, 2>, memref<32x32xf32, 2>)
    %126 = call @kernel_gemm(%123, %124, %125) {adf.kernel, "col, row" = [8 : index, 0 : index], ivs = [1 : index, 0 : index, 1 : index], kernel_gemm = 33 : index} : (memref<32x32xf32, 2>, memref<32x32xf32, 2>, memref<32x32xf32, 2>) -> memref<32x32xf32, 2>
    adf.buffer.location(%126, %c8, %c0, %c0, %c8192) : (memref<32x32xf32, 2>, index, index, index, index)
    adf.buffer.location(%124, %c7, %c0, %c16384, %c24576) : (memref<32x32xf32, 2>, index, index, index, index)
    adf.buffer.location(%123, %c8, %c1, %c0, %c8192) : (memref<32x32xf32, 2>, index, index, index, index)
    %127 = adf.buffer.create @L1_L1_A_34() : memref<32x32xf32, 2>
    %128 = adf.buffer.create @L1_L1_B_34() : memref<32x32xf32, 2>
    %129 = adf.buffer.create @L1_L1_C_34() : memref<32x32xf32, 2>
    adf.connect(%arg46, %127) : (!adf.plio<In, 128>, memref<32x32xf32, 2>)
    adf.connect(%arg5, %128) : (!adf.plio<In, 128>, memref<32x32xf32, 2>)
    adf.connect(%126, %129) : (memref<32x32xf32, 2>, memref<32x32xf32, 2>)
    %130 = call @kernel_gemm(%127, %128, %129) {adf.kernel, "col, row" = [9 : index, 0 : index], ivs = [2 : index, 0 : index, 1 : index], kernel_gemm = 34 : index} : (memref<32x32xf32, 2>, memref<32x32xf32, 2>, memref<32x32xf32, 2>) -> memref<32x32xf32, 2>
    adf.buffer.location(%130, %c9, %c0, %c0, %c8192) : (memref<32x32xf32, 2>, index, index, index, index)
    adf.buffer.location(%128, %c8, %c0, %c16384, %c24576) : (memref<32x32xf32, 2>, index, index, index, index)
    adf.buffer.location(%127, %c9, %c1, %c0, %c8192) : (memref<32x32xf32, 2>, index, index, index, index)
    %131 = adf.buffer.create @L1_L1_A_35() : memref<32x32xf32, 2>
    %132 = adf.buffer.create @L1_L1_B_35() : memref<32x32xf32, 2>
    %133 = adf.buffer.create @L1_L1_C_35() : memref<32x32xf32, 2>
    adf.connect(%arg47, %131) : (!adf.plio<In, 128>, memref<32x32xf32, 2>)
    adf.connect(%arg7, %132) : (!adf.plio<In, 128>, memref<32x32xf32, 2>)
    adf.connect(%130, %133) : (memref<32x32xf32, 2>, memref<32x32xf32, 2>)
    %134 = call @kernel_gemm(%131, %132, %133) {adf.kernel, "col, row" = [10 : index, 0 : index], ivs = [3 : index, 0 : index, 1 : index], kernel_gemm = 35 : index} : (memref<32x32xf32, 2>, memref<32x32xf32, 2>, memref<32x32xf32, 2>) -> memref<32x32xf32, 2>
    adf.buffer.location(%134, %c10, %c0, %c0, %c8192) : (memref<32x32xf32, 2>, index, index, index, index)
    adf.buffer.location(%132, %c9, %c0, %c16384, %c24576) : (memref<32x32xf32, 2>, index, index, index, index)
    adf.buffer.location(%131, %c10, %c1, %c0, %c8192) : (memref<32x32xf32, 2>, index, index, index, index)
    adf.connect(%134, %arg48) {write = 3 : index} : (memref<32x32xf32, 2>, !adf.plio<Out, 128>)
    %135 = adf.buffer.create @L1_L1_A_36() : memref<32x32xf32, 2>
    %136 = adf.buffer.create @L1_L1_B_36() : memref<32x32xf32, 2>
    adf.connect(%arg44, %135) : (!adf.plio<In, 128>, memref<32x32xf32, 2>)
    adf.connect(%arg9, %136) : (!adf.plio<In, 128>, memref<32x32xf32, 2>)
    %137 = call @kernel_gemm0(%135, %136) {adf.kernel, "col, row" = [7 : index, 1 : index], ivs = [0 : index, 1 : index, 1 : index], kernel = 0 : index, kernel_gemm0 = 36 : index} : (memref<32x32xf32, 2>, memref<32x32xf32, 2>) -> memref<32x32xf32, 2>
    adf.buffer.location(%137, %c8, %c1, %c16384, %c24576) : (memref<32x32xf32, 2>, index, index, index, index)
    adf.buffer.location(%136, %c7, %c2, %c0, %c8192) : (memref<32x32xf32, 2>, index, index, index, index)
    adf.buffer.location(%135, %c7, %c0, %c4096, %c12288) : (memref<32x32xf32, 2>, index, index, index, index)
    %138 = adf.buffer.create @L1_L1_A_37() : memref<32x32xf32, 2>
    %139 = adf.buffer.create @L1_L1_B_37() : memref<32x32xf32, 2>
    %140 = adf.buffer.create @L1_L1_C_37() : memref<32x32xf32, 2>
    adf.connect(%arg45, %138) : (!adf.plio<In, 128>, memref<32x32xf32, 2>)
    adf.connect(%arg10, %139) : (!adf.plio<In, 128>, memref<32x32xf32, 2>)
    adf.connect(%137, %140) : (memref<32x32xf32, 2>, memref<32x32xf32, 2>)
    %141 = call @kernel_gemm(%138, %139, %140) {adf.kernel, "col, row" = [8 : index, 1 : index], ivs = [1 : index, 1 : index, 1 : index], kernel_gemm = 37 : index} : (memref<32x32xf32, 2>, memref<32x32xf32, 2>, memref<32x32xf32, 2>) -> memref<32x32xf32, 2>
    adf.buffer.location(%141, %c9, %c1, %c16384, %c24576) : (memref<32x32xf32, 2>, index, index, index, index)
    adf.buffer.location(%139, %c8, %c2, %c0, %c8192) : (memref<32x32xf32, 2>, index, index, index, index)
    adf.buffer.location(%138, %c8, %c0, %c4096, %c12288) : (memref<32x32xf32, 2>, index, index, index, index)
    %142 = adf.buffer.create @L1_L1_A_38() : memref<32x32xf32, 2>
    %143 = adf.buffer.create @L1_L1_B_38() : memref<32x32xf32, 2>
    %144 = adf.buffer.create @L1_L1_C_38() : memref<32x32xf32, 2>
    adf.connect(%arg46, %142) : (!adf.plio<In, 128>, memref<32x32xf32, 2>)
    adf.connect(%arg11, %143) : (!adf.plio<In, 128>, memref<32x32xf32, 2>)
    adf.connect(%141, %144) : (memref<32x32xf32, 2>, memref<32x32xf32, 2>)
    %145 = call @kernel_gemm(%142, %143, %144) {adf.kernel, "col, row" = [9 : index, 1 : index], ivs = [2 : index, 1 : index, 1 : index], kernel_gemm = 38 : index} : (memref<32x32xf32, 2>, memref<32x32xf32, 2>, memref<32x32xf32, 2>) -> memref<32x32xf32, 2>
    adf.buffer.location(%145, %c10, %c1, %c16384, %c24576) : (memref<32x32xf32, 2>, index, index, index, index)
    adf.buffer.location(%143, %c9, %c2, %c0, %c8192) : (memref<32x32xf32, 2>, index, index, index, index)
    adf.buffer.location(%142, %c9, %c0, %c4096, %c12288) : (memref<32x32xf32, 2>, index, index, index, index)
    %146 = adf.buffer.create @L1_L1_A_39() : memref<32x32xf32, 2>
    %147 = adf.buffer.create @L1_L1_B_39() : memref<32x32xf32, 2>
    %148 = adf.buffer.create @L1_L1_C_39() : memref<32x32xf32, 2>
    adf.connect(%arg47, %146) : (!adf.plio<In, 128>, memref<32x32xf32, 2>)
    adf.connect(%arg12, %147) : (!adf.plio<In, 128>, memref<32x32xf32, 2>)
    adf.connect(%145, %148) : (memref<32x32xf32, 2>, memref<32x32xf32, 2>)
    %149 = call @kernel_gemm(%146, %147, %148) {adf.kernel, "col, row" = [10 : index, 1 : index], ivs = [3 : index, 1 : index, 1 : index], kernel_gemm = 39 : index} : (memref<32x32xf32, 2>, memref<32x32xf32, 2>, memref<32x32xf32, 2>) -> memref<32x32xf32, 2>
    adf.buffer.location(%149, %c11, %c1, %c0, %c8192) : (memref<32x32xf32, 2>, index, index, index, index)
    adf.buffer.location(%147, %c10, %c2, %c0, %c8192) : (memref<32x32xf32, 2>, index, index, index, index)
    adf.buffer.location(%146, %c10, %c0, %c16384, %c24576) : (memref<32x32xf32, 2>, index, index, index, index)
    adf.connect(%149, %arg49) {write = 3 : index} : (memref<32x32xf32, 2>, !adf.plio<Out, 128>)
    %150 = adf.buffer.create @L1_L1_A_40() : memref<32x32xf32, 2>
    %151 = adf.buffer.create @L1_L1_B_40() : memref<32x32xf32, 2>
    adf.connect(%arg44, %150) : (!adf.plio<In, 128>, memref<32x32xf32, 2>)
    adf.connect(%arg14, %151) : (!adf.plio<In, 128>, memref<32x32xf32, 2>)
    %152 = call @kernel_gemm0(%150, %151) {adf.kernel, "col, row" = [7 : index, 2 : index], ivs = [0 : index, 2 : index, 1 : index], kernel = 0 : index, kernel_gemm0 = 40 : index} : (memref<32x32xf32, 2>, memref<32x32xf32, 2>) -> memref<32x32xf32, 2>
    adf.buffer.location(%152, %c7, %c2, %c16384, %c24576) : (memref<32x32xf32, 2>, index, index, index, index)
    adf.buffer.location(%151, %c7, %c3, %c16384, %c24576) : (memref<32x32xf32, 2>, index, index, index, index)
    adf.buffer.location(%150, %c7, %c1, %c4096, %c12288) : (memref<32x32xf32, 2>, index, index, index, index)
    %153 = adf.buffer.create @L1_L1_A_41() : memref<32x32xf32, 2>
    %154 = adf.buffer.create @L1_L1_B_41() : memref<32x32xf32, 2>
    %155 = adf.buffer.create @L1_L1_C_41() : memref<32x32xf32, 2>
    adf.connect(%arg45, %153) : (!adf.plio<In, 128>, memref<32x32xf32, 2>)
    adf.connect(%arg15, %154) : (!adf.plio<In, 128>, memref<32x32xf32, 2>)
    adf.connect(%152, %155) : (memref<32x32xf32, 2>, memref<32x32xf32, 2>)
    %156 = call @kernel_gemm(%153, %154, %155) {adf.kernel, "col, row" = [8 : index, 2 : index], ivs = [1 : index, 2 : index, 1 : index], kernel_gemm = 41 : index} : (memref<32x32xf32, 2>, memref<32x32xf32, 2>, memref<32x32xf32, 2>) -> memref<32x32xf32, 2>
    adf.buffer.location(%156, %c8, %c2, %c16384, %c24576) : (memref<32x32xf32, 2>, index, index, index, index)
    adf.buffer.location(%154, %c8, %c3, %c0, %c8192) : (memref<32x32xf32, 2>, index, index, index, index)
    adf.buffer.location(%153, %c8, %c1, %c4096, %c12288) : (memref<32x32xf32, 2>, index, index, index, index)
    %157 = adf.buffer.create @L1_L1_A_42() : memref<32x32xf32, 2>
    %158 = adf.buffer.create @L1_L1_B_42() : memref<32x32xf32, 2>
    %159 = adf.buffer.create @L1_L1_C_42() : memref<32x32xf32, 2>
    adf.connect(%arg46, %157) : (!adf.plio<In, 128>, memref<32x32xf32, 2>)
    adf.connect(%arg16, %158) : (!adf.plio<In, 128>, memref<32x32xf32, 2>)
    adf.connect(%156, %159) : (memref<32x32xf32, 2>, memref<32x32xf32, 2>)
    %160 = call @kernel_gemm(%157, %158, %159) {adf.kernel, "col, row" = [9 : index, 2 : index], ivs = [2 : index, 2 : index, 1 : index], kernel_gemm = 42 : index} : (memref<32x32xf32, 2>, memref<32x32xf32, 2>, memref<32x32xf32, 2>) -> memref<32x32xf32, 2>
    adf.buffer.location(%160, %c9, %c2, %c16384, %c24576) : (memref<32x32xf32, 2>, index, index, index, index)
    adf.buffer.location(%158, %c9, %c3, %c0, %c8192) : (memref<32x32xf32, 2>, index, index, index, index)
    adf.buffer.location(%157, %c9, %c1, %c4096, %c12288) : (memref<32x32xf32, 2>, index, index, index, index)
    %161 = adf.buffer.create @L1_L1_A_43() : memref<32x32xf32, 2>
    %162 = adf.buffer.create @L1_L1_B_43() : memref<32x32xf32, 2>
    %163 = adf.buffer.create @L1_L1_C_43() : memref<32x32xf32, 2>
    adf.connect(%arg47, %161) : (!adf.plio<In, 128>, memref<32x32xf32, 2>)
    adf.connect(%arg17, %162) : (!adf.plio<In, 128>, memref<32x32xf32, 2>)
    adf.connect(%160, %163) : (memref<32x32xf32, 2>, memref<32x32xf32, 2>)
    %164 = call @kernel_gemm(%161, %162, %163) {adf.kernel, "col, row" = [10 : index, 2 : index], ivs = [3 : index, 2 : index, 1 : index], kernel_gemm = 43 : index} : (memref<32x32xf32, 2>, memref<32x32xf32, 2>, memref<32x32xf32, 2>) -> memref<32x32xf32, 2>
    adf.buffer.location(%164, %c10, %c2, %c16384, %c24576) : (memref<32x32xf32, 2>, index, index, index, index)
    adf.buffer.location(%162, %c10, %c3, %c0, %c8192) : (memref<32x32xf32, 2>, index, index, index, index)
    adf.buffer.location(%161, %c10, %c1, %c4096, %c12288) : (memref<32x32xf32, 2>, index, index, index, index)
    adf.connect(%164, %arg50) {write = 3 : index} : (memref<32x32xf32, 2>, !adf.plio<Out, 128>)
    %165 = adf.buffer.create @L1_L1_A_44() : memref<32x32xf32, 2>
    %166 = adf.buffer.create @L1_L1_B_44() : memref<32x32xf32, 2>
    adf.connect(%arg44, %165) : (!adf.plio<In, 128>, memref<32x32xf32, 2>)
    adf.connect(%arg19, %166) : (!adf.plio<In, 128>, memref<32x32xf32, 2>)
    %167 = call @kernel_gemm0(%165, %166) {adf.kernel, "col, row" = [7 : index, 3 : index], ivs = [0 : index, 3 : index, 1 : index], kernel = 0 : index, kernel_gemm0 = 44 : index} : (memref<32x32xf32, 2>, memref<32x32xf32, 2>) -> memref<32x32xf32, 2>
    adf.buffer.location(%167, %c8, %c3, %c16384, %c24576) : (memref<32x32xf32, 2>, index, index, index, index)
    adf.buffer.location(%166, %c7, %c4, %c0, %c8192) : (memref<32x32xf32, 2>, index, index, index, index)
    adf.buffer.location(%165, %c7, %c2, %c4096, %c12288) : (memref<32x32xf32, 2>, index, index, index, index)
    %168 = adf.buffer.create @L1_L1_A_45() : memref<32x32xf32, 2>
    %169 = adf.buffer.create @L1_L1_B_45() : memref<32x32xf32, 2>
    %170 = adf.buffer.create @L1_L1_C_45() : memref<32x32xf32, 2>
    adf.connect(%arg45, %168) : (!adf.plio<In, 128>, memref<32x32xf32, 2>)
    adf.connect(%arg20, %169) : (!adf.plio<In, 128>, memref<32x32xf32, 2>)
    adf.connect(%167, %170) : (memref<32x32xf32, 2>, memref<32x32xf32, 2>)
    %171 = call @kernel_gemm(%168, %169, %170) {adf.kernel, "col, row" = [8 : index, 3 : index], ivs = [1 : index, 3 : index, 1 : index], kernel_gemm = 45 : index} : (memref<32x32xf32, 2>, memref<32x32xf32, 2>, memref<32x32xf32, 2>) -> memref<32x32xf32, 2>
    adf.buffer.location(%171, %c9, %c3, %c16384, %c24576) : (memref<32x32xf32, 2>, index, index, index, index)
    adf.buffer.location(%169, %c8, %c4, %c0, %c8192) : (memref<32x32xf32, 2>, index, index, index, index)
    adf.buffer.location(%168, %c8, %c2, %c4096, %c12288) : (memref<32x32xf32, 2>, index, index, index, index)
    %172 = adf.buffer.create @L1_L1_A_46() : memref<32x32xf32, 2>
    %173 = adf.buffer.create @L1_L1_B_46() : memref<32x32xf32, 2>
    %174 = adf.buffer.create @L1_L1_C_46() : memref<32x32xf32, 2>
    adf.connect(%arg46, %172) : (!adf.plio<In, 128>, memref<32x32xf32, 2>)
    adf.connect(%arg21, %173) : (!adf.plio<In, 128>, memref<32x32xf32, 2>)
    adf.connect(%171, %174) : (memref<32x32xf32, 2>, memref<32x32xf32, 2>)
    %175 = call @kernel_gemm(%172, %173, %174) {adf.kernel, "col, row" = [9 : index, 3 : index], ivs = [2 : index, 3 : index, 1 : index], kernel_gemm = 46 : index} : (memref<32x32xf32, 2>, memref<32x32xf32, 2>, memref<32x32xf32, 2>) -> memref<32x32xf32, 2>
    adf.buffer.location(%175, %c10, %c3, %c16384, %c24576) : (memref<32x32xf32, 2>, index, index, index, index)
    adf.buffer.location(%173, %c9, %c4, %c0, %c8192) : (memref<32x32xf32, 2>, index, index, index, index)
    adf.buffer.location(%172, %c9, %c2, %c4096, %c12288) : (memref<32x32xf32, 2>, index, index, index, index)
    %176 = adf.buffer.create @L1_L1_A_47() : memref<32x32xf32, 2>
    %177 = adf.buffer.create @L1_L1_B_47() : memref<32x32xf32, 2>
    %178 = adf.buffer.create @L1_L1_C_47() : memref<32x32xf32, 2>
    adf.connect(%arg47, %176) : (!adf.plio<In, 128>, memref<32x32xf32, 2>)
    adf.connect(%arg22, %177) : (!adf.plio<In, 128>, memref<32x32xf32, 2>)
    adf.connect(%175, %178) : (memref<32x32xf32, 2>, memref<32x32xf32, 2>)
    %179 = call @kernel_gemm(%176, %177, %178) {adf.kernel, "col, row" = [10 : index, 3 : index], ivs = [3 : index, 3 : index, 1 : index], kernel_gemm = 47 : index} : (memref<32x32xf32, 2>, memref<32x32xf32, 2>, memref<32x32xf32, 2>) -> memref<32x32xf32, 2>
    adf.buffer.location(%179, %c11, %c3, %c0, %c8192) : (memref<32x32xf32, 2>, index, index, index, index)
    adf.buffer.location(%177, %c10, %c4, %c0, %c8192) : (memref<32x32xf32, 2>, index, index, index, index)
    adf.buffer.location(%176, %c10, %c2, %c4096, %c12288) : (memref<32x32xf32, 2>, index, index, index, index)
    adf.connect(%179, %arg51) {write = 3 : index} : (memref<32x32xf32, 2>, !adf.plio<Out, 128>)
    %180 = adf.buffer.create @L1_L1_A_48() : memref<32x32xf32, 2>
    %181 = adf.buffer.create @L1_L1_B_48() : memref<32x32xf32, 2>
    adf.connect(%arg44, %180) : (!adf.plio<In, 128>, memref<32x32xf32, 2>)
    adf.connect(%arg24, %181) : (!adf.plio<In, 128>, memref<32x32xf32, 2>)
    %182 = call @kernel_gemm0(%180, %181) {adf.kernel, "col, row" = [7 : index, 4 : index], ivs = [0 : index, 4 : index, 1 : index], kernel = 0 : index, kernel_gemm0 = 48 : index} : (memref<32x32xf32, 2>, memref<32x32xf32, 2>) -> memref<32x32xf32, 2>
    adf.buffer.location(%182, %c7, %c4, %c16384, %c24576) : (memref<32x32xf32, 2>, index, index, index, index)
    adf.buffer.location(%181, %c7, %c5, %c16384, %c24576) : (memref<32x32xf32, 2>, index, index, index, index)
    adf.buffer.location(%180, %c7, %c3, %c4096, %c12288) : (memref<32x32xf32, 2>, index, index, index, index)
    %183 = adf.buffer.create @L1_L1_A_49() : memref<32x32xf32, 2>
    %184 = adf.buffer.create @L1_L1_B_49() : memref<32x32xf32, 2>
    %185 = adf.buffer.create @L1_L1_C_49() : memref<32x32xf32, 2>
    adf.connect(%arg45, %183) : (!adf.plio<In, 128>, memref<32x32xf32, 2>)
    adf.connect(%arg25, %184) : (!adf.plio<In, 128>, memref<32x32xf32, 2>)
    adf.connect(%182, %185) : (memref<32x32xf32, 2>, memref<32x32xf32, 2>)
    %186 = call @kernel_gemm(%183, %184, %185) {adf.kernel, "col, row" = [8 : index, 4 : index], ivs = [1 : index, 4 : index, 1 : index], kernel_gemm = 49 : index} : (memref<32x32xf32, 2>, memref<32x32xf32, 2>, memref<32x32xf32, 2>) -> memref<32x32xf32, 2>
    adf.buffer.location(%186, %c8, %c4, %c16384, %c24576) : (memref<32x32xf32, 2>, index, index, index, index)
    adf.buffer.location(%184, %c8, %c5, %c0, %c8192) : (memref<32x32xf32, 2>, index, index, index, index)
    adf.buffer.location(%183, %c8, %c3, %c4096, %c12288) : (memref<32x32xf32, 2>, index, index, index, index)
    %187 = adf.buffer.create @L1_L1_A_50() : memref<32x32xf32, 2>
    %188 = adf.buffer.create @L1_L1_B_50() : memref<32x32xf32, 2>
    %189 = adf.buffer.create @L1_L1_C_50() : memref<32x32xf32, 2>
    adf.connect(%arg46, %187) : (!adf.plio<In, 128>, memref<32x32xf32, 2>)
    adf.connect(%arg26, %188) : (!adf.plio<In, 128>, memref<32x32xf32, 2>)
    adf.connect(%186, %189) : (memref<32x32xf32, 2>, memref<32x32xf32, 2>)
    %190 = call @kernel_gemm(%187, %188, %189) {adf.kernel, "col, row" = [9 : index, 4 : index], ivs = [2 : index, 4 : index, 1 : index], kernel_gemm = 50 : index} : (memref<32x32xf32, 2>, memref<32x32xf32, 2>, memref<32x32xf32, 2>) -> memref<32x32xf32, 2>
    adf.buffer.location(%190, %c9, %c4, %c16384, %c24576) : (memref<32x32xf32, 2>, index, index, index, index)
    adf.buffer.location(%188, %c9, %c5, %c0, %c8192) : (memref<32x32xf32, 2>, index, index, index, index)
    adf.buffer.location(%187, %c9, %c3, %c4096, %c12288) : (memref<32x32xf32, 2>, index, index, index, index)
    %191 = adf.buffer.create @L1_L1_A_51() : memref<32x32xf32, 2>
    %192 = adf.buffer.create @L1_L1_B_51() : memref<32x32xf32, 2>
    %193 = adf.buffer.create @L1_L1_C_51() : memref<32x32xf32, 2>
    adf.connect(%arg47, %191) : (!adf.plio<In, 128>, memref<32x32xf32, 2>)
    adf.connect(%arg27, %192) : (!adf.plio<In, 128>, memref<32x32xf32, 2>)
    adf.connect(%190, %193) : (memref<32x32xf32, 2>, memref<32x32xf32, 2>)
    %194 = call @kernel_gemm(%191, %192, %193) {adf.kernel, "col, row" = [10 : index, 4 : index], ivs = [3 : index, 4 : index, 1 : index], kernel_gemm = 51 : index} : (memref<32x32xf32, 2>, memref<32x32xf32, 2>, memref<32x32xf32, 2>) -> memref<32x32xf32, 2>
    adf.buffer.location(%194, %c10, %c4, %c16384, %c24576) : (memref<32x32xf32, 2>, index, index, index, index)
    adf.buffer.location(%192, %c10, %c5, %c0, %c8192) : (memref<32x32xf32, 2>, index, index, index, index)
    adf.buffer.location(%191, %c10, %c3, %c4096, %c12288) : (memref<32x32xf32, 2>, index, index, index, index)
    adf.connect(%194, %arg52) {write = 3 : index} : (memref<32x32xf32, 2>, !adf.plio<Out, 128>)
    %195 = adf.buffer.create @L1_L1_A_52() : memref<32x32xf32, 2>
    %196 = adf.buffer.create @L1_L1_B_52() : memref<32x32xf32, 2>
    adf.connect(%arg44, %195) : (!adf.plio<In, 128>, memref<32x32xf32, 2>)
    adf.connect(%arg29, %196) : (!adf.plio<In, 128>, memref<32x32xf32, 2>)
    %197 = call @kernel_gemm0(%195, %196) {adf.kernel, "col, row" = [7 : index, 5 : index], ivs = [0 : index, 5 : index, 1 : index], kernel = 0 : index, kernel_gemm0 = 52 : index} : (memref<32x32xf32, 2>, memref<32x32xf32, 2>) -> memref<32x32xf32, 2>
    adf.buffer.location(%197, %c8, %c5, %c16384, %c24576) : (memref<32x32xf32, 2>, index, index, index, index)
    adf.buffer.location(%196, %c7, %c6, %c0, %c8192) : (memref<32x32xf32, 2>, index, index, index, index)
    adf.buffer.location(%195, %c7, %c4, %c4096, %c12288) : (memref<32x32xf32, 2>, index, index, index, index)
    %198 = adf.buffer.create @L1_L1_A_53() : memref<32x32xf32, 2>
    %199 = adf.buffer.create @L1_L1_B_53() : memref<32x32xf32, 2>
    %200 = adf.buffer.create @L1_L1_C_53() : memref<32x32xf32, 2>
    adf.connect(%arg45, %198) : (!adf.plio<In, 128>, memref<32x32xf32, 2>)
    adf.connect(%arg30, %199) : (!adf.plio<In, 128>, memref<32x32xf32, 2>)
    adf.connect(%197, %200) : (memref<32x32xf32, 2>, memref<32x32xf32, 2>)
    %201 = call @kernel_gemm(%198, %199, %200) {adf.kernel, "col, row" = [8 : index, 5 : index], ivs = [1 : index, 5 : index, 1 : index], kernel_gemm = 53 : index} : (memref<32x32xf32, 2>, memref<32x32xf32, 2>, memref<32x32xf32, 2>) -> memref<32x32xf32, 2>
    adf.buffer.location(%201, %c9, %c5, %c16384, %c24576) : (memref<32x32xf32, 2>, index, index, index, index)
    adf.buffer.location(%199, %c8, %c6, %c0, %c8192) : (memref<32x32xf32, 2>, index, index, index, index)
    adf.buffer.location(%198, %c8, %c4, %c4096, %c12288) : (memref<32x32xf32, 2>, index, index, index, index)
    %202 = adf.buffer.create @L1_L1_A_54() : memref<32x32xf32, 2>
    %203 = adf.buffer.create @L1_L1_B_54() : memref<32x32xf32, 2>
    %204 = adf.buffer.create @L1_L1_C_54() : memref<32x32xf32, 2>
    adf.connect(%arg46, %202) : (!adf.plio<In, 128>, memref<32x32xf32, 2>)
    adf.connect(%arg31, %203) : (!adf.plio<In, 128>, memref<32x32xf32, 2>)
    adf.connect(%201, %204) : (memref<32x32xf32, 2>, memref<32x32xf32, 2>)
    %205 = call @kernel_gemm(%202, %203, %204) {adf.kernel, "col, row" = [9 : index, 5 : index], ivs = [2 : index, 5 : index, 1 : index], kernel_gemm = 54 : index} : (memref<32x32xf32, 2>, memref<32x32xf32, 2>, memref<32x32xf32, 2>) -> memref<32x32xf32, 2>
    adf.buffer.location(%205, %c10, %c5, %c16384, %c24576) : (memref<32x32xf32, 2>, index, index, index, index)
    adf.buffer.location(%203, %c9, %c6, %c0, %c8192) : (memref<32x32xf32, 2>, index, index, index, index)
    adf.buffer.location(%202, %c9, %c4, %c4096, %c12288) : (memref<32x32xf32, 2>, index, index, index, index)
    %206 = adf.buffer.create @L1_L1_A_55() : memref<32x32xf32, 2>
    %207 = adf.buffer.create @L1_L1_B_55() : memref<32x32xf32, 2>
    %208 = adf.buffer.create @L1_L1_C_55() : memref<32x32xf32, 2>
    adf.connect(%arg47, %206) : (!adf.plio<In, 128>, memref<32x32xf32, 2>)
    adf.connect(%arg32, %207) : (!adf.plio<In, 128>, memref<32x32xf32, 2>)
    adf.connect(%205, %208) : (memref<32x32xf32, 2>, memref<32x32xf32, 2>)
    %209 = call @kernel_gemm(%206, %207, %208) {adf.kernel, "col, row" = [10 : index, 5 : index], ivs = [3 : index, 5 : index, 1 : index], kernel_gemm = 55 : index} : (memref<32x32xf32, 2>, memref<32x32xf32, 2>, memref<32x32xf32, 2>) -> memref<32x32xf32, 2>
    adf.buffer.location(%209, %c11, %c5, %c0, %c8192) : (memref<32x32xf32, 2>, index, index, index, index)
    adf.buffer.location(%207, %c10, %c6, %c0, %c8192) : (memref<32x32xf32, 2>, index, index, index, index)
    adf.buffer.location(%206, %c10, %c4, %c4096, %c12288) : (memref<32x32xf32, 2>, index, index, index, index)
    adf.connect(%209, %arg53) {write = 3 : index} : (memref<32x32xf32, 2>, !adf.plio<Out, 128>)
    %210 = adf.buffer.create @L1_L1_A_56() : memref<32x32xf32, 2>
    %211 = adf.buffer.create @L1_L1_B_56() : memref<32x32xf32, 2>
    adf.connect(%arg44, %210) : (!adf.plio<In, 128>, memref<32x32xf32, 2>)
    adf.connect(%arg34, %211) : (!adf.plio<In, 128>, memref<32x32xf32, 2>)
    %212 = call @kernel_gemm0(%210, %211) {adf.kernel, "col, row" = [7 : index, 6 : index], ivs = [0 : index, 6 : index, 1 : index], kernel = 0 : index, kernel_gemm0 = 56 : index} : (memref<32x32xf32, 2>, memref<32x32xf32, 2>) -> memref<32x32xf32, 2>
    adf.buffer.location(%212, %c7, %c6, %c16384, %c24576) : (memref<32x32xf32, 2>, index, index, index, index)
    adf.buffer.location(%211, %c7, %c7, %c16384, %c24576) : (memref<32x32xf32, 2>, index, index, index, index)
    adf.buffer.location(%210, %c7, %c5, %c4096, %c12288) : (memref<32x32xf32, 2>, index, index, index, index)
    %213 = adf.buffer.create @L1_L1_A_57() : memref<32x32xf32, 2>
    %214 = adf.buffer.create @L1_L1_B_57() : memref<32x32xf32, 2>
    %215 = adf.buffer.create @L1_L1_C_57() : memref<32x32xf32, 2>
    adf.connect(%arg45, %213) : (!adf.plio<In, 128>, memref<32x32xf32, 2>)
    adf.connect(%arg35, %214) : (!adf.plio<In, 128>, memref<32x32xf32, 2>)
    adf.connect(%212, %215) : (memref<32x32xf32, 2>, memref<32x32xf32, 2>)
    %216 = call @kernel_gemm(%213, %214, %215) {adf.kernel, "col, row" = [8 : index, 6 : index], ivs = [1 : index, 6 : index, 1 : index], kernel_gemm = 57 : index} : (memref<32x32xf32, 2>, memref<32x32xf32, 2>, memref<32x32xf32, 2>) -> memref<32x32xf32, 2>
    adf.buffer.location(%216, %c8, %c6, %c16384, %c24576) : (memref<32x32xf32, 2>, index, index, index, index)
    adf.buffer.location(%214, %c8, %c7, %c0, %c8192) : (memref<32x32xf32, 2>, index, index, index, index)
    adf.buffer.location(%213, %c8, %c5, %c4096, %c12288) : (memref<32x32xf32, 2>, index, index, index, index)
    %217 = adf.buffer.create @L1_L1_A_58() : memref<32x32xf32, 2>
    %218 = adf.buffer.create @L1_L1_B_58() : memref<32x32xf32, 2>
    %219 = adf.buffer.create @L1_L1_C_58() : memref<32x32xf32, 2>
    adf.connect(%arg46, %217) : (!adf.plio<In, 128>, memref<32x32xf32, 2>)
    adf.connect(%arg36, %218) : (!adf.plio<In, 128>, memref<32x32xf32, 2>)
    adf.connect(%216, %219) : (memref<32x32xf32, 2>, memref<32x32xf32, 2>)
    %220 = call @kernel_gemm(%217, %218, %219) {adf.kernel, "col, row" = [9 : index, 6 : index], ivs = [2 : index, 6 : index, 1 : index], kernel_gemm = 58 : index} : (memref<32x32xf32, 2>, memref<32x32xf32, 2>, memref<32x32xf32, 2>) -> memref<32x32xf32, 2>
    adf.buffer.location(%220, %c9, %c6, %c16384, %c24576) : (memref<32x32xf32, 2>, index, index, index, index)
    adf.buffer.location(%218, %c9, %c7, %c0, %c8192) : (memref<32x32xf32, 2>, index, index, index, index)
    adf.buffer.location(%217, %c9, %c5, %c4096, %c12288) : (memref<32x32xf32, 2>, index, index, index, index)
    %221 = adf.buffer.create @L1_L1_A_59() : memref<32x32xf32, 2>
    %222 = adf.buffer.create @L1_L1_B_59() : memref<32x32xf32, 2>
    %223 = adf.buffer.create @L1_L1_C_59() : memref<32x32xf32, 2>
    adf.connect(%arg47, %221) : (!adf.plio<In, 128>, memref<32x32xf32, 2>)
    adf.connect(%arg37, %222) : (!adf.plio<In, 128>, memref<32x32xf32, 2>)
    adf.connect(%220, %223) : (memref<32x32xf32, 2>, memref<32x32xf32, 2>)
    %224 = call @kernel_gemm(%221, %222, %223) {adf.kernel, "col, row" = [10 : index, 6 : index], ivs = [3 : index, 6 : index, 1 : index], kernel_gemm = 59 : index} : (memref<32x32xf32, 2>, memref<32x32xf32, 2>, memref<32x32xf32, 2>) -> memref<32x32xf32, 2>
    adf.buffer.location(%224, %c10, %c6, %c16384, %c24576) : (memref<32x32xf32, 2>, index, index, index, index)
    adf.buffer.location(%222, %c10, %c7, %c0, %c8192) : (memref<32x32xf32, 2>, index, index, index, index)
    adf.buffer.location(%221, %c10, %c5, %c4096, %c12288) : (memref<32x32xf32, 2>, index, index, index, index)
    adf.connect(%224, %arg54) {write = 3 : index} : (memref<32x32xf32, 2>, !adf.plio<Out, 128>)
    %225 = adf.buffer.create @L1_L1_A_60() : memref<32x32xf32, 2>
    %226 = adf.buffer.create @L1_L1_B_60() : memref<32x32xf32, 2>
    adf.connect(%arg44, %225) : (!adf.plio<In, 128>, memref<32x32xf32, 2>)
    adf.connect(%arg39, %226) : (!adf.plio<In, 128>, memref<32x32xf32, 2>)
    %227 = call @kernel_gemm0(%225, %226) {adf.kernel, "col, row" = [7 : index, 7 : index], ivs = [0 : index, 7 : index, 1 : index], kernel = 0 : index, kernel_gemm0 = 60 : index} : (memref<32x32xf32, 2>, memref<32x32xf32, 2>) -> memref<32x32xf32, 2>
    adf.buffer.location(%227, %c8, %c7, %c16384, %c24576) : (memref<32x32xf32, 2>, index, index, index, index)
    adf.buffer.location(%226, %c7, %c7, %c4096, %c12288) : (memref<32x32xf32, 2>, index, index, index, index)
    adf.buffer.location(%225, %c7, %c6, %c4096, %c12288) : (memref<32x32xf32, 2>, index, index, index, index)
    %228 = adf.buffer.create @L1_L1_A_61() : memref<32x32xf32, 2>
    %229 = adf.buffer.create @L1_L1_B_61() : memref<32x32xf32, 2>
    %230 = adf.buffer.create @L1_L1_C_61() : memref<32x32xf32, 2>
    adf.connect(%arg45, %228) : (!adf.plio<In, 128>, memref<32x32xf32, 2>)
    adf.connect(%arg40, %229) : (!adf.plio<In, 128>, memref<32x32xf32, 2>)
    adf.connect(%227, %230) : (memref<32x32xf32, 2>, memref<32x32xf32, 2>)
    %231 = call @kernel_gemm(%228, %229, %230) {adf.kernel, "col, row" = [8 : index, 7 : index], ivs = [1 : index, 7 : index, 1 : index], kernel_gemm = 61 : index} : (memref<32x32xf32, 2>, memref<32x32xf32, 2>, memref<32x32xf32, 2>) -> memref<32x32xf32, 2>
    adf.buffer.location(%231, %c9, %c7, %c16384, %c24576) : (memref<32x32xf32, 2>, index, index, index, index)
    adf.buffer.location(%229, %c8, %c7, %c4096, %c12288) : (memref<32x32xf32, 2>, index, index, index, index)
    adf.buffer.location(%228, %c8, %c6, %c4096, %c12288) : (memref<32x32xf32, 2>, index, index, index, index)
    %232 = adf.buffer.create @L1_L1_A_62() : memref<32x32xf32, 2>
    %233 = adf.buffer.create @L1_L1_B_62() : memref<32x32xf32, 2>
    %234 = adf.buffer.create @L1_L1_C_62() : memref<32x32xf32, 2>
    adf.connect(%arg46, %232) : (!adf.plio<In, 128>, memref<32x32xf32, 2>)
    adf.connect(%arg41, %233) : (!adf.plio<In, 128>, memref<32x32xf32, 2>)
    adf.connect(%231, %234) : (memref<32x32xf32, 2>, memref<32x32xf32, 2>)
    %235 = call @kernel_gemm(%232, %233, %234) {adf.kernel, "col, row" = [9 : index, 7 : index], ivs = [2 : index, 7 : index, 1 : index], kernel_gemm = 62 : index} : (memref<32x32xf32, 2>, memref<32x32xf32, 2>, memref<32x32xf32, 2>) -> memref<32x32xf32, 2>
    adf.buffer.location(%235, %c10, %c7, %c16384, %c24576) : (memref<32x32xf32, 2>, index, index, index, index)
    adf.buffer.location(%233, %c9, %c7, %c4096, %c12288) : (memref<32x32xf32, 2>, index, index, index, index)
    adf.buffer.location(%232, %c9, %c6, %c4096, %c12288) : (memref<32x32xf32, 2>, index, index, index, index)
    %236 = adf.buffer.create @L1_L1_A_63() : memref<32x32xf32, 2>
    %237 = adf.buffer.create @L1_L1_B_63() : memref<32x32xf32, 2>
    %238 = adf.buffer.create @L1_L1_C_63() : memref<32x32xf32, 2>
    adf.connect(%arg47, %236) : (!adf.plio<In, 128>, memref<32x32xf32, 2>)
    adf.connect(%arg42, %237) : (!adf.plio<In, 128>, memref<32x32xf32, 2>)
    adf.connect(%235, %238) : (memref<32x32xf32, 2>, memref<32x32xf32, 2>)
    %239 = call @kernel_gemm(%236, %237, %238) {adf.kernel, "col, row" = [10 : index, 7 : index], ivs = [3 : index, 7 : index, 1 : index], kernel_gemm = 63 : index} : (memref<32x32xf32, 2>, memref<32x32xf32, 2>, memref<32x32xf32, 2>) -> memref<32x32xf32, 2>
    adf.buffer.location(%239, %c11, %c7, %c0, %c8192) : (memref<32x32xf32, 2>, index, index, index, index)
    adf.buffer.location(%237, %c10, %c7, %c4096, %c12288) : (memref<32x32xf32, 2>, index, index, index, index)
    adf.buffer.location(%236, %c10, %c6, %c4096, %c12288) : (memref<32x32xf32, 2>, index, index, index, index)
    adf.connect(%239, %arg55) {write = 3 : index} : (memref<32x32xf32, 2>, !adf.plio<Out, 128>)
    %240 = adf.buffer.create @L1_L1_A_64() : memref<32x32xf32, 2>
    %241 = adf.buffer.create @L1_L1_B_64() : memref<32x32xf32, 2>
    adf.connect(%arg56, %240) : (!adf.plio<In, 128>, memref<32x32xf32, 2>)
    adf.connect(%arg1, %241) : (!adf.plio<In, 128>, memref<32x32xf32, 2>)
    %242 = call @kernel_gemm0(%240, %241) {adf.kernel, "col, row" = [11 : index, 0 : index], ivs = [0 : index, 0 : index, 2 : index], kernel = 0 : index, kernel_gemm0 = 64 : index} : (memref<32x32xf32, 2>, memref<32x32xf32, 2>) -> memref<32x32xf32, 2>
    adf.buffer.location(%242, %c11, %c0, %c0, %c8192) : (memref<32x32xf32, 2>, index, index, index, index)
    adf.buffer.location(%241, %c10, %c0, %c4096, %c12288) : (memref<32x32xf32, 2>, index, index, index, index)
    adf.buffer.location(%240, %c11, %c1, %c16384, %c24576) : (memref<32x32xf32, 2>, index, index, index, index)
    %243 = adf.buffer.create @L1_L1_A_65() : memref<32x32xf32, 2>
    %244 = adf.buffer.create @L1_L1_B_65() : memref<32x32xf32, 2>
    %245 = adf.buffer.create @L1_L1_C_65() : memref<32x32xf32, 2>
    adf.connect(%arg57, %243) : (!adf.plio<In, 128>, memref<32x32xf32, 2>)
    adf.connect(%arg3, %244) : (!adf.plio<In, 128>, memref<32x32xf32, 2>)
    adf.connect(%242, %245) : (memref<32x32xf32, 2>, memref<32x32xf32, 2>)
    %246 = call @kernel_gemm(%243, %244, %245) {adf.kernel, "col, row" = [12 : index, 0 : index], ivs = [1 : index, 0 : index, 2 : index], kernel_gemm = 65 : index} : (memref<32x32xf32, 2>, memref<32x32xf32, 2>, memref<32x32xf32, 2>) -> memref<32x32xf32, 2>
    adf.buffer.location(%246, %c12, %c0, %c0, %c8192) : (memref<32x32xf32, 2>, index, index, index, index)
    adf.buffer.location(%244, %c11, %c0, %c16384, %c24576) : (memref<32x32xf32, 2>, index, index, index, index)
    adf.buffer.location(%243, %c12, %c1, %c0, %c8192) : (memref<32x32xf32, 2>, index, index, index, index)
    %247 = adf.buffer.create @L1_L1_A_66() : memref<32x32xf32, 2>
    %248 = adf.buffer.create @L1_L1_B_66() : memref<32x32xf32, 2>
    %249 = adf.buffer.create @L1_L1_C_66() : memref<32x32xf32, 2>
    adf.connect(%arg58, %247) : (!adf.plio<In, 128>, memref<32x32xf32, 2>)
    adf.connect(%arg5, %248) : (!adf.plio<In, 128>, memref<32x32xf32, 2>)
    adf.connect(%246, %249) : (memref<32x32xf32, 2>, memref<32x32xf32, 2>)
    %250 = call @kernel_gemm(%247, %248, %249) {adf.kernel, "col, row" = [13 : index, 0 : index], ivs = [2 : index, 0 : index, 2 : index], kernel_gemm = 66 : index} : (memref<32x32xf32, 2>, memref<32x32xf32, 2>, memref<32x32xf32, 2>) -> memref<32x32xf32, 2>
    adf.buffer.location(%250, %c13, %c0, %c0, %c8192) : (memref<32x32xf32, 2>, index, index, index, index)
    adf.buffer.location(%248, %c12, %c0, %c16384, %c24576) : (memref<32x32xf32, 2>, index, index, index, index)
    adf.buffer.location(%247, %c13, %c1, %c0, %c8192) : (memref<32x32xf32, 2>, index, index, index, index)
    %251 = adf.buffer.create @L1_L1_A_67() : memref<32x32xf32, 2>
    %252 = adf.buffer.create @L1_L1_B_67() : memref<32x32xf32, 2>
    %253 = adf.buffer.create @L1_L1_C_67() : memref<32x32xf32, 2>
    adf.connect(%arg59, %251) : (!adf.plio<In, 128>, memref<32x32xf32, 2>)
    adf.connect(%arg7, %252) : (!adf.plio<In, 128>, memref<32x32xf32, 2>)
    adf.connect(%250, %253) : (memref<32x32xf32, 2>, memref<32x32xf32, 2>)
    %254 = call @kernel_gemm(%251, %252, %253) {adf.kernel, "col, row" = [14 : index, 0 : index], ivs = [3 : index, 0 : index, 2 : index], kernel_gemm = 67 : index} : (memref<32x32xf32, 2>, memref<32x32xf32, 2>, memref<32x32xf32, 2>) -> memref<32x32xf32, 2>
    adf.buffer.location(%254, %c14, %c0, %c0, %c8192) : (memref<32x32xf32, 2>, index, index, index, index)
    adf.buffer.location(%252, %c13, %c0, %c16384, %c24576) : (memref<32x32xf32, 2>, index, index, index, index)
    adf.buffer.location(%251, %c14, %c1, %c0, %c8192) : (memref<32x32xf32, 2>, index, index, index, index)
    adf.connect(%254, %arg60) {write = 3 : index} : (memref<32x32xf32, 2>, !adf.plio<Out, 128>)
    %255 = adf.buffer.create @L1_L1_A_68() : memref<32x32xf32, 2>
    %256 = adf.buffer.create @L1_L1_B_68() : memref<32x32xf32, 2>
    adf.connect(%arg56, %255) : (!adf.plio<In, 128>, memref<32x32xf32, 2>)
    adf.connect(%arg9, %256) : (!adf.plio<In, 128>, memref<32x32xf32, 2>)
    %257 = call @kernel_gemm0(%255, %256) {adf.kernel, "col, row" = [11 : index, 1 : index], ivs = [0 : index, 1 : index, 2 : index], kernel = 0 : index, kernel_gemm0 = 68 : index} : (memref<32x32xf32, 2>, memref<32x32xf32, 2>) -> memref<32x32xf32, 2>
    adf.buffer.location(%257, %c12, %c1, %c16384, %c24576) : (memref<32x32xf32, 2>, index, index, index, index)
    adf.buffer.location(%256, %c11, %c2, %c0, %c8192) : (memref<32x32xf32, 2>, index, index, index, index)
    adf.buffer.location(%255, %c11, %c0, %c4096, %c12288) : (memref<32x32xf32, 2>, index, index, index, index)
    %258 = adf.buffer.create @L1_L1_A_69() : memref<32x32xf32, 2>
    %259 = adf.buffer.create @L1_L1_B_69() : memref<32x32xf32, 2>
    %260 = adf.buffer.create @L1_L1_C_69() : memref<32x32xf32, 2>
    adf.connect(%arg57, %258) : (!adf.plio<In, 128>, memref<32x32xf32, 2>)
    adf.connect(%arg10, %259) : (!adf.plio<In, 128>, memref<32x32xf32, 2>)
    adf.connect(%257, %260) : (memref<32x32xf32, 2>, memref<32x32xf32, 2>)
    %261 = call @kernel_gemm(%258, %259, %260) {adf.kernel, "col, row" = [12 : index, 1 : index], ivs = [1 : index, 1 : index, 2 : index], kernel_gemm = 69 : index} : (memref<32x32xf32, 2>, memref<32x32xf32, 2>, memref<32x32xf32, 2>) -> memref<32x32xf32, 2>
    adf.buffer.location(%261, %c13, %c1, %c16384, %c24576) : (memref<32x32xf32, 2>, index, index, index, index)
    adf.buffer.location(%259, %c12, %c2, %c0, %c8192) : (memref<32x32xf32, 2>, index, index, index, index)
    adf.buffer.location(%258, %c12, %c0, %c4096, %c12288) : (memref<32x32xf32, 2>, index, index, index, index)
    %262 = adf.buffer.create @L1_L1_A_70() : memref<32x32xf32, 2>
    %263 = adf.buffer.create @L1_L1_B_70() : memref<32x32xf32, 2>
    %264 = adf.buffer.create @L1_L1_C_70() : memref<32x32xf32, 2>
    adf.connect(%arg58, %262) : (!adf.plio<In, 128>, memref<32x32xf32, 2>)
    adf.connect(%arg11, %263) : (!adf.plio<In, 128>, memref<32x32xf32, 2>)
    adf.connect(%261, %264) : (memref<32x32xf32, 2>, memref<32x32xf32, 2>)
    %265 = call @kernel_gemm(%262, %263, %264) {adf.kernel, "col, row" = [13 : index, 1 : index], ivs = [2 : index, 1 : index, 2 : index], kernel_gemm = 70 : index} : (memref<32x32xf32, 2>, memref<32x32xf32, 2>, memref<32x32xf32, 2>) -> memref<32x32xf32, 2>
    adf.buffer.location(%265, %c14, %c1, %c16384, %c24576) : (memref<32x32xf32, 2>, index, index, index, index)
    adf.buffer.location(%263, %c13, %c2, %c0, %c8192) : (memref<32x32xf32, 2>, index, index, index, index)
    adf.buffer.location(%262, %c13, %c0, %c4096, %c12288) : (memref<32x32xf32, 2>, index, index, index, index)
    %266 = adf.buffer.create @L1_L1_A_71() : memref<32x32xf32, 2>
    %267 = adf.buffer.create @L1_L1_B_71() : memref<32x32xf32, 2>
    %268 = adf.buffer.create @L1_L1_C_71() : memref<32x32xf32, 2>
    adf.connect(%arg59, %266) : (!adf.plio<In, 128>, memref<32x32xf32, 2>)
    adf.connect(%arg12, %267) : (!adf.plio<In, 128>, memref<32x32xf32, 2>)
    adf.connect(%265, %268) : (memref<32x32xf32, 2>, memref<32x32xf32, 2>)
    %269 = call @kernel_gemm(%266, %267, %268) {adf.kernel, "col, row" = [14 : index, 1 : index], ivs = [3 : index, 1 : index, 2 : index], kernel_gemm = 71 : index} : (memref<32x32xf32, 2>, memref<32x32xf32, 2>, memref<32x32xf32, 2>) -> memref<32x32xf32, 2>
    adf.buffer.location(%269, %c15, %c1, %c0, %c8192) : (memref<32x32xf32, 2>, index, index, index, index)
    adf.buffer.location(%267, %c14, %c2, %c0, %c8192) : (memref<32x32xf32, 2>, index, index, index, index)
    adf.buffer.location(%266, %c14, %c0, %c16384, %c24576) : (memref<32x32xf32, 2>, index, index, index, index)
    adf.connect(%269, %arg61) {write = 3 : index} : (memref<32x32xf32, 2>, !adf.plio<Out, 128>)
    %270 = adf.buffer.create @L1_L1_A_72() : memref<32x32xf32, 2>
    %271 = adf.buffer.create @L1_L1_B_72() : memref<32x32xf32, 2>
    adf.connect(%arg56, %270) : (!adf.plio<In, 128>, memref<32x32xf32, 2>)
    adf.connect(%arg14, %271) : (!adf.plio<In, 128>, memref<32x32xf32, 2>)
    %272 = call @kernel_gemm0(%270, %271) {adf.kernel, "col, row" = [11 : index, 2 : index], ivs = [0 : index, 2 : index, 2 : index], kernel = 0 : index, kernel_gemm0 = 72 : index} : (memref<32x32xf32, 2>, memref<32x32xf32, 2>) -> memref<32x32xf32, 2>
    adf.buffer.location(%272, %c11, %c2, %c16384, %c24576) : (memref<32x32xf32, 2>, index, index, index, index)
    adf.buffer.location(%271, %c11, %c3, %c16384, %c24576) : (memref<32x32xf32, 2>, index, index, index, index)
    adf.buffer.location(%270, %c11, %c1, %c4096, %c12288) : (memref<32x32xf32, 2>, index, index, index, index)
    %273 = adf.buffer.create @L1_L1_A_73() : memref<32x32xf32, 2>
    %274 = adf.buffer.create @L1_L1_B_73() : memref<32x32xf32, 2>
    %275 = adf.buffer.create @L1_L1_C_73() : memref<32x32xf32, 2>
    adf.connect(%arg57, %273) : (!adf.plio<In, 128>, memref<32x32xf32, 2>)
    adf.connect(%arg15, %274) : (!adf.plio<In, 128>, memref<32x32xf32, 2>)
    adf.connect(%272, %275) : (memref<32x32xf32, 2>, memref<32x32xf32, 2>)
    %276 = call @kernel_gemm(%273, %274, %275) {adf.kernel, "col, row" = [12 : index, 2 : index], ivs = [1 : index, 2 : index, 2 : index], kernel_gemm = 73 : index} : (memref<32x32xf32, 2>, memref<32x32xf32, 2>, memref<32x32xf32, 2>) -> memref<32x32xf32, 2>
    adf.buffer.location(%276, %c12, %c2, %c16384, %c24576) : (memref<32x32xf32, 2>, index, index, index, index)
    adf.buffer.location(%274, %c12, %c3, %c0, %c8192) : (memref<32x32xf32, 2>, index, index, index, index)
    adf.buffer.location(%273, %c12, %c1, %c4096, %c12288) : (memref<32x32xf32, 2>, index, index, index, index)
    %277 = adf.buffer.create @L1_L1_A_74() : memref<32x32xf32, 2>
    %278 = adf.buffer.create @L1_L1_B_74() : memref<32x32xf32, 2>
    %279 = adf.buffer.create @L1_L1_C_74() : memref<32x32xf32, 2>
    adf.connect(%arg58, %277) : (!adf.plio<In, 128>, memref<32x32xf32, 2>)
    adf.connect(%arg16, %278) : (!adf.plio<In, 128>, memref<32x32xf32, 2>)
    adf.connect(%276, %279) : (memref<32x32xf32, 2>, memref<32x32xf32, 2>)
    %280 = call @kernel_gemm(%277, %278, %279) {adf.kernel, "col, row" = [13 : index, 2 : index], ivs = [2 : index, 2 : index, 2 : index], kernel_gemm = 74 : index} : (memref<32x32xf32, 2>, memref<32x32xf32, 2>, memref<32x32xf32, 2>) -> memref<32x32xf32, 2>
    adf.buffer.location(%280, %c13, %c2, %c16384, %c24576) : (memref<32x32xf32, 2>, index, index, index, index)
    adf.buffer.location(%278, %c13, %c3, %c0, %c8192) : (memref<32x32xf32, 2>, index, index, index, index)
    adf.buffer.location(%277, %c13, %c1, %c4096, %c12288) : (memref<32x32xf32, 2>, index, index, index, index)
    %281 = adf.buffer.create @L1_L1_A_75() : memref<32x32xf32, 2>
    %282 = adf.buffer.create @L1_L1_B_75() : memref<32x32xf32, 2>
    %283 = adf.buffer.create @L1_L1_C_75() : memref<32x32xf32, 2>
    adf.connect(%arg59, %281) : (!adf.plio<In, 128>, memref<32x32xf32, 2>)
    adf.connect(%arg17, %282) : (!adf.plio<In, 128>, memref<32x32xf32, 2>)
    adf.connect(%280, %283) : (memref<32x32xf32, 2>, memref<32x32xf32, 2>)
    %284 = call @kernel_gemm(%281, %282, %283) {adf.kernel, "col, row" = [14 : index, 2 : index], ivs = [3 : index, 2 : index, 2 : index], kernel_gemm = 75 : index} : (memref<32x32xf32, 2>, memref<32x32xf32, 2>, memref<32x32xf32, 2>) -> memref<32x32xf32, 2>
    adf.buffer.location(%284, %c14, %c2, %c16384, %c24576) : (memref<32x32xf32, 2>, index, index, index, index)
    adf.buffer.location(%282, %c14, %c3, %c0, %c8192) : (memref<32x32xf32, 2>, index, index, index, index)
    adf.buffer.location(%281, %c14, %c1, %c4096, %c12288) : (memref<32x32xf32, 2>, index, index, index, index)
    adf.connect(%284, %arg62) {write = 3 : index} : (memref<32x32xf32, 2>, !adf.plio<Out, 128>)
    %285 = adf.buffer.create @L1_L1_A_76() : memref<32x32xf32, 2>
    %286 = adf.buffer.create @L1_L1_B_76() : memref<32x32xf32, 2>
    adf.connect(%arg56, %285) : (!adf.plio<In, 128>, memref<32x32xf32, 2>)
    adf.connect(%arg19, %286) : (!adf.plio<In, 128>, memref<32x32xf32, 2>)
    %287 = call @kernel_gemm0(%285, %286) {adf.kernel, "col, row" = [11 : index, 3 : index], ivs = [0 : index, 3 : index, 2 : index], kernel = 0 : index, kernel_gemm0 = 76 : index} : (memref<32x32xf32, 2>, memref<32x32xf32, 2>) -> memref<32x32xf32, 2>
    adf.buffer.location(%287, %c12, %c3, %c16384, %c24576) : (memref<32x32xf32, 2>, index, index, index, index)
    adf.buffer.location(%286, %c11, %c4, %c0, %c8192) : (memref<32x32xf32, 2>, index, index, index, index)
    adf.buffer.location(%285, %c11, %c2, %c4096, %c12288) : (memref<32x32xf32, 2>, index, index, index, index)
    %288 = adf.buffer.create @L1_L1_A_77() : memref<32x32xf32, 2>
    %289 = adf.buffer.create @L1_L1_B_77() : memref<32x32xf32, 2>
    %290 = adf.buffer.create @L1_L1_C_77() : memref<32x32xf32, 2>
    adf.connect(%arg57, %288) : (!adf.plio<In, 128>, memref<32x32xf32, 2>)
    adf.connect(%arg20, %289) : (!adf.plio<In, 128>, memref<32x32xf32, 2>)
    adf.connect(%287, %290) : (memref<32x32xf32, 2>, memref<32x32xf32, 2>)
    %291 = call @kernel_gemm(%288, %289, %290) {adf.kernel, "col, row" = [12 : index, 3 : index], ivs = [1 : index, 3 : index, 2 : index], kernel_gemm = 77 : index} : (memref<32x32xf32, 2>, memref<32x32xf32, 2>, memref<32x32xf32, 2>) -> memref<32x32xf32, 2>
    adf.buffer.location(%291, %c13, %c3, %c16384, %c24576) : (memref<32x32xf32, 2>, index, index, index, index)
    adf.buffer.location(%289, %c12, %c4, %c0, %c8192) : (memref<32x32xf32, 2>, index, index, index, index)
    adf.buffer.location(%288, %c12, %c2, %c4096, %c12288) : (memref<32x32xf32, 2>, index, index, index, index)
    %292 = adf.buffer.create @L1_L1_A_78() : memref<32x32xf32, 2>
    %293 = adf.buffer.create @L1_L1_B_78() : memref<32x32xf32, 2>
    %294 = adf.buffer.create @L1_L1_C_78() : memref<32x32xf32, 2>
    adf.connect(%arg58, %292) : (!adf.plio<In, 128>, memref<32x32xf32, 2>)
    adf.connect(%arg21, %293) : (!adf.plio<In, 128>, memref<32x32xf32, 2>)
    adf.connect(%291, %294) : (memref<32x32xf32, 2>, memref<32x32xf32, 2>)
    %295 = call @kernel_gemm(%292, %293, %294) {adf.kernel, "col, row" = [13 : index, 3 : index], ivs = [2 : index, 3 : index, 2 : index], kernel_gemm = 78 : index} : (memref<32x32xf32, 2>, memref<32x32xf32, 2>, memref<32x32xf32, 2>) -> memref<32x32xf32, 2>
    adf.buffer.location(%295, %c14, %c3, %c16384, %c24576) : (memref<32x32xf32, 2>, index, index, index, index)
    adf.buffer.location(%293, %c13, %c4, %c0, %c8192) : (memref<32x32xf32, 2>, index, index, index, index)
    adf.buffer.location(%292, %c13, %c2, %c4096, %c12288) : (memref<32x32xf32, 2>, index, index, index, index)
    %296 = adf.buffer.create @L1_L1_A_79() : memref<32x32xf32, 2>
    %297 = adf.buffer.create @L1_L1_B_79() : memref<32x32xf32, 2>
    %298 = adf.buffer.create @L1_L1_C_79() : memref<32x32xf32, 2>
    adf.connect(%arg59, %296) : (!adf.plio<In, 128>, memref<32x32xf32, 2>)
    adf.connect(%arg22, %297) : (!adf.plio<In, 128>, memref<32x32xf32, 2>)
    adf.connect(%295, %298) : (memref<32x32xf32, 2>, memref<32x32xf32, 2>)
    %299 = call @kernel_gemm(%296, %297, %298) {adf.kernel, "col, row" = [14 : index, 3 : index], ivs = [3 : index, 3 : index, 2 : index], kernel_gemm = 79 : index} : (memref<32x32xf32, 2>, memref<32x32xf32, 2>, memref<32x32xf32, 2>) -> memref<32x32xf32, 2>
    adf.buffer.location(%299, %c15, %c3, %c0, %c8192) : (memref<32x32xf32, 2>, index, index, index, index)
    adf.buffer.location(%297, %c14, %c4, %c0, %c8192) : (memref<32x32xf32, 2>, index, index, index, index)
    adf.buffer.location(%296, %c14, %c2, %c4096, %c12288) : (memref<32x32xf32, 2>, index, index, index, index)
    adf.connect(%299, %arg63) {write = 3 : index} : (memref<32x32xf32, 2>, !adf.plio<Out, 128>)
    %300 = adf.buffer.create @L1_L1_A_80() : memref<32x32xf32, 2>
    %301 = adf.buffer.create @L1_L1_B_80() : memref<32x32xf32, 2>
    adf.connect(%arg56, %300) : (!adf.plio<In, 128>, memref<32x32xf32, 2>)
    adf.connect(%arg24, %301) : (!adf.plio<In, 128>, memref<32x32xf32, 2>)
    %302 = call @kernel_gemm0(%300, %301) {adf.kernel, "col, row" = [11 : index, 4 : index], ivs = [0 : index, 4 : index, 2 : index], kernel = 0 : index, kernel_gemm0 = 80 : index} : (memref<32x32xf32, 2>, memref<32x32xf32, 2>) -> memref<32x32xf32, 2>
    adf.buffer.location(%302, %c11, %c4, %c16384, %c24576) : (memref<32x32xf32, 2>, index, index, index, index)
    adf.buffer.location(%301, %c11, %c5, %c16384, %c24576) : (memref<32x32xf32, 2>, index, index, index, index)
    adf.buffer.location(%300, %c11, %c3, %c4096, %c12288) : (memref<32x32xf32, 2>, index, index, index, index)
    %303 = adf.buffer.create @L1_L1_A_81() : memref<32x32xf32, 2>
    %304 = adf.buffer.create @L1_L1_B_81() : memref<32x32xf32, 2>
    %305 = adf.buffer.create @L1_L1_C_81() : memref<32x32xf32, 2>
    adf.connect(%arg57, %303) : (!adf.plio<In, 128>, memref<32x32xf32, 2>)
    adf.connect(%arg25, %304) : (!adf.plio<In, 128>, memref<32x32xf32, 2>)
    adf.connect(%302, %305) : (memref<32x32xf32, 2>, memref<32x32xf32, 2>)
    %306 = call @kernel_gemm(%303, %304, %305) {adf.kernel, "col, row" = [12 : index, 4 : index], ivs = [1 : index, 4 : index, 2 : index], kernel_gemm = 81 : index} : (memref<32x32xf32, 2>, memref<32x32xf32, 2>, memref<32x32xf32, 2>) -> memref<32x32xf32, 2>
    adf.buffer.location(%306, %c12, %c4, %c16384, %c24576) : (memref<32x32xf32, 2>, index, index, index, index)
    adf.buffer.location(%304, %c12, %c5, %c0, %c8192) : (memref<32x32xf32, 2>, index, index, index, index)
    adf.buffer.location(%303, %c12, %c3, %c4096, %c12288) : (memref<32x32xf32, 2>, index, index, index, index)
    %307 = adf.buffer.create @L1_L1_A_82() : memref<32x32xf32, 2>
    %308 = adf.buffer.create @L1_L1_B_82() : memref<32x32xf32, 2>
    %309 = adf.buffer.create @L1_L1_C_82() : memref<32x32xf32, 2>
    adf.connect(%arg58, %307) : (!adf.plio<In, 128>, memref<32x32xf32, 2>)
    adf.connect(%arg26, %308) : (!adf.plio<In, 128>, memref<32x32xf32, 2>)
    adf.connect(%306, %309) : (memref<32x32xf32, 2>, memref<32x32xf32, 2>)
    %310 = call @kernel_gemm(%307, %308, %309) {adf.kernel, "col, row" = [13 : index, 4 : index], ivs = [2 : index, 4 : index, 2 : index], kernel_gemm = 82 : index} : (memref<32x32xf32, 2>, memref<32x32xf32, 2>, memref<32x32xf32, 2>) -> memref<32x32xf32, 2>
    adf.buffer.location(%310, %c13, %c4, %c16384, %c24576) : (memref<32x32xf32, 2>, index, index, index, index)
    adf.buffer.location(%308, %c13, %c5, %c0, %c8192) : (memref<32x32xf32, 2>, index, index, index, index)
    adf.buffer.location(%307, %c13, %c3, %c4096, %c12288) : (memref<32x32xf32, 2>, index, index, index, index)
    %311 = adf.buffer.create @L1_L1_A_83() : memref<32x32xf32, 2>
    %312 = adf.buffer.create @L1_L1_B_83() : memref<32x32xf32, 2>
    %313 = adf.buffer.create @L1_L1_C_83() : memref<32x32xf32, 2>
    adf.connect(%arg59, %311) : (!adf.plio<In, 128>, memref<32x32xf32, 2>)
    adf.connect(%arg27, %312) : (!adf.plio<In, 128>, memref<32x32xf32, 2>)
    adf.connect(%310, %313) : (memref<32x32xf32, 2>, memref<32x32xf32, 2>)
    %314 = call @kernel_gemm(%311, %312, %313) {adf.kernel, "col, row" = [14 : index, 4 : index], ivs = [3 : index, 4 : index, 2 : index], kernel_gemm = 83 : index} : (memref<32x32xf32, 2>, memref<32x32xf32, 2>, memref<32x32xf32, 2>) -> memref<32x32xf32, 2>
    adf.buffer.location(%314, %c14, %c4, %c16384, %c24576) : (memref<32x32xf32, 2>, index, index, index, index)
    adf.buffer.location(%312, %c14, %c5, %c0, %c8192) : (memref<32x32xf32, 2>, index, index, index, index)
    adf.buffer.location(%311, %c14, %c3, %c4096, %c12288) : (memref<32x32xf32, 2>, index, index, index, index)
    adf.connect(%314, %arg64) {write = 3 : index} : (memref<32x32xf32, 2>, !adf.plio<Out, 128>)
    %315 = adf.buffer.create @L1_L1_A_84() : memref<32x32xf32, 2>
    %316 = adf.buffer.create @L1_L1_B_84() : memref<32x32xf32, 2>
    adf.connect(%arg56, %315) : (!adf.plio<In, 128>, memref<32x32xf32, 2>)
    adf.connect(%arg29, %316) : (!adf.plio<In, 128>, memref<32x32xf32, 2>)
    %317 = call @kernel_gemm0(%315, %316) {adf.kernel, "col, row" = [11 : index, 5 : index], ivs = [0 : index, 5 : index, 2 : index], kernel = 0 : index, kernel_gemm0 = 84 : index} : (memref<32x32xf32, 2>, memref<32x32xf32, 2>) -> memref<32x32xf32, 2>
    adf.buffer.location(%317, %c12, %c5, %c16384, %c24576) : (memref<32x32xf32, 2>, index, index, index, index)
    adf.buffer.location(%316, %c11, %c6, %c0, %c8192) : (memref<32x32xf32, 2>, index, index, index, index)
    adf.buffer.location(%315, %c11, %c4, %c4096, %c12288) : (memref<32x32xf32, 2>, index, index, index, index)
    %318 = adf.buffer.create @L1_L1_A_85() : memref<32x32xf32, 2>
    %319 = adf.buffer.create @L1_L1_B_85() : memref<32x32xf32, 2>
    %320 = adf.buffer.create @L1_L1_C_85() : memref<32x32xf32, 2>
    adf.connect(%arg57, %318) : (!adf.plio<In, 128>, memref<32x32xf32, 2>)
    adf.connect(%arg30, %319) : (!adf.plio<In, 128>, memref<32x32xf32, 2>)
    adf.connect(%317, %320) : (memref<32x32xf32, 2>, memref<32x32xf32, 2>)
    %321 = call @kernel_gemm(%318, %319, %320) {adf.kernel, "col, row" = [12 : index, 5 : index], ivs = [1 : index, 5 : index, 2 : index], kernel_gemm = 85 : index} : (memref<32x32xf32, 2>, memref<32x32xf32, 2>, memref<32x32xf32, 2>) -> memref<32x32xf32, 2>
    adf.buffer.location(%321, %c13, %c5, %c16384, %c24576) : (memref<32x32xf32, 2>, index, index, index, index)
    adf.buffer.location(%319, %c12, %c6, %c0, %c8192) : (memref<32x32xf32, 2>, index, index, index, index)
    adf.buffer.location(%318, %c12, %c4, %c4096, %c12288) : (memref<32x32xf32, 2>, index, index, index, index)
    %322 = adf.buffer.create @L1_L1_A_86() : memref<32x32xf32, 2>
    %323 = adf.buffer.create @L1_L1_B_86() : memref<32x32xf32, 2>
    %324 = adf.buffer.create @L1_L1_C_86() : memref<32x32xf32, 2>
    adf.connect(%arg58, %322) : (!adf.plio<In, 128>, memref<32x32xf32, 2>)
    adf.connect(%arg31, %323) : (!adf.plio<In, 128>, memref<32x32xf32, 2>)
    adf.connect(%321, %324) : (memref<32x32xf32, 2>, memref<32x32xf32, 2>)
    %325 = call @kernel_gemm(%322, %323, %324) {adf.kernel, "col, row" = [13 : index, 5 : index], ivs = [2 : index, 5 : index, 2 : index], kernel_gemm = 86 : index} : (memref<32x32xf32, 2>, memref<32x32xf32, 2>, memref<32x32xf32, 2>) -> memref<32x32xf32, 2>
    adf.buffer.location(%325, %c14, %c5, %c16384, %c24576) : (memref<32x32xf32, 2>, index, index, index, index)
    adf.buffer.location(%323, %c13, %c6, %c0, %c8192) : (memref<32x32xf32, 2>, index, index, index, index)
    adf.buffer.location(%322, %c13, %c4, %c4096, %c12288) : (memref<32x32xf32, 2>, index, index, index, index)
    %326 = adf.buffer.create @L1_L1_A_87() : memref<32x32xf32, 2>
    %327 = adf.buffer.create @L1_L1_B_87() : memref<32x32xf32, 2>
    %328 = adf.buffer.create @L1_L1_C_87() : memref<32x32xf32, 2>
    adf.connect(%arg59, %326) : (!adf.plio<In, 128>, memref<32x32xf32, 2>)
    adf.connect(%arg32, %327) : (!adf.plio<In, 128>, memref<32x32xf32, 2>)
    adf.connect(%325, %328) : (memref<32x32xf32, 2>, memref<32x32xf32, 2>)
    %329 = call @kernel_gemm(%326, %327, %328) {adf.kernel, "col, row" = [14 : index, 5 : index], ivs = [3 : index, 5 : index, 2 : index], kernel_gemm = 87 : index} : (memref<32x32xf32, 2>, memref<32x32xf32, 2>, memref<32x32xf32, 2>) -> memref<32x32xf32, 2>
    adf.buffer.location(%329, %c15, %c5, %c0, %c8192) : (memref<32x32xf32, 2>, index, index, index, index)
    adf.buffer.location(%327, %c14, %c6, %c0, %c8192) : (memref<32x32xf32, 2>, index, index, index, index)
    adf.buffer.location(%326, %c14, %c4, %c4096, %c12288) : (memref<32x32xf32, 2>, index, index, index, index)
    adf.connect(%329, %arg65) {write = 3 : index} : (memref<32x32xf32, 2>, !adf.plio<Out, 128>)
    %330 = adf.buffer.create @L1_L1_A_88() : memref<32x32xf32, 2>
    %331 = adf.buffer.create @L1_L1_B_88() : memref<32x32xf32, 2>
    adf.connect(%arg56, %330) : (!adf.plio<In, 128>, memref<32x32xf32, 2>)
    adf.connect(%arg34, %331) : (!adf.plio<In, 128>, memref<32x32xf32, 2>)
    %332 = call @kernel_gemm0(%330, %331) {adf.kernel, "col, row" = [11 : index, 6 : index], ivs = [0 : index, 6 : index, 2 : index], kernel = 0 : index, kernel_gemm0 = 88 : index} : (memref<32x32xf32, 2>, memref<32x32xf32, 2>) -> memref<32x32xf32, 2>
    adf.buffer.location(%332, %c11, %c6, %c16384, %c24576) : (memref<32x32xf32, 2>, index, index, index, index)
    adf.buffer.location(%331, %c11, %c7, %c16384, %c24576) : (memref<32x32xf32, 2>, index, index, index, index)
    adf.buffer.location(%330, %c11, %c5, %c4096, %c12288) : (memref<32x32xf32, 2>, index, index, index, index)
    %333 = adf.buffer.create @L1_L1_A_89() : memref<32x32xf32, 2>
    %334 = adf.buffer.create @L1_L1_B_89() : memref<32x32xf32, 2>
    %335 = adf.buffer.create @L1_L1_C_89() : memref<32x32xf32, 2>
    adf.connect(%arg57, %333) : (!adf.plio<In, 128>, memref<32x32xf32, 2>)
    adf.connect(%arg35, %334) : (!adf.plio<In, 128>, memref<32x32xf32, 2>)
    adf.connect(%332, %335) : (memref<32x32xf32, 2>, memref<32x32xf32, 2>)
    %336 = call @kernel_gemm(%333, %334, %335) {adf.kernel, "col, row" = [12 : index, 6 : index], ivs = [1 : index, 6 : index, 2 : index], kernel_gemm = 89 : index} : (memref<32x32xf32, 2>, memref<32x32xf32, 2>, memref<32x32xf32, 2>) -> memref<32x32xf32, 2>
    adf.buffer.location(%336, %c12, %c6, %c16384, %c24576) : (memref<32x32xf32, 2>, index, index, index, index)
    adf.buffer.location(%334, %c12, %c7, %c0, %c8192) : (memref<32x32xf32, 2>, index, index, index, index)
    adf.buffer.location(%333, %c12, %c5, %c4096, %c12288) : (memref<32x32xf32, 2>, index, index, index, index)
    %337 = adf.buffer.create @L1_L1_A_90() : memref<32x32xf32, 2>
    %338 = adf.buffer.create @L1_L1_B_90() : memref<32x32xf32, 2>
    %339 = adf.buffer.create @L1_L1_C_90() : memref<32x32xf32, 2>
    adf.connect(%arg58, %337) : (!adf.plio<In, 128>, memref<32x32xf32, 2>)
    adf.connect(%arg36, %338) : (!adf.plio<In, 128>, memref<32x32xf32, 2>)
    adf.connect(%336, %339) : (memref<32x32xf32, 2>, memref<32x32xf32, 2>)
    %340 = call @kernel_gemm(%337, %338, %339) {adf.kernel, "col, row" = [13 : index, 6 : index], ivs = [2 : index, 6 : index, 2 : index], kernel_gemm = 90 : index} : (memref<32x32xf32, 2>, memref<32x32xf32, 2>, memref<32x32xf32, 2>) -> memref<32x32xf32, 2>
    adf.buffer.location(%340, %c13, %c6, %c16384, %c24576) : (memref<32x32xf32, 2>, index, index, index, index)
    adf.buffer.location(%338, %c13, %c7, %c0, %c8192) : (memref<32x32xf32, 2>, index, index, index, index)
    adf.buffer.location(%337, %c13, %c5, %c4096, %c12288) : (memref<32x32xf32, 2>, index, index, index, index)
    %341 = adf.buffer.create @L1_L1_A_91() : memref<32x32xf32, 2>
    %342 = adf.buffer.create @L1_L1_B_91() : memref<32x32xf32, 2>
    %343 = adf.buffer.create @L1_L1_C_91() : memref<32x32xf32, 2>
    adf.connect(%arg59, %341) : (!adf.plio<In, 128>, memref<32x32xf32, 2>)
    adf.connect(%arg37, %342) : (!adf.plio<In, 128>, memref<32x32xf32, 2>)
    adf.connect(%340, %343) : (memref<32x32xf32, 2>, memref<32x32xf32, 2>)
    %344 = call @kernel_gemm(%341, %342, %343) {adf.kernel, "col, row" = [14 : index, 6 : index], ivs = [3 : index, 6 : index, 2 : index], kernel_gemm = 91 : index} : (memref<32x32xf32, 2>, memref<32x32xf32, 2>, memref<32x32xf32, 2>) -> memref<32x32xf32, 2>
    adf.buffer.location(%344, %c14, %c6, %c16384, %c24576) : (memref<32x32xf32, 2>, index, index, index, index)
    adf.buffer.location(%342, %c14, %c7, %c0, %c8192) : (memref<32x32xf32, 2>, index, index, index, index)
    adf.buffer.location(%341, %c14, %c5, %c4096, %c12288) : (memref<32x32xf32, 2>, index, index, index, index)
    adf.connect(%344, %arg66) {write = 3 : index} : (memref<32x32xf32, 2>, !adf.plio<Out, 128>)
    %345 = adf.buffer.create @L1_L1_A_92() : memref<32x32xf32, 2>
    %346 = adf.buffer.create @L1_L1_B_92() : memref<32x32xf32, 2>
    adf.connect(%arg56, %345) : (!adf.plio<In, 128>, memref<32x32xf32, 2>)
    adf.connect(%arg39, %346) : (!adf.plio<In, 128>, memref<32x32xf32, 2>)
    %347 = call @kernel_gemm0(%345, %346) {adf.kernel, "col, row" = [11 : index, 7 : index], ivs = [0 : index, 7 : index, 2 : index], kernel = 0 : index, kernel_gemm0 = 92 : index} : (memref<32x32xf32, 2>, memref<32x32xf32, 2>) -> memref<32x32xf32, 2>
    adf.buffer.location(%347, %c12, %c7, %c16384, %c24576) : (memref<32x32xf32, 2>, index, index, index, index)
    adf.buffer.location(%346, %c11, %c7, %c4096, %c12288) : (memref<32x32xf32, 2>, index, index, index, index)
    adf.buffer.location(%345, %c11, %c6, %c4096, %c12288) : (memref<32x32xf32, 2>, index, index, index, index)
    %348 = adf.buffer.create @L1_L1_A_93() : memref<32x32xf32, 2>
    %349 = adf.buffer.create @L1_L1_B_93() : memref<32x32xf32, 2>
    %350 = adf.buffer.create @L1_L1_C_93() : memref<32x32xf32, 2>
    adf.connect(%arg57, %348) : (!adf.plio<In, 128>, memref<32x32xf32, 2>)
    adf.connect(%arg40, %349) : (!adf.plio<In, 128>, memref<32x32xf32, 2>)
    adf.connect(%347, %350) : (memref<32x32xf32, 2>, memref<32x32xf32, 2>)
    %351 = call @kernel_gemm(%348, %349, %350) {adf.kernel, "col, row" = [12 : index, 7 : index], ivs = [1 : index, 7 : index, 2 : index], kernel_gemm = 93 : index} : (memref<32x32xf32, 2>, memref<32x32xf32, 2>, memref<32x32xf32, 2>) -> memref<32x32xf32, 2>
    adf.buffer.location(%351, %c13, %c7, %c16384, %c24576) : (memref<32x32xf32, 2>, index, index, index, index)
    adf.buffer.location(%349, %c12, %c7, %c4096, %c12288) : (memref<32x32xf32, 2>, index, index, index, index)
    adf.buffer.location(%348, %c12, %c6, %c4096, %c12288) : (memref<32x32xf32, 2>, index, index, index, index)
    %352 = adf.buffer.create @L1_L1_A_94() : memref<32x32xf32, 2>
    %353 = adf.buffer.create @L1_L1_B_94() : memref<32x32xf32, 2>
    %354 = adf.buffer.create @L1_L1_C_94() : memref<32x32xf32, 2>
    adf.connect(%arg58, %352) : (!adf.plio<In, 128>, memref<32x32xf32, 2>)
    adf.connect(%arg41, %353) : (!adf.plio<In, 128>, memref<32x32xf32, 2>)
    adf.connect(%351, %354) : (memref<32x32xf32, 2>, memref<32x32xf32, 2>)
    %355 = call @kernel_gemm(%352, %353, %354) {adf.kernel, "col, row" = [13 : index, 7 : index], ivs = [2 : index, 7 : index, 2 : index], kernel_gemm = 94 : index} : (memref<32x32xf32, 2>, memref<32x32xf32, 2>, memref<32x32xf32, 2>) -> memref<32x32xf32, 2>
    adf.buffer.location(%355, %c14, %c7, %c16384, %c24576) : (memref<32x32xf32, 2>, index, index, index, index)
    adf.buffer.location(%353, %c13, %c7, %c4096, %c12288) : (memref<32x32xf32, 2>, index, index, index, index)
    adf.buffer.location(%352, %c13, %c6, %c4096, %c12288) : (memref<32x32xf32, 2>, index, index, index, index)
    %356 = adf.buffer.create @L1_L1_A_95() : memref<32x32xf32, 2>
    %357 = adf.buffer.create @L1_L1_B_95() : memref<32x32xf32, 2>
    %358 = adf.buffer.create @L1_L1_C_95() : memref<32x32xf32, 2>
    adf.connect(%arg59, %356) : (!adf.plio<In, 128>, memref<32x32xf32, 2>)
    adf.connect(%arg42, %357) : (!adf.plio<In, 128>, memref<32x32xf32, 2>)
    adf.connect(%355, %358) : (memref<32x32xf32, 2>, memref<32x32xf32, 2>)
    %359 = call @kernel_gemm(%356, %357, %358) {adf.kernel, "col, row" = [14 : index, 7 : index], ivs = [3 : index, 7 : index, 2 : index], kernel_gemm = 95 : index} : (memref<32x32xf32, 2>, memref<32x32xf32, 2>, memref<32x32xf32, 2>) -> memref<32x32xf32, 2>
    adf.buffer.location(%359, %c15, %c7, %c0, %c8192) : (memref<32x32xf32, 2>, index, index, index, index)
    adf.buffer.location(%357, %c14, %c7, %c4096, %c12288) : (memref<32x32xf32, 2>, index, index, index, index)
    adf.buffer.location(%356, %c14, %c6, %c4096, %c12288) : (memref<32x32xf32, 2>, index, index, index, index)
    adf.connect(%359, %arg67) {write = 3 : index} : (memref<32x32xf32, 2>, !adf.plio<Out, 128>)
    %360 = adf.buffer.create @L1_L1_A_96() : memref<32x32xf32, 2>
    %361 = adf.buffer.create @L1_L1_B_96() : memref<32x32xf32, 2>
    adf.connect(%arg68, %360) : (!adf.plio<In, 128>, memref<32x32xf32, 2>)
    adf.connect(%arg1, %361) : (!adf.plio<In, 128>, memref<32x32xf32, 2>)
    %362 = call @kernel_gemm0(%360, %361) {adf.kernel, "col, row" = [15 : index, 0 : index], ivs = [0 : index, 0 : index, 3 : index], kernel = 0 : index, kernel_gemm0 = 96 : index} : (memref<32x32xf32, 2>, memref<32x32xf32, 2>) -> memref<32x32xf32, 2>
    adf.buffer.location(%362, %c15, %c0, %c0, %c8192) : (memref<32x32xf32, 2>, index, index, index, index)
    adf.buffer.location(%361, %c14, %c0, %c4096, %c12288) : (memref<32x32xf32, 2>, index, index, index, index)
    adf.buffer.location(%360, %c15, %c1, %c16384, %c24576) : (memref<32x32xf32, 2>, index, index, index, index)
    %363 = adf.buffer.create @L1_L1_A_97() : memref<32x32xf32, 2>
    %364 = adf.buffer.create @L1_L1_B_97() : memref<32x32xf32, 2>
    %365 = adf.buffer.create @L1_L1_C_97() : memref<32x32xf32, 2>
    adf.connect(%arg69, %363) : (!adf.plio<In, 128>, memref<32x32xf32, 2>)
    adf.connect(%arg3, %364) : (!adf.plio<In, 128>, memref<32x32xf32, 2>)
    adf.connect(%362, %365) : (memref<32x32xf32, 2>, memref<32x32xf32, 2>)
    %366 = call @kernel_gemm(%363, %364, %365) {adf.kernel, "col, row" = [16 : index, 0 : index], ivs = [1 : index, 0 : index, 3 : index], kernel_gemm = 97 : index} : (memref<32x32xf32, 2>, memref<32x32xf32, 2>, memref<32x32xf32, 2>) -> memref<32x32xf32, 2>
    adf.buffer.location(%366, %c16, %c0, %c0, %c8192) : (memref<32x32xf32, 2>, index, index, index, index)
    adf.buffer.location(%364, %c15, %c0, %c16384, %c24576) : (memref<32x32xf32, 2>, index, index, index, index)
    adf.buffer.location(%363, %c16, %c1, %c0, %c8192) : (memref<32x32xf32, 2>, index, index, index, index)
    %367 = adf.buffer.create @L1_L1_A_98() : memref<32x32xf32, 2>
    %368 = adf.buffer.create @L1_L1_B_98() : memref<32x32xf32, 2>
    %369 = adf.buffer.create @L1_L1_C_98() : memref<32x32xf32, 2>
    adf.connect(%arg70, %367) : (!adf.plio<In, 128>, memref<32x32xf32, 2>)
    adf.connect(%arg5, %368) : (!adf.plio<In, 128>, memref<32x32xf32, 2>)
    adf.connect(%366, %369) : (memref<32x32xf32, 2>, memref<32x32xf32, 2>)
    %370 = call @kernel_gemm(%367, %368, %369) {adf.kernel, "col, row" = [17 : index, 0 : index], ivs = [2 : index, 0 : index, 3 : index], kernel_gemm = 98 : index} : (memref<32x32xf32, 2>, memref<32x32xf32, 2>, memref<32x32xf32, 2>) -> memref<32x32xf32, 2>
    adf.buffer.location(%370, %c17, %c0, %c0, %c8192) : (memref<32x32xf32, 2>, index, index, index, index)
    adf.buffer.location(%368, %c16, %c0, %c16384, %c24576) : (memref<32x32xf32, 2>, index, index, index, index)
    adf.buffer.location(%367, %c17, %c1, %c0, %c8192) : (memref<32x32xf32, 2>, index, index, index, index)
    %371 = adf.buffer.create @L1_L1_A_99() : memref<32x32xf32, 2>
    %372 = adf.buffer.create @L1_L1_B_99() : memref<32x32xf32, 2>
    %373 = adf.buffer.create @L1_L1_C_99() : memref<32x32xf32, 2>
    adf.connect(%arg71, %371) : (!adf.plio<In, 128>, memref<32x32xf32, 2>)
    adf.connect(%arg7, %372) : (!adf.plio<In, 128>, memref<32x32xf32, 2>)
    adf.connect(%370, %373) : (memref<32x32xf32, 2>, memref<32x32xf32, 2>)
    %374 = call @kernel_gemm(%371, %372, %373) {adf.kernel, "col, row" = [18 : index, 0 : index], ivs = [3 : index, 0 : index, 3 : index], kernel_gemm = 99 : index} : (memref<32x32xf32, 2>, memref<32x32xf32, 2>, memref<32x32xf32, 2>) -> memref<32x32xf32, 2>
    adf.buffer.location(%374, %c18, %c0, %c0, %c8192) : (memref<32x32xf32, 2>, index, index, index, index)
    adf.buffer.location(%372, %c17, %c0, %c16384, %c24576) : (memref<32x32xf32, 2>, index, index, index, index)
    adf.buffer.location(%371, %c18, %c1, %c0, %c8192) : (memref<32x32xf32, 2>, index, index, index, index)
    adf.connect(%374, %arg72) {write = 3 : index} : (memref<32x32xf32, 2>, !adf.plio<Out, 128>)
    %375 = adf.buffer.create @L1_L1_A_100() : memref<32x32xf32, 2>
    %376 = adf.buffer.create @L1_L1_B_100() : memref<32x32xf32, 2>
    adf.connect(%arg68, %375) : (!adf.plio<In, 128>, memref<32x32xf32, 2>)
    adf.connect(%arg9, %376) : (!adf.plio<In, 128>, memref<32x32xf32, 2>)
    %377 = call @kernel_gemm0(%375, %376) {adf.kernel, "col, row" = [15 : index, 1 : index], ivs = [0 : index, 1 : index, 3 : index], kernel = 0 : index, kernel_gemm0 = 100 : index} : (memref<32x32xf32, 2>, memref<32x32xf32, 2>) -> memref<32x32xf32, 2>
    adf.buffer.location(%377, %c16, %c1, %c16384, %c24576) : (memref<32x32xf32, 2>, index, index, index, index)
    adf.buffer.location(%376, %c15, %c2, %c0, %c8192) : (memref<32x32xf32, 2>, index, index, index, index)
    adf.buffer.location(%375, %c15, %c0, %c4096, %c12288) : (memref<32x32xf32, 2>, index, index, index, index)
    %378 = adf.buffer.create @L1_L1_A_101() : memref<32x32xf32, 2>
    %379 = adf.buffer.create @L1_L1_B_101() : memref<32x32xf32, 2>
    %380 = adf.buffer.create @L1_L1_C_101() : memref<32x32xf32, 2>
    adf.connect(%arg69, %378) : (!adf.plio<In, 128>, memref<32x32xf32, 2>)
    adf.connect(%arg10, %379) : (!adf.plio<In, 128>, memref<32x32xf32, 2>)
    adf.connect(%377, %380) : (memref<32x32xf32, 2>, memref<32x32xf32, 2>)
    %381 = call @kernel_gemm(%378, %379, %380) {adf.kernel, "col, row" = [16 : index, 1 : index], ivs = [1 : index, 1 : index, 3 : index], kernel_gemm = 101 : index} : (memref<32x32xf32, 2>, memref<32x32xf32, 2>, memref<32x32xf32, 2>) -> memref<32x32xf32, 2>
    adf.buffer.location(%381, %c17, %c1, %c16384, %c24576) : (memref<32x32xf32, 2>, index, index, index, index)
    adf.buffer.location(%379, %c16, %c2, %c0, %c8192) : (memref<32x32xf32, 2>, index, index, index, index)
    adf.buffer.location(%378, %c16, %c0, %c4096, %c12288) : (memref<32x32xf32, 2>, index, index, index, index)
    %382 = adf.buffer.create @L1_L1_A_102() : memref<32x32xf32, 2>
    %383 = adf.buffer.create @L1_L1_B_102() : memref<32x32xf32, 2>
    %384 = adf.buffer.create @L1_L1_C_102() : memref<32x32xf32, 2>
    adf.connect(%arg70, %382) : (!adf.plio<In, 128>, memref<32x32xf32, 2>)
    adf.connect(%arg11, %383) : (!adf.plio<In, 128>, memref<32x32xf32, 2>)
    adf.connect(%381, %384) : (memref<32x32xf32, 2>, memref<32x32xf32, 2>)
    %385 = call @kernel_gemm(%382, %383, %384) {adf.kernel, "col, row" = [17 : index, 1 : index], ivs = [2 : index, 1 : index, 3 : index], kernel_gemm = 102 : index} : (memref<32x32xf32, 2>, memref<32x32xf32, 2>, memref<32x32xf32, 2>) -> memref<32x32xf32, 2>
    adf.buffer.location(%385, %c18, %c1, %c16384, %c24576) : (memref<32x32xf32, 2>, index, index, index, index)
    adf.buffer.location(%383, %c17, %c2, %c0, %c8192) : (memref<32x32xf32, 2>, index, index, index, index)
    adf.buffer.location(%382, %c17, %c0, %c4096, %c12288) : (memref<32x32xf32, 2>, index, index, index, index)
    %386 = adf.buffer.create @L1_L1_A_103() : memref<32x32xf32, 2>
    %387 = adf.buffer.create @L1_L1_B_103() : memref<32x32xf32, 2>
    %388 = adf.buffer.create @L1_L1_C_103() : memref<32x32xf32, 2>
    adf.connect(%arg71, %386) : (!adf.plio<In, 128>, memref<32x32xf32, 2>)
    adf.connect(%arg12, %387) : (!adf.plio<In, 128>, memref<32x32xf32, 2>)
    adf.connect(%385, %388) : (memref<32x32xf32, 2>, memref<32x32xf32, 2>)
    %389 = call @kernel_gemm(%386, %387, %388) {adf.kernel, "col, row" = [18 : index, 1 : index], ivs = [3 : index, 1 : index, 3 : index], kernel_gemm = 103 : index} : (memref<32x32xf32, 2>, memref<32x32xf32, 2>, memref<32x32xf32, 2>) -> memref<32x32xf32, 2>
    adf.buffer.location(%389, %c19, %c1, %c0, %c8192) : (memref<32x32xf32, 2>, index, index, index, index)
    adf.buffer.location(%387, %c18, %c2, %c0, %c8192) : (memref<32x32xf32, 2>, index, index, index, index)
    adf.buffer.location(%386, %c18, %c0, %c16384, %c24576) : (memref<32x32xf32, 2>, index, index, index, index)
    adf.connect(%389, %arg73) {write = 3 : index} : (memref<32x32xf32, 2>, !adf.plio<Out, 128>)
    %390 = adf.buffer.create @L1_L1_A_104() : memref<32x32xf32, 2>
    %391 = adf.buffer.create @L1_L1_B_104() : memref<32x32xf32, 2>
    adf.connect(%arg68, %390) : (!adf.plio<In, 128>, memref<32x32xf32, 2>)
    adf.connect(%arg14, %391) : (!adf.plio<In, 128>, memref<32x32xf32, 2>)
    %392 = call @kernel_gemm0(%390, %391) {adf.kernel, "col, row" = [15 : index, 2 : index], ivs = [0 : index, 2 : index, 3 : index], kernel = 0 : index, kernel_gemm0 = 104 : index} : (memref<32x32xf32, 2>, memref<32x32xf32, 2>) -> memref<32x32xf32, 2>
    adf.buffer.location(%392, %c15, %c2, %c16384, %c24576) : (memref<32x32xf32, 2>, index, index, index, index)
    adf.buffer.location(%391, %c15, %c3, %c16384, %c24576) : (memref<32x32xf32, 2>, index, index, index, index)
    adf.buffer.location(%390, %c15, %c1, %c4096, %c12288) : (memref<32x32xf32, 2>, index, index, index, index)
    %393 = adf.buffer.create @L1_L1_A_105() : memref<32x32xf32, 2>
    %394 = adf.buffer.create @L1_L1_B_105() : memref<32x32xf32, 2>
    %395 = adf.buffer.create @L1_L1_C_105() : memref<32x32xf32, 2>
    adf.connect(%arg69, %393) : (!adf.plio<In, 128>, memref<32x32xf32, 2>)
    adf.connect(%arg15, %394) : (!adf.plio<In, 128>, memref<32x32xf32, 2>)
    adf.connect(%392, %395) : (memref<32x32xf32, 2>, memref<32x32xf32, 2>)
    %396 = call @kernel_gemm(%393, %394, %395) {adf.kernel, "col, row" = [16 : index, 2 : index], ivs = [1 : index, 2 : index, 3 : index], kernel_gemm = 105 : index} : (memref<32x32xf32, 2>, memref<32x32xf32, 2>, memref<32x32xf32, 2>) -> memref<32x32xf32, 2>
    adf.buffer.location(%396, %c16, %c2, %c16384, %c24576) : (memref<32x32xf32, 2>, index, index, index, index)
    adf.buffer.location(%394, %c16, %c3, %c0, %c8192) : (memref<32x32xf32, 2>, index, index, index, index)
    adf.buffer.location(%393, %c16, %c1, %c4096, %c12288) : (memref<32x32xf32, 2>, index, index, index, index)
    %397 = adf.buffer.create @L1_L1_A_106() : memref<32x32xf32, 2>
    %398 = adf.buffer.create @L1_L1_B_106() : memref<32x32xf32, 2>
    %399 = adf.buffer.create @L1_L1_C_106() : memref<32x32xf32, 2>
    adf.connect(%arg70, %397) : (!adf.plio<In, 128>, memref<32x32xf32, 2>)
    adf.connect(%arg16, %398) : (!adf.plio<In, 128>, memref<32x32xf32, 2>)
    adf.connect(%396, %399) : (memref<32x32xf32, 2>, memref<32x32xf32, 2>)
    %400 = call @kernel_gemm(%397, %398, %399) {adf.kernel, "col, row" = [17 : index, 2 : index], ivs = [2 : index, 2 : index, 3 : index], kernel_gemm = 106 : index} : (memref<32x32xf32, 2>, memref<32x32xf32, 2>, memref<32x32xf32, 2>) -> memref<32x32xf32, 2>
    adf.buffer.location(%400, %c17, %c2, %c16384, %c24576) : (memref<32x32xf32, 2>, index, index, index, index)
    adf.buffer.location(%398, %c17, %c3, %c0, %c8192) : (memref<32x32xf32, 2>, index, index, index, index)
    adf.buffer.location(%397, %c17, %c1, %c4096, %c12288) : (memref<32x32xf32, 2>, index, index, index, index)
    %401 = adf.buffer.create @L1_L1_A_107() : memref<32x32xf32, 2>
    %402 = adf.buffer.create @L1_L1_B_107() : memref<32x32xf32, 2>
    %403 = adf.buffer.create @L1_L1_C_107() : memref<32x32xf32, 2>
    adf.connect(%arg71, %401) : (!adf.plio<In, 128>, memref<32x32xf32, 2>)
    adf.connect(%arg17, %402) : (!adf.plio<In, 128>, memref<32x32xf32, 2>)
    adf.connect(%400, %403) : (memref<32x32xf32, 2>, memref<32x32xf32, 2>)
    %404 = call @kernel_gemm(%401, %402, %403) {adf.kernel, "col, row" = [18 : index, 2 : index], ivs = [3 : index, 2 : index, 3 : index], kernel_gemm = 107 : index} : (memref<32x32xf32, 2>, memref<32x32xf32, 2>, memref<32x32xf32, 2>) -> memref<32x32xf32, 2>
    adf.buffer.location(%404, %c18, %c2, %c16384, %c24576) : (memref<32x32xf32, 2>, index, index, index, index)
    adf.buffer.location(%402, %c18, %c3, %c0, %c8192) : (memref<32x32xf32, 2>, index, index, index, index)
    adf.buffer.location(%401, %c18, %c1, %c4096, %c12288) : (memref<32x32xf32, 2>, index, index, index, index)
    adf.connect(%404, %arg74) {write = 3 : index} : (memref<32x32xf32, 2>, !adf.plio<Out, 128>)
    %405 = adf.buffer.create @L1_L1_A_108() : memref<32x32xf32, 2>
    %406 = adf.buffer.create @L1_L1_B_108() : memref<32x32xf32, 2>
    adf.connect(%arg68, %405) : (!adf.plio<In, 128>, memref<32x32xf32, 2>)
    adf.connect(%arg19, %406) : (!adf.plio<In, 128>, memref<32x32xf32, 2>)
    %407 = call @kernel_gemm0(%405, %406) {adf.kernel, "col, row" = [15 : index, 3 : index], ivs = [0 : index, 3 : index, 3 : index], kernel = 0 : index, kernel_gemm0 = 108 : index} : (memref<32x32xf32, 2>, memref<32x32xf32, 2>) -> memref<32x32xf32, 2>
    adf.buffer.location(%407, %c16, %c3, %c16384, %c24576) : (memref<32x32xf32, 2>, index, index, index, index)
    adf.buffer.location(%406, %c15, %c4, %c0, %c8192) : (memref<32x32xf32, 2>, index, index, index, index)
    adf.buffer.location(%405, %c15, %c2, %c4096, %c12288) : (memref<32x32xf32, 2>, index, index, index, index)
    %408 = adf.buffer.create @L1_L1_A_109() : memref<32x32xf32, 2>
    %409 = adf.buffer.create @L1_L1_B_109() : memref<32x32xf32, 2>
    %410 = adf.buffer.create @L1_L1_C_109() : memref<32x32xf32, 2>
    adf.connect(%arg69, %408) : (!adf.plio<In, 128>, memref<32x32xf32, 2>)
    adf.connect(%arg20, %409) : (!adf.plio<In, 128>, memref<32x32xf32, 2>)
    adf.connect(%407, %410) : (memref<32x32xf32, 2>, memref<32x32xf32, 2>)
    %411 = call @kernel_gemm(%408, %409, %410) {adf.kernel, "col, row" = [16 : index, 3 : index], ivs = [1 : index, 3 : index, 3 : index], kernel_gemm = 109 : index} : (memref<32x32xf32, 2>, memref<32x32xf32, 2>, memref<32x32xf32, 2>) -> memref<32x32xf32, 2>
    adf.buffer.location(%411, %c17, %c3, %c16384, %c24576) : (memref<32x32xf32, 2>, index, index, index, index)
    adf.buffer.location(%409, %c16, %c4, %c0, %c8192) : (memref<32x32xf32, 2>, index, index, index, index)
    adf.buffer.location(%408, %c16, %c2, %c4096, %c12288) : (memref<32x32xf32, 2>, index, index, index, index)
    %412 = adf.buffer.create @L1_L1_A_110() : memref<32x32xf32, 2>
    %413 = adf.buffer.create @L1_L1_B_110() : memref<32x32xf32, 2>
    %414 = adf.buffer.create @L1_L1_C_110() : memref<32x32xf32, 2>
    adf.connect(%arg70, %412) : (!adf.plio<In, 128>, memref<32x32xf32, 2>)
    adf.connect(%arg21, %413) : (!adf.plio<In, 128>, memref<32x32xf32, 2>)
    adf.connect(%411, %414) : (memref<32x32xf32, 2>, memref<32x32xf32, 2>)
    %415 = call @kernel_gemm(%412, %413, %414) {adf.kernel, "col, row" = [17 : index, 3 : index], ivs = [2 : index, 3 : index, 3 : index], kernel_gemm = 110 : index} : (memref<32x32xf32, 2>, memref<32x32xf32, 2>, memref<32x32xf32, 2>) -> memref<32x32xf32, 2>
    adf.buffer.location(%415, %c18, %c3, %c16384, %c24576) : (memref<32x32xf32, 2>, index, index, index, index)
    adf.buffer.location(%413, %c17, %c4, %c0, %c8192) : (memref<32x32xf32, 2>, index, index, index, index)
    adf.buffer.location(%412, %c17, %c2, %c4096, %c12288) : (memref<32x32xf32, 2>, index, index, index, index)
    %416 = adf.buffer.create @L1_L1_A_111() : memref<32x32xf32, 2>
    %417 = adf.buffer.create @L1_L1_B_111() : memref<32x32xf32, 2>
    %418 = adf.buffer.create @L1_L1_C_111() : memref<32x32xf32, 2>
    adf.connect(%arg71, %416) : (!adf.plio<In, 128>, memref<32x32xf32, 2>)
    adf.connect(%arg22, %417) : (!adf.plio<In, 128>, memref<32x32xf32, 2>)
    adf.connect(%415, %418) : (memref<32x32xf32, 2>, memref<32x32xf32, 2>)
    %419 = call @kernel_gemm(%416, %417, %418) {adf.kernel, "col, row" = [18 : index, 3 : index], ivs = [3 : index, 3 : index, 3 : index], kernel_gemm = 111 : index} : (memref<32x32xf32, 2>, memref<32x32xf32, 2>, memref<32x32xf32, 2>) -> memref<32x32xf32, 2>
    adf.buffer.location(%419, %c19, %c3, %c0, %c8192) : (memref<32x32xf32, 2>, index, index, index, index)
    adf.buffer.location(%417, %c18, %c4, %c0, %c8192) : (memref<32x32xf32, 2>, index, index, index, index)
    adf.buffer.location(%416, %c18, %c2, %c4096, %c12288) : (memref<32x32xf32, 2>, index, index, index, index)
    adf.connect(%419, %arg75) {write = 3 : index} : (memref<32x32xf32, 2>, !adf.plio<Out, 128>)
    %420 = adf.buffer.create @L1_L1_A_112() : memref<32x32xf32, 2>
    %421 = adf.buffer.create @L1_L1_B_112() : memref<32x32xf32, 2>
    adf.connect(%arg68, %420) : (!adf.plio<In, 128>, memref<32x32xf32, 2>)
    adf.connect(%arg24, %421) : (!adf.plio<In, 128>, memref<32x32xf32, 2>)
    %422 = call @kernel_gemm0(%420, %421) {adf.kernel, "col, row" = [15 : index, 4 : index], ivs = [0 : index, 4 : index, 3 : index], kernel = 0 : index, kernel_gemm0 = 112 : index} : (memref<32x32xf32, 2>, memref<32x32xf32, 2>) -> memref<32x32xf32, 2>
    adf.buffer.location(%422, %c15, %c4, %c16384, %c24576) : (memref<32x32xf32, 2>, index, index, index, index)
    adf.buffer.location(%421, %c15, %c5, %c16384, %c24576) : (memref<32x32xf32, 2>, index, index, index, index)
    adf.buffer.location(%420, %c15, %c3, %c4096, %c12288) : (memref<32x32xf32, 2>, index, index, index, index)
    %423 = adf.buffer.create @L1_L1_A_113() : memref<32x32xf32, 2>
    %424 = adf.buffer.create @L1_L1_B_113() : memref<32x32xf32, 2>
    %425 = adf.buffer.create @L1_L1_C_113() : memref<32x32xf32, 2>
    adf.connect(%arg69, %423) : (!adf.plio<In, 128>, memref<32x32xf32, 2>)
    adf.connect(%arg25, %424) : (!adf.plio<In, 128>, memref<32x32xf32, 2>)
    adf.connect(%422, %425) : (memref<32x32xf32, 2>, memref<32x32xf32, 2>)
    %426 = call @kernel_gemm(%423, %424, %425) {adf.kernel, "col, row" = [16 : index, 4 : index], ivs = [1 : index, 4 : index, 3 : index], kernel_gemm = 113 : index} : (memref<32x32xf32, 2>, memref<32x32xf32, 2>, memref<32x32xf32, 2>) -> memref<32x32xf32, 2>
    adf.buffer.location(%426, %c16, %c4, %c16384, %c24576) : (memref<32x32xf32, 2>, index, index, index, index)
    adf.buffer.location(%424, %c16, %c5, %c0, %c8192) : (memref<32x32xf32, 2>, index, index, index, index)
    adf.buffer.location(%423, %c16, %c3, %c4096, %c12288) : (memref<32x32xf32, 2>, index, index, index, index)
    %427 = adf.buffer.create @L1_L1_A_114() : memref<32x32xf32, 2>
    %428 = adf.buffer.create @L1_L1_B_114() : memref<32x32xf32, 2>
    %429 = adf.buffer.create @L1_L1_C_114() : memref<32x32xf32, 2>
    adf.connect(%arg70, %427) : (!adf.plio<In, 128>, memref<32x32xf32, 2>)
    adf.connect(%arg26, %428) : (!adf.plio<In, 128>, memref<32x32xf32, 2>)
    adf.connect(%426, %429) : (memref<32x32xf32, 2>, memref<32x32xf32, 2>)
    %430 = call @kernel_gemm(%427, %428, %429) {adf.kernel, "col, row" = [17 : index, 4 : index], ivs = [2 : index, 4 : index, 3 : index], kernel_gemm = 114 : index} : (memref<32x32xf32, 2>, memref<32x32xf32, 2>, memref<32x32xf32, 2>) -> memref<32x32xf32, 2>
    adf.buffer.location(%430, %c17, %c4, %c16384, %c24576) : (memref<32x32xf32, 2>, index, index, index, index)
    adf.buffer.location(%428, %c17, %c5, %c0, %c8192) : (memref<32x32xf32, 2>, index, index, index, index)
    adf.buffer.location(%427, %c17, %c3, %c4096, %c12288) : (memref<32x32xf32, 2>, index, index, index, index)
    %431 = adf.buffer.create @L1_L1_A_115() : memref<32x32xf32, 2>
    %432 = adf.buffer.create @L1_L1_B_115() : memref<32x32xf32, 2>
    %433 = adf.buffer.create @L1_L1_C_115() : memref<32x32xf32, 2>
    adf.connect(%arg71, %431) : (!adf.plio<In, 128>, memref<32x32xf32, 2>)
    adf.connect(%arg27, %432) : (!adf.plio<In, 128>, memref<32x32xf32, 2>)
    adf.connect(%430, %433) : (memref<32x32xf32, 2>, memref<32x32xf32, 2>)
    %434 = call @kernel_gemm(%431, %432, %433) {adf.kernel, "col, row" = [18 : index, 4 : index], ivs = [3 : index, 4 : index, 3 : index], kernel_gemm = 115 : index} : (memref<32x32xf32, 2>, memref<32x32xf32, 2>, memref<32x32xf32, 2>) -> memref<32x32xf32, 2>
    adf.buffer.location(%434, %c18, %c4, %c16384, %c24576) : (memref<32x32xf32, 2>, index, index, index, index)
    adf.buffer.location(%432, %c18, %c5, %c0, %c8192) : (memref<32x32xf32, 2>, index, index, index, index)
    adf.buffer.location(%431, %c18, %c3, %c4096, %c12288) : (memref<32x32xf32, 2>, index, index, index, index)
    adf.connect(%434, %arg76) {write = 3 : index} : (memref<32x32xf32, 2>, !adf.plio<Out, 128>)
    %435 = adf.buffer.create @L1_L1_A_116() : memref<32x32xf32, 2>
    %436 = adf.buffer.create @L1_L1_B_116() : memref<32x32xf32, 2>
    adf.connect(%arg68, %435) : (!adf.plio<In, 128>, memref<32x32xf32, 2>)
    adf.connect(%arg29, %436) : (!adf.plio<In, 128>, memref<32x32xf32, 2>)
    %437 = call @kernel_gemm0(%435, %436) {adf.kernel, "col, row" = [15 : index, 5 : index], ivs = [0 : index, 5 : index, 3 : index], kernel = 0 : index, kernel_gemm0 = 116 : index} : (memref<32x32xf32, 2>, memref<32x32xf32, 2>) -> memref<32x32xf32, 2>
    adf.buffer.location(%437, %c16, %c5, %c16384, %c24576) : (memref<32x32xf32, 2>, index, index, index, index)
    adf.buffer.location(%436, %c15, %c6, %c0, %c8192) : (memref<32x32xf32, 2>, index, index, index, index)
    adf.buffer.location(%435, %c15, %c4, %c4096, %c12288) : (memref<32x32xf32, 2>, index, index, index, index)
    %438 = adf.buffer.create @L1_L1_A_117() : memref<32x32xf32, 2>
    %439 = adf.buffer.create @L1_L1_B_117() : memref<32x32xf32, 2>
    %440 = adf.buffer.create @L1_L1_C_117() : memref<32x32xf32, 2>
    adf.connect(%arg69, %438) : (!adf.plio<In, 128>, memref<32x32xf32, 2>)
    adf.connect(%arg30, %439) : (!adf.plio<In, 128>, memref<32x32xf32, 2>)
    adf.connect(%437, %440) : (memref<32x32xf32, 2>, memref<32x32xf32, 2>)
    %441 = call @kernel_gemm(%438, %439, %440) {adf.kernel, "col, row" = [16 : index, 5 : index], ivs = [1 : index, 5 : index, 3 : index], kernel_gemm = 117 : index} : (memref<32x32xf32, 2>, memref<32x32xf32, 2>, memref<32x32xf32, 2>) -> memref<32x32xf32, 2>
    adf.buffer.location(%441, %c17, %c5, %c16384, %c24576) : (memref<32x32xf32, 2>, index, index, index, index)
    adf.buffer.location(%439, %c16, %c6, %c0, %c8192) : (memref<32x32xf32, 2>, index, index, index, index)
    adf.buffer.location(%438, %c16, %c4, %c4096, %c12288) : (memref<32x32xf32, 2>, index, index, index, index)
    %442 = adf.buffer.create @L1_L1_A_118() : memref<32x32xf32, 2>
    %443 = adf.buffer.create @L1_L1_B_118() : memref<32x32xf32, 2>
    %444 = adf.buffer.create @L1_L1_C_118() : memref<32x32xf32, 2>
    adf.connect(%arg70, %442) : (!adf.plio<In, 128>, memref<32x32xf32, 2>)
    adf.connect(%arg31, %443) : (!adf.plio<In, 128>, memref<32x32xf32, 2>)
    adf.connect(%441, %444) : (memref<32x32xf32, 2>, memref<32x32xf32, 2>)
    %445 = call @kernel_gemm(%442, %443, %444) {adf.kernel, "col, row" = [17 : index, 5 : index], ivs = [2 : index, 5 : index, 3 : index], kernel_gemm = 118 : index} : (memref<32x32xf32, 2>, memref<32x32xf32, 2>, memref<32x32xf32, 2>) -> memref<32x32xf32, 2>
    adf.buffer.location(%445, %c18, %c5, %c16384, %c24576) : (memref<32x32xf32, 2>, index, index, index, index)
    adf.buffer.location(%443, %c17, %c6, %c0, %c8192) : (memref<32x32xf32, 2>, index, index, index, index)
    adf.buffer.location(%442, %c17, %c4, %c4096, %c12288) : (memref<32x32xf32, 2>, index, index, index, index)
    %446 = adf.buffer.create @L1_L1_A_119() : memref<32x32xf32, 2>
    %447 = adf.buffer.create @L1_L1_B_119() : memref<32x32xf32, 2>
    %448 = adf.buffer.create @L1_L1_C_119() : memref<32x32xf32, 2>
    adf.connect(%arg71, %446) : (!adf.plio<In, 128>, memref<32x32xf32, 2>)
    adf.connect(%arg32, %447) : (!adf.plio<In, 128>, memref<32x32xf32, 2>)
    adf.connect(%445, %448) : (memref<32x32xf32, 2>, memref<32x32xf32, 2>)
    %449 = call @kernel_gemm(%446, %447, %448) {adf.kernel, "col, row" = [18 : index, 5 : index], ivs = [3 : index, 5 : index, 3 : index], kernel_gemm = 119 : index} : (memref<32x32xf32, 2>, memref<32x32xf32, 2>, memref<32x32xf32, 2>) -> memref<32x32xf32, 2>
    adf.buffer.location(%449, %c19, %c5, %c0, %c8192) : (memref<32x32xf32, 2>, index, index, index, index)
    adf.buffer.location(%447, %c18, %c6, %c0, %c8192) : (memref<32x32xf32, 2>, index, index, index, index)
    adf.buffer.location(%446, %c18, %c4, %c4096, %c12288) : (memref<32x32xf32, 2>, index, index, index, index)
    adf.connect(%449, %arg77) {write = 3 : index} : (memref<32x32xf32, 2>, !adf.plio<Out, 128>)
    %450 = adf.buffer.create @L1_L1_A_120() : memref<32x32xf32, 2>
    %451 = adf.buffer.create @L1_L1_B_120() : memref<32x32xf32, 2>
    adf.connect(%arg68, %450) : (!adf.plio<In, 128>, memref<32x32xf32, 2>)
    adf.connect(%arg34, %451) : (!adf.plio<In, 128>, memref<32x32xf32, 2>)
    %452 = call @kernel_gemm0(%450, %451) {adf.kernel, "col, row" = [15 : index, 6 : index], ivs = [0 : index, 6 : index, 3 : index], kernel = 0 : index, kernel_gemm0 = 120 : index} : (memref<32x32xf32, 2>, memref<32x32xf32, 2>) -> memref<32x32xf32, 2>
    adf.buffer.location(%452, %c15, %c6, %c16384, %c24576) : (memref<32x32xf32, 2>, index, index, index, index)
    adf.buffer.location(%451, %c15, %c7, %c16384, %c24576) : (memref<32x32xf32, 2>, index, index, index, index)
    adf.buffer.location(%450, %c15, %c5, %c4096, %c12288) : (memref<32x32xf32, 2>, index, index, index, index)
    %453 = adf.buffer.create @L1_L1_A_121() : memref<32x32xf32, 2>
    %454 = adf.buffer.create @L1_L1_B_121() : memref<32x32xf32, 2>
    %455 = adf.buffer.create @L1_L1_C_121() : memref<32x32xf32, 2>
    adf.connect(%arg69, %453) : (!adf.plio<In, 128>, memref<32x32xf32, 2>)
    adf.connect(%arg35, %454) : (!adf.plio<In, 128>, memref<32x32xf32, 2>)
    adf.connect(%452, %455) : (memref<32x32xf32, 2>, memref<32x32xf32, 2>)
    %456 = call @kernel_gemm(%453, %454, %455) {adf.kernel, "col, row" = [16 : index, 6 : index], ivs = [1 : index, 6 : index, 3 : index], kernel_gemm = 121 : index} : (memref<32x32xf32, 2>, memref<32x32xf32, 2>, memref<32x32xf32, 2>) -> memref<32x32xf32, 2>
    adf.buffer.location(%456, %c16, %c6, %c16384, %c24576) : (memref<32x32xf32, 2>, index, index, index, index)
    adf.buffer.location(%454, %c16, %c7, %c0, %c8192) : (memref<32x32xf32, 2>, index, index, index, index)
    adf.buffer.location(%453, %c16, %c5, %c4096, %c12288) : (memref<32x32xf32, 2>, index, index, index, index)
    %457 = adf.buffer.create @L1_L1_A_122() : memref<32x32xf32, 2>
    %458 = adf.buffer.create @L1_L1_B_122() : memref<32x32xf32, 2>
    %459 = adf.buffer.create @L1_L1_C_122() : memref<32x32xf32, 2>
    adf.connect(%arg70, %457) : (!adf.plio<In, 128>, memref<32x32xf32, 2>)
    adf.connect(%arg36, %458) : (!adf.plio<In, 128>, memref<32x32xf32, 2>)
    adf.connect(%456, %459) : (memref<32x32xf32, 2>, memref<32x32xf32, 2>)
    %460 = call @kernel_gemm(%457, %458, %459) {adf.kernel, "col, row" = [17 : index, 6 : index], ivs = [2 : index, 6 : index, 3 : index], kernel_gemm = 122 : index} : (memref<32x32xf32, 2>, memref<32x32xf32, 2>, memref<32x32xf32, 2>) -> memref<32x32xf32, 2>
    adf.buffer.location(%460, %c17, %c6, %c16384, %c24576) : (memref<32x32xf32, 2>, index, index, index, index)
    adf.buffer.location(%458, %c17, %c7, %c0, %c8192) : (memref<32x32xf32, 2>, index, index, index, index)
    adf.buffer.location(%457, %c17, %c5, %c4096, %c12288) : (memref<32x32xf32, 2>, index, index, index, index)
    %461 = adf.buffer.create @L1_L1_A_123() : memref<32x32xf32, 2>
    %462 = adf.buffer.create @L1_L1_B_123() : memref<32x32xf32, 2>
    %463 = adf.buffer.create @L1_L1_C_123() : memref<32x32xf32, 2>
    adf.connect(%arg71, %461) : (!adf.plio<In, 128>, memref<32x32xf32, 2>)
    adf.connect(%arg37, %462) : (!adf.plio<In, 128>, memref<32x32xf32, 2>)
    adf.connect(%460, %463) : (memref<32x32xf32, 2>, memref<32x32xf32, 2>)
    %464 = call @kernel_gemm(%461, %462, %463) {adf.kernel, "col, row" = [18 : index, 6 : index], ivs = [3 : index, 6 : index, 3 : index], kernel_gemm = 123 : index} : (memref<32x32xf32, 2>, memref<32x32xf32, 2>, memref<32x32xf32, 2>) -> memref<32x32xf32, 2>
    adf.buffer.location(%464, %c18, %c6, %c16384, %c24576) : (memref<32x32xf32, 2>, index, index, index, index)
    adf.buffer.location(%462, %c18, %c7, %c0, %c8192) : (memref<32x32xf32, 2>, index, index, index, index)
    adf.buffer.location(%461, %c18, %c5, %c4096, %c12288) : (memref<32x32xf32, 2>, index, index, index, index)
    adf.connect(%464, %arg78) {write = 3 : index} : (memref<32x32xf32, 2>, !adf.plio<Out, 128>)
    %465 = adf.buffer.create @L1_L1_A_124() : memref<32x32xf32, 2>
    %466 = adf.buffer.create @L1_L1_B_124() : memref<32x32xf32, 2>
    adf.connect(%arg68, %465) : (!adf.plio<In, 128>, memref<32x32xf32, 2>)
    adf.connect(%arg39, %466) : (!adf.plio<In, 128>, memref<32x32xf32, 2>)
    %467 = call @kernel_gemm0(%465, %466) {adf.kernel, "col, row" = [15 : index, 7 : index], ivs = [0 : index, 7 : index, 3 : index], kernel = 0 : index, kernel_gemm0 = 124 : index} : (memref<32x32xf32, 2>, memref<32x32xf32, 2>) -> memref<32x32xf32, 2>
    adf.buffer.location(%467, %c16, %c7, %c16384, %c24576) : (memref<32x32xf32, 2>, index, index, index, index)
    adf.buffer.location(%466, %c15, %c7, %c4096, %c12288) : (memref<32x32xf32, 2>, index, index, index, index)
    adf.buffer.location(%465, %c15, %c6, %c4096, %c12288) : (memref<32x32xf32, 2>, index, index, index, index)
    %468 = adf.buffer.create @L1_L1_A_125() : memref<32x32xf32, 2>
    %469 = adf.buffer.create @L1_L1_B_125() : memref<32x32xf32, 2>
    %470 = adf.buffer.create @L1_L1_C_125() : memref<32x32xf32, 2>
    adf.connect(%arg69, %468) : (!adf.plio<In, 128>, memref<32x32xf32, 2>)
    adf.connect(%arg40, %469) : (!adf.plio<In, 128>, memref<32x32xf32, 2>)
    adf.connect(%467, %470) : (memref<32x32xf32, 2>, memref<32x32xf32, 2>)
    %471 = call @kernel_gemm(%468, %469, %470) {adf.kernel, "col, row" = [16 : index, 7 : index], ivs = [1 : index, 7 : index, 3 : index], kernel_gemm = 125 : index} : (memref<32x32xf32, 2>, memref<32x32xf32, 2>, memref<32x32xf32, 2>) -> memref<32x32xf32, 2>
    adf.buffer.location(%471, %c17, %c7, %c16384, %c24576) : (memref<32x32xf32, 2>, index, index, index, index)
    adf.buffer.location(%469, %c16, %c7, %c4096, %c12288) : (memref<32x32xf32, 2>, index, index, index, index)
    adf.buffer.location(%468, %c16, %c6, %c4096, %c12288) : (memref<32x32xf32, 2>, index, index, index, index)
    %472 = adf.buffer.create @L1_L1_A_126() : memref<32x32xf32, 2>
    %473 = adf.buffer.create @L1_L1_B_126() : memref<32x32xf32, 2>
    %474 = adf.buffer.create @L1_L1_C_126() : memref<32x32xf32, 2>
    adf.connect(%arg70, %472) : (!adf.plio<In, 128>, memref<32x32xf32, 2>)
    adf.connect(%arg41, %473) : (!adf.plio<In, 128>, memref<32x32xf32, 2>)
    adf.connect(%471, %474) : (memref<32x32xf32, 2>, memref<32x32xf32, 2>)
    %475 = call @kernel_gemm(%472, %473, %474) {adf.kernel, "col, row" = [17 : index, 7 : index], ivs = [2 : index, 7 : index, 3 : index], kernel_gemm = 126 : index} : (memref<32x32xf32, 2>, memref<32x32xf32, 2>, memref<32x32xf32, 2>) -> memref<32x32xf32, 2>
    adf.buffer.location(%475, %c18, %c7, %c16384, %c24576) : (memref<32x32xf32, 2>, index, index, index, index)
    adf.buffer.location(%473, %c17, %c7, %c4096, %c12288) : (memref<32x32xf32, 2>, index, index, index, index)
    adf.buffer.location(%472, %c17, %c6, %c4096, %c12288) : (memref<32x32xf32, 2>, index, index, index, index)
    %476 = adf.buffer.create @L1_L1_A_127() : memref<32x32xf32, 2>
    %477 = adf.buffer.create @L1_L1_B_127() : memref<32x32xf32, 2>
    %478 = adf.buffer.create @L1_L1_C_127() : memref<32x32xf32, 2>
    adf.connect(%arg71, %476) : (!adf.plio<In, 128>, memref<32x32xf32, 2>)
    adf.connect(%arg42, %477) : (!adf.plio<In, 128>, memref<32x32xf32, 2>)
    adf.connect(%475, %478) : (memref<32x32xf32, 2>, memref<32x32xf32, 2>)
    %479 = call @kernel_gemm(%476, %477, %478) {adf.kernel, "col, row" = [18 : index, 7 : index], ivs = [3 : index, 7 : index, 3 : index], kernel_gemm = 127 : index} : (memref<32x32xf32, 2>, memref<32x32xf32, 2>, memref<32x32xf32, 2>) -> memref<32x32xf32, 2>
    adf.buffer.location(%479, %c19, %c7, %c0, %c8192) : (memref<32x32xf32, 2>, index, index, index, index)
    adf.buffer.location(%477, %c18, %c7, %c4096, %c12288) : (memref<32x32xf32, 2>, index, index, index, index)
    adf.buffer.location(%476, %c18, %c6, %c4096, %c12288) : (memref<32x32xf32, 2>, index, index, index, index)
    adf.connect(%479, %arg79) {write = 3 : index} : (memref<32x32xf32, 2>, !adf.plio<Out, 128>)
    %480 = adf.buffer.create @L1_L1_A_128() : memref<32x32xf32, 2>
    %481 = adf.buffer.create @L1_L1_B_128() : memref<32x32xf32, 2>
    adf.connect(%arg80, %480) : (!adf.plio<In, 128>, memref<32x32xf32, 2>)
…
>, memref<1xi128, "stream">, memref<1xi512, "stream2">, memref<1xi128, "stream">, memref<1xi512, "stream2">, memref<1xi128, "stream">) -> ()
    return
  }
  func.func @gemm(%arg0: memref<2816x512xi512>, %arg1: memref<8192x192xi512>, %arg2: memref<2816x192xi512>, %arg3: memref<1xi128, "plio">, %arg4: memref<1xi128, "plio">, %arg5: memref<1xi128, "plio">, %arg6: memref<1xi128, "plio">, %arg7: memref<1xi128, "plio">, %arg8: memref<1xi128, "plio">, %arg9: memref<1xi128, "plio">, %arg10: memref<1xi128, "plio">, %arg11: memref<1xi128, "plio">, %arg12: memref<1xi128, "plio">, %arg13: memref<1xi128, "plio">, %arg14: memref<1xi128, "plio">, %arg15: memref<1xi128, "plio">, %arg16: memref<1xi128, "plio">, %arg17: memref<1xi128, "plio">, %arg18: memref<1xi128, "plio">, %arg19: memref<1xi128, "plio">, %arg20: memref<1xi128, "plio">, %arg21: memref<1xi128, "plio">, %arg22: memref<1xi128, "plio">, %arg23: memref<1xi128, "plio">, %arg24: memref<1xi128, "plio">, %arg25: memref<1xi128, "plio">, %arg26: memref<1xi128, "plio">, %arg27: memref<1xi128, "plio">, %arg28: memref<1xi128, "plio">, %arg29: memref<1xi128, "plio">, %arg30: memref<1xi128, "plio">, %arg31: memref<1xi128, "plio">, %arg32: memref<1xi128, "plio">, %arg33: memref<1xi128, "plio">, %arg34: memref<1xi128, "plio">, %arg35: memref<1xi128, "plio">, %arg36: memref<1xi128, "plio">, %arg37: memref<1xi128, "plio">, %arg38: memref<1xi128, "plio">, %arg39: memref<1xi128, "plio">, %arg40: memref<1xi128, "plio">, %arg41: memref<1xi128, "plio">, %arg42: memref<1xi128, "plio">, %arg43: memref<1xi128, "plio">, %arg44: memref<1xi128, "plio">, %arg45: memref<1xi128, "plio">, %arg46: memref<1xi128, "plio">, %arg47: memref<1xi128, "plio">, %arg48: memref<1xi128, "plio">, %arg49: memref<1xi128, "plio">, %arg50: memref<1xi128, "plio">, %arg51: memref<1xi128, "plio">, %arg52: memref<1xi128, "plio">, %arg53: memref<1xi128, "plio">, %arg54: memref<1xi128, "plio">, %arg55: memref<1xi128, "plio">, %arg56: memref<1xi128, "plio">, %arg57: memref<1xi128, "plio">, %arg58: memref<1xi128, "plio">, %arg59: memref<1xi128, "plio">, %arg60: memref<1xi128, "plio">, %arg61: memref<1xi128, "plio">, %arg62: memref<1xi128, "plio">, %arg63: memref<1xi128, "plio">, %arg64: memref<1xi128, "plio">, %arg65: memref<1xi128, "plio">, %arg66: memref<1xi128, "plio">, %arg67: memref<1xi128, "plio">, %arg68: memref<1xi128, "plio">, %arg69: memref<1xi128, "plio">, %arg70: memref<1xi128, "plio">, %arg71: memref<1xi128, "plio">, %arg72: memref<1xi128, "plio">, %arg73: memref<1xi128, "plio">, %arg74: memref<1xi128, "plio">, %arg75: memref<1xi128, "plio">, %arg76: memref<1xi128, "plio">, %arg77: memref<1xi128, "plio">, %arg78: memref<1xi128, "plio">, %arg79: memref<1xi128, "plio">, %arg80: memref<1xi128, "plio">, %arg81: memref<1xi128, "plio">, %arg82: memref<1xi128, "plio">, %arg83: memref<1xi128, "plio">, %arg84: memref<1xi128, "plio">, %arg85: memref<1xi128, "plio">, %arg86: memref<1xi128, "plio">, %arg87: memref<1xi128, "plio">, %arg88: memref<1xi128, "plio">, %arg89: memref<1xi128, "plio">, %arg90: memref<1xi128, "plio">, %arg91: memref<1xi128, "plio">, %arg92: memref<1xi128, "plio">, %arg93: memref<1xi128, "plio">, %arg94: memref<1xi128, "plio">, %arg95: memref<1xi128, "plio">, %arg96: memref<1xi128, "plio">, %arg97: memref<1xi128, "plio">, %arg98: memref<1xi128, "plio">, %arg99: memref<1xi128, "plio">, %arg100: memref<1xi128, "plio">, %arg101: memref<1xi128, "plio">, %arg102: memref<1xi128, "plio">, %arg103: memref<1xi128, "plio">, %arg104: memref<1xi128, "plio">, %arg105: memref<1xi128, "plio">, %arg106: memref<1xi128, "plio">, %arg107: memref<1xi128, "plio">, %arg108: memref<1xi128, "plio">, %arg109: memref<1xi128, "plio">, %arg110: memref<1xi128, "plio">, %arg111: memref<1xi128, "plio">, %arg112: memref<1xi128, "plio">, %arg113: memref<1xi128, "plio">, %arg114: memref<1xi128, "plio">, %arg115: memref<1xi128, "plio">, %arg116: memref<1xi128, "plio">, %arg117: memref<1xi128, "plio">, %arg118: memref<1xi128, "plio">, %arg119: memref<1xi128, "plio">, %arg120: memref<1xi128, "plio">, %arg121: memref<1xi128, "plio">, %arg122: memref<1xi128, "plio">, %arg123: memref<1xi128, "plio">, %arg124: memref<1xi128, "plio">, %arg125: memref<1xi128, "plio">, %arg126: memref<1xi128, "plio">, %arg127: memref<1xi128, "plio">, %arg128: memref<1xi128, "plio">, %arg129: memref<1xi128, "plio">, %arg130: memref<1xi128, "plio">, %arg131: memref<1xi128, "plio">, %arg132: memref<1xi128, "plio">, %arg133: memref<1xi128, "plio">, %arg134: memref<1xi128, "plio">, %arg135: memref<1xi128, "plio">, %arg136: memref<1xi128, "plio">, %arg137: memref<1xi128, "plio">, %arg138: memref<1xi128, "plio">, %arg139: memref<1xi128, "plio">, %arg140: memref<1xi128, "plio">, %arg141: memref<1xi128, "plio">, %arg142: memref<1xi128, "plio">, %arg143: memref<1xi128, "plio">, %arg144: memref<1xi128, "plio">, %arg145: memref<1xi128, "plio">, %arg146: memref<1xi128, "plio">, %arg147: memref<1xi128, "plio">, %arg148: memref<1xi128, "plio">, %arg149: memref<1xi128, "plio">, %arg150: memref<1xi128, "plio">, %arg151: memref<1xi128, "plio">, %arg152: memref<1xi128, "plio">, %arg153: memref<1xi128, "plio">, %arg154: memref<1xi128, "plio">, %arg155: memref<1xi128, "plio">, %arg156: memref<1xi128, "plio">, %arg157: memref<1xi128, "plio">, %arg158: memref<1xi128, "plio">, %arg159: memref<1xi128, "plio">, %arg160: memref<1xi128, "plio">, %arg161: memref<1xi128, "plio">, %arg162: memref<1xi128, "plio">, %arg163: memref<1xi128, "plio">, %arg164: memref<1xi128, "plio">, %arg165: memref<1xi128, "plio">, %arg166: memref<1xi128, "plio">) attributes {adf.func, plio = true} {
    %0 = adf.graph.io(PLIO) : !adf.plio<Out, 128>
    adf.connect(%0, %arg142) {top_config} : (!adf.plio<Out, 128>, memref<1xi128, "plio">)
    %1 = adf.graph.io(PLIO) : !adf.plio<Out, 128>
    adf.connect(%1, %arg139) {top_config} : (!adf.plio<Out, 128>, memref<1xi128, "plio">)
    %2 = adf.graph.io(PLIO) : !adf.plio<Out, 128>
    adf.connect(%2, %arg153) {top_config} : (!adf.plio<Out, 128>, memref<1xi128, "plio">)
    %3 = adf.graph.io(PLIO) : !adf.plio<Out, 128>
    adf.connect(%3, %arg53) {top_config} : (!adf.plio<Out, 128>, memref<1xi128, "plio">)
    %4 = adf.graph.io(PLIO) : !adf.plio<Out, 128>
    adf.connect(%4, %arg24) {top_config} : (!adf.plio<Out, 128>, memref<1xi128, "plio">)
    %5 = adf.graph.io(PLIO) : !adf.plio<Out, 128>
    adf.connect(%5, %arg137) {top_config} : (!adf.plio<Out, 128>, memref<1xi128, "plio">)
    %6 = adf.graph.io(PLIO) : !adf.plio<Out, 128>
    adf.connect(%6, %arg136) {top_config} : (!adf.plio<Out, 128>, memref<1xi128, "plio">)
    %7 = adf.graph.io(PLIO) : !adf.plio<Out, 128>
    adf.connect(%7, %arg98) {top_config} : (!adf.plio<Out, 128>, memref<1xi128, "plio">)
    %8 = adf.graph.io(PLIO) : !adf.plio<In, 128>
    adf.connect(%arg73, %8) {top_config} : (memref<1xi128, "plio">, !adf.plio<In, 128>)
    %9 = adf.graph.io(PLIO) : !adf.plio<In, 128>
    adf.connect(%arg144, %9) {top_config} : (memref<1xi128, "plio">, !adf.plio<In, 128>)
    %10 = adf.graph.io(PLIO) : !adf.plio<In, 128>
    adf.connect(%arg36, %10) {top_config} : (memref<1xi128, "plio">, !adf.plio<In, 128>)
    %11 = adf.graph.io(PLIO) : !adf.plio<In, 128>
    adf.connect(%arg19, %11) {top_config} : (memref<1xi128, "plio">, !adf.plio<In, 128>)
    %12 = adf.graph.io(PLIO) : !adf.plio<Out, 128>
    adf.connect(%12, %arg33) {top_config} : (!adf.plio<Out, 128>, memref<1xi128, "plio">)
    %13 = adf.graph.io(PLIO) : !adf.plio<Out, 128>
    adf.connect(%13, %arg34) {top_config} : (!adf.plio<Out, 128>, memref<1xi128, "plio">)
    %14 = adf.graph.io(PLIO) : !adf.plio<Out, 128>
    adf.connect(%14, %arg103) {top_config} : (!adf.plio<Out, 128>, memref<1xi128, "plio">)
    %15 = adf.graph.io(PLIO) : !adf.plio<Out, 128>
    adf.connect(%15, %arg52) {top_config} : (!adf.plio<Out, 128>, memref<1xi128, "plio">)
    %16 = adf.graph.io(PLIO) : !adf.plio<Out, 128>
    adf.connect(%16, %arg141) {top_config} : (!adf.plio<Out, 128>, memref<1xi128, "plio">)
    %17 = adf.graph.io(PLIO) : !adf.plio<Out, 128>
    adf.connect(%17, %arg76) {top_config} : (!adf.plio<Out, 128>, memref<1xi128, "plio">)
    %18 = adf.graph.io(PLIO) : !adf.plio<Out, 128>
    adf.connect(%18, %arg61) {top_config} : (!adf.plio<Out, 128>, memref<1xi128, "plio">)
    %19 = adf.graph.io(PLIO) : !adf.plio<Out, 128>
    adf.connect(%19, %arg41) {top_config} : (!adf.plio<Out, 128>, memref<1xi128, "plio">)
    %20 = adf.graph.io(PLIO) : !adf.plio<In, 128>
    adf.connect(%arg116, %20) {top_config} : (memref<1xi128, "plio">, !adf.plio<In, 128>)
    %21 = adf.graph.io(PLIO) : !adf.plio<In, 128>
    adf.connect(%arg32, %21) {top_config} : (memref<1xi128, "plio">, !adf.plio<In, 128>)
    %22 = adf.graph.io(PLIO) : !adf.plio<In, 128>
    adf.connect(%arg29, %22) {top_config} : (memref<1xi128, "plio">, !adf.plio<In, 128>)
    %23 = adf.graph.io(PLIO) : !adf.plio<In, 128>
    adf.connect(%arg79, %23) {top_config} : (memref<1xi128, "plio">, !adf.plio<In, 128>)
    %24 = adf.graph.io(PLIO) : !adf.plio<Out, 128>
    adf.connect(%24, %arg50) {top_config} : (!adf.plio<Out, 128>, memref<1xi128, "plio">)
    %25 = adf.graph.io(PLIO) : !adf.plio<Out, 128>
    adf.connect(%25, %arg3) {top_config} : (!adf.plio<Out, 128>, memref<1xi128, "plio">)
    %26 = adf.graph.io(PLIO) : !adf.plio<Out, 128>
    adf.connect(%26, %arg40) {top_config} : (!adf.plio<Out, 128>, memref<1xi128, "plio">)
    %27 = adf.graph.io(PLIO) : !adf.plio<Out, 128>
    adf.connect(%27, %arg112) {top_config} : (!adf.plio<Out, 128>, memref<1xi128, "plio">)
    %28 = adf.graph.io(PLIO) : !adf.plio<Out, 128>
    adf.connect(%28, %arg151) {top_config} : (!adf.plio<Out, 128>, memref<1xi128, "plio">)
    %29 = adf.graph.io(PLIO) : !adf.plio<Out, 128>
    adf.connect(%29, %arg67) {top_config} : (!adf.plio<Out, 128>, memref<1xi128, "plio">)
    %30 = adf.graph.io(PLIO) : !adf.plio<Out, 128>
    adf.connect(%30, %arg129) {top_config} : (!adf.plio<Out, 128>, memref<1xi128, "plio">)
    %31 = adf.graph.io(PLIO) : !adf.plio<Out, 128>
    adf.connect(%31, %arg55) {top_config} : (!adf.plio<Out, 128>, memref<1xi128, "plio">)
    %32 = adf.graph.io(PLIO) : !adf.plio<In, 128>
    adf.connect(%arg82, %32) {top_config} : (memref<1xi128, "plio">, !adf.plio<In, 128>)
    %33 = adf.graph.io(PLIO) : !adf.plio<In, 128>
    adf.connect(%arg64, %33) {top_config} : (memref<1xi128, "plio">, !adf.plio<In, 128>)
    %34 = adf.graph.io(PLIO) : !adf.plio<In, 128>
    adf.connect(%arg154, %34) {top_config} : (memref<1xi128, "plio">, !adf.plio<In, 128>)
    %35 = adf.graph.io(PLIO) : !adf.plio<In, 128>
    adf.connect(%arg159, %35) {top_config} : (memref<1xi128, "plio">, !adf.plio<In, 128>)
    %36 = adf.graph.io(PLIO) : !adf.plio<Out, 128>
    adf.connect(%36, %arg152) {top_config} : (!adf.plio<Out, 128>, memref<1xi128, "plio">)
    %37 = adf.graph.io(PLIO) : !adf.plio<Out, 128>
    adf.connect(%37, %arg106) {top_config} : (!adf.plio<Out, 128>, memref<1xi128, "plio">)
    %38 = adf.graph.io(PLIO) : !adf.plio<Out, 128>
    adf.connect(%38, %arg45) {top_config} : (!adf.plio<Out, 128>, memref<1xi128, "plio">)
    %39 = adf.graph.io(PLIO) : !adf.plio<Out, 128>
    adf.connect(%39, %arg96) {top_config} : (!adf.plio<Out, 128>, memref<1xi128, "plio">)
    %40 = adf.graph.io(PLIO) : !adf.plio<Out, 128>
    adf.connect(%40, %arg132) {top_config} : (!adf.plio<Out, 128>, memref<1xi128, "plio">)
    %41 = adf.graph.io(PLIO) : !adf.plio<Out, 128>
    adf.connect(%41, %arg68) {top_config} : (!adf.plio<Out, 128>, memref<1xi128, "plio">)
    %42 = adf.graph.io(PLIO) : !adf.plio<Out, 128>
    adf.connect(%42, %arg162) {top_config} : (!adf.plio<Out, 128>, memref<1xi128, "plio">)
    %43 = adf.graph.io(PLIO) : !adf.plio<Out, 128>
    adf.connect(%43, %arg126) {top_config} : (!adf.plio<Out, 128>, memref<1xi128, "plio">)
    %44 = adf.graph.io(PLIO) : !adf.plio<In, 128>
    adf.connect(%arg93, %44) {top_config} : (memref<1xi128, "plio">, !adf.plio<In, 128>)
    %45 = adf.graph.io(PLIO) : !adf.plio<In, 128>
    adf.connect(%arg21, %45) {top_config} : (memref<1xi128, "plio">, !adf.plio<In, 128>)
    %46 = adf.graph.io(PLIO) : !adf.plio<In, 128>
    adf.connect(%arg38, %46) {top_config} : (memref<1xi128, "plio">, !adf.plio<In, 128>)
    %47 = adf.graph.io(PLIO) : !adf.plio<In, 128>
    adf.connect(%arg113, %47) {top_config} : (memref<1xi128, "plio">, !adf.plio<In, 128>)
    %48 = adf.graph.io(PLIO) : !adf.plio<Out, 128>
    adf.connect(%48, %arg90) {top_config} : (!adf.plio<Out, 128>, memref<1xi128, "plio">)
    %49 = adf.graph.io(PLIO) : !adf.plio<Out, 128>
    adf.connect(%49, %arg59) {top_config} : (!adf.plio<Out, 128>, memref<1xi128, "plio">)
    %50 = adf.graph.io(PLIO) : !adf.plio<Out, 128>
    adf.connect(%50, %arg109) {top_config} : (!adf.plio<Out, 128>, memref<1xi128, "plio">)
    %51 = adf.graph.io(PLIO) : !adf.plio<Out, 128>
    adf.connect(%51, %arg7) {top_config} : (!adf.plio<Out, 128>, memref<1xi128, "plio">)
    %52 = adf.graph.io(PLIO) : !adf.plio<Out, 128>
    adf.connect(%52, %arg46) {top_config} : (!adf.plio<Out, 128>, memref<1xi128, "plio">)
    %53 = adf.graph.io(PLIO) : !adf.plio<Out, 128>
    adf.connect(%53, %arg118) {top_config} : (!adf.plio<Out, 128>, memref<1xi128, "plio">)
    %54 = adf.graph.io(PLIO) : !adf.plio<Out, 128>
    adf.connect(%54, %arg20) {top_config} : (!adf.plio<Out, 128>, memref<1xi128, "plio">)
    %55 = adf.graph.io(PLIO) : !adf.plio<Out, 128>
    adf.connect(%55, %arg9) {top_config} : (!adf.plio<Out, 128>, memref<1xi128, "plio">)
    %56 = adf.graph.io(PLIO) : !adf.plio<In, 128>
    adf.connect(%arg51, %56) {top_config} : (memref<1xi128, "plio">, !adf.plio<In, 128>)
    %57 = adf.graph.io(PLIO) : !adf.plio<In, 128>
    adf.connect(%arg101, %57) {top_config} : (memref<1xi128, "plio">, !adf.plio<In, 128>)
    %58 = adf.graph.io(PLIO) : !adf.plio<In, 128>
    adf.connect(%arg10, %58) {top_config} : (memref<1xi128, "plio">, !adf.plio<In, 128>)
    %59 = adf.graph.io(PLIO) : !adf.plio<In, 128>
    adf.connect(%arg164, %59) {top_config} : (memref<1xi128, "plio">, !adf.plio<In, 128>)
    %60 = adf.graph.io(PLIO) : !adf.plio<Out, 128>
    adf.connect(%60, %arg92) {top_config} : (!adf.plio<Out, 128>, memref<1xi128, "plio">)
    %61 = adf.graph.io(PLIO) : !adf.plio<Out, 128>
    adf.connect(%61, %arg102) {top_config} : (!adf.plio<Out, 128>, memref<1xi128, "plio">)
    %62 = adf.graph.io(PLIO) : !adf.plio<Out, 128>
    adf.connect(%62, %arg78) {top_config} : (!adf.plio<Out, 128>, memref<1xi128, "plio">)
    %63 = adf.graph.io(PLIO) : !adf.plio<Out, 128>
    adf.connect(%63, %arg166) {top_config} : (!adf.plio<Out, 128>, memref<1xi128, "plio">)
    %64 = adf.graph.io(PLIO) : !adf.plio<Out, 128>
    adf.connect(%64, %arg140) {top_config} : (!adf.plio<Out, 128>, memref<1xi128, "plio">)
    %65 = adf.graph.io(PLIO) : !adf.plio<Out, 128>
    adf.connect(%65, %arg71) {top_config} : (!adf.plio<Out, 128>, memref<1xi128, "plio">)
    %66 = adf.graph.io(PLIO) : !adf.plio<Out, 128>
    adf.connect(%66, %arg120) {top_config} : (!adf.plio<Out, 128>, memref<1xi128, "plio">)
    %67 = adf.graph.io(PLIO) : !adf.plio<Out, 128>
    adf.connect(%67, %arg8) {top_config} : (!adf.plio<Out, 128>, memref<1xi128, "plio">)
    %68 = adf.graph.io(PLIO) : !adf.plio<In, 128>
    adf.connect(%arg47, %68) {top_config} : (memref<1xi128, "plio">, !adf.plio<In, 128>)
    %69 = adf.graph.io(PLIO) : !adf.plio<In, 128>
    adf.connect(%arg148, %69) {top_config} : (memref<1xi128, "plio">, !adf.plio<In, 128>)
    %70 = adf.graph.io(PLIO) : !adf.plio<In, 128>
    adf.connect(%arg27, %70) {top_config} : (memref<1xi128, "plio">, !adf.plio<In, 128>)
    %71 = adf.graph.io(PLIO) : !adf.plio<In, 128>
    adf.connect(%arg108, %71) {top_config} : (memref<1xi128, "plio">, !adf.plio<In, 128>)
    %72 = adf.graph.io(PLIO) : !adf.plio<Out, 128>
    adf.connect(%72, %arg39) {top_config} : (!adf.plio<Out, 128>, memref<1xi128, "plio">)
    %73 = adf.graph.io(PLIO) : !adf.plio<Out, 128>
    adf.connect(%73, %arg69) {top_config} : (!adf.plio<Out, 128>, memref<1xi128, "plio">)
    %74 = adf.graph.io(PLIO) : !adf.plio<Out, 128>
    adf.connect(%74, %arg43) {top_config} : (!adf.plio<Out, 128>, memref<1xi128, "plio">)
    %75 = adf.graph.io(PLIO) : !adf.plio<Out, 128>
    adf.connect(%75, %arg156) {top_config} : (!adf.plio<Out, 128>, memref<1xi128, "plio">)
    %76 = adf.graph.io(PLIO) : !adf.plio<Out, 128>
    adf.connect(%76, %arg84) {top_config} : (!adf.plio<Out, 128>, memref<1xi128, "plio">)
    %77 = adf.graph.io(PLIO) : !adf.plio<Out, 128>
    adf.connect(%77, %arg6) {top_config} : (!adf.plio<Out, 128>, memref<1xi128, "plio">)
    %78 = adf.graph.io(PLIO) : !adf.plio<Out, 128>
    adf.connect(%78, %arg99) {top_config} : (!adf.plio<Out, 128>, memref<1xi128, "plio">)
    %79 = adf.graph.io(PLIO) : !adf.plio<Out, 128>
    adf.connect(%79, %arg65) {top_config} : (!adf.plio<Out, 128>, memref<1xi128, "plio">)
    %80 = adf.graph.io(PLIO) : !adf.plio<In, 128>
    adf.connect(%arg158, %80) {top_config} : (memref<1xi128, "plio">, !adf.plio<In, 128>)
    %81 = adf.graph.io(PLIO) : !adf.plio<In, 128>
    adf.connect(%arg94, %81) {top_config} : (memref<1xi128, "plio">, !adf.plio<In, 128>)
    %82 = adf.graph.io(PLIO) : !adf.plio<In, 128>
    adf.connect(%arg66, %82) {top_config} : (memref<1xi128, "plio">, !adf.plio<In, 128>)
    %83 = adf.graph.io(PLIO) : !adf.plio<In, 128>
    adf.connect(%arg25, %83) {top_config} : (memref<1xi128, "plio">, !adf.plio<In, 128>)
    %84 = adf.graph.io(PLIO) : !adf.plio<Out, 128>
    adf.connect(%84, %arg125) {top_config} : (!adf.plio<Out, 128>, memref<1xi128, "plio">)
    %85 = adf.graph.io(PLIO) : !adf.plio<Out, 128>
    adf.connect(%85, %arg146) {top_config} : (!adf.plio<Out, 128>, memref<1xi128, "plio">)
    %86 = adf.graph.io(PLIO) : !adf.plio<Out, 128>
    adf.connect(%86, %arg57) {top_config} : (!adf.plio<Out, 128>, memref<1xi128, "plio">)
    %87 = adf.graph.io(PLIO) : !adf.plio<Out, 128>
    adf.connect(%87, %arg74) {top_config} : (!adf.plio<Out, 128>, memref<1xi128, "plio">)
    %88 = adf.graph.io(PLIO) : !adf.plio<Out, 128>
    adf.connect(%88, %arg49) {top_config} : (!adf.plio<Out, 128>, memref<1xi128, "plio">)
    %89 = adf.graph.io(PLIO) : !adf.plio<Out, 128>
    adf.connect(%89, %arg105) {top_config} : (!adf.plio<Out, 128>, memref<1xi128, "plio">)
    %90 = adf.graph.io(PLIO) : !adf.plio<Out, 128>
    adf.connect(%90, %arg30) {top_config} : (!adf.plio<Out, 128>, memref<1xi128, "plio">)
    %91 = adf.graph.io(PLIO) : !adf.plio<Out, 128>
    adf.connect(%91, %arg95) {top_config} : (!adf.plio<Out, 128>, memref<1xi128, "plio">)
    %92 = adf.graph.io(PLIO) : !adf.plio<In, 128>
    adf.connect(%arg58, %92) {top_config} : (memref<1xi128, "plio">, !adf.plio<In, 128>)
    %93 = adf.graph.io(PLIO) : !adf.plio<In, 128>
    adf.connect(%arg143, %93) {top_config} : (memref<1xi128, "plio">, !adf.plio<In, 128>)
    %94 = adf.graph.io(PLIO) : !adf.plio<In, 128>
    adf.connect(%arg70, %94) {top_config} : (memref<1xi128, "plio">, !adf.plio<In, 128>)
    %95 = adf.graph.io(PLIO) : !adf.plio<In, 128>
    adf.connect(%arg44, %95) {top_config} : (memref<1xi128, "plio">, !adf.plio<In, 128>)
    %96 = adf.graph.io(PLIO) : !adf.plio<Out, 128>
    adf.connect(%96, %arg60) {top_config} : (!adf.plio<Out, 128>, memref<1xi128, "plio">)
    %97 = adf.graph.io(PLIO) : !adf.plio<Out, 128>
    adf.connect(%97, %arg97) {top_config} : (!adf.plio<Out, 128>, memref<1xi128, "plio">)
    %98 = adf.graph.io(PLIO) : !adf.plio<Out, 128>
    adf.connect(%98, %arg134) {top_config} : (!adf.plio<Out, 128>, memref<1xi128, "plio">)
    %99 = adf.graph.io(PLIO) : !adf.plio<Out, 128>
    adf.connect(%99, %arg161) {top_config} : (!adf.plio<Out, 128>, memref<1xi128, "plio">)
    %100 = adf.graph.io(PLIO) : !adf.plio<Out, 128>
    adf.connect(%100, %arg18) {top_config} : (!adf.plio<Out, 128>, memref<1xi128, "plio">)
    %101 = adf.graph.io(PLIO) : !adf.plio<Out, 128>
    adf.connect(%101, %arg11) {top_config} : (!adf.plio<Out, 128>, memref<1xi128, "plio">)
    %102 = adf.graph.io(PLIO) : !adf.plio<Out, 128>
    adf.connect(%102, %arg72) {top_config} : (!adf.plio<Out, 128>, memref<1xi128, "plio">)
    %103 = adf.graph.io(PLIO) : !adf.plio<Out, 128>
    adf.connect(%103, %arg135) {top_config} : (!adf.plio<Out, 128>, memref<1xi128, "plio">)
    %104 = adf.graph.io(PLIO) : !adf.plio<In, 128>
    adf.connect(%arg14, %104) {top_config} : (memref<1xi128, "plio">, !adf.plio<In, 128>)
    %105 = adf.graph.io(PLIO) : !adf.plio<In, 128>
    adf.connect(%arg91, %105) {top_config} : (memref<1xi128, "plio">, !adf.plio<In, 128>)
    %106 = adf.graph.io(PLIO) : !adf.plio<In, 128>
    adf.connect(%arg86, %106) {top_config} : (memref<1xi128, "plio">, !adf.plio<In, 128>)
    %107 = adf.graph.io(PLIO) : !adf.plio<In, 128>
    adf.connect(%arg165, %107) {top_config} : (memref<1xi128, "plio">, !adf.plio<In, 128>)
    %108 = adf.graph.io(PLIO) : !adf.plio<Out, 128>
    adf.connect(%108, %arg147) {top_config} : (!adf.plio<Out, 128>, memref<1xi128, "plio">)
    %109 = adf.graph.io(PLIO) : !adf.plio<Out, 128>
    adf.connect(%109, %arg124) {top_config} : (!adf.plio<Out, 128>, memref<1xi128, "plio">)
    %110 = adf.graph.io(PLIO) : !adf.plio<Out, 128>
    adf.connect(%110, %arg104) {top_config} : (!adf.plio<Out, 128>, memref<1xi128, "plio">)
    %111 = adf.graph.io(PLIO) : !adf.plio<Out, 128>
    adf.connect(%111, %arg42) {top_config} : (!adf.plio<Out, 128>, memref<1xi128, "plio">)
    %112 = adf.graph.io(PLIO) : !adf.plio<Out, 128>
    adf.connect(%112, %arg22) {top_config} : (!adf.plio<Out, 128>, memref<1xi128, "plio">)
    %113 = adf.graph.io(PLIO) : !adf.plio<Out, 128>
    adf.connect(%113, %arg37) {top_config} : (!adf.plio<Out, 128>, memref<1xi128, "plio">)
    %114 = adf.graph.io(PLIO) : !adf.plio<Out, 128>
    adf.connect(%114, %arg121) {top_config} : (!adf.plio<Out, 128>, memref<1xi128, "plio">)
    %115 = adf.graph.io(PLIO) : !adf.plio<Out, 128>
    adf.connect(%115, %arg63) {top_config} : (!adf.plio<Out, 128>, memref<1xi128, "plio">)
    %116 = adf.graph.io(PLIO) : !adf.plio<In, 128>
    adf.connect(%arg5, %116) {top_config} : (memref<1xi128, "plio">, !adf.plio<In, 128>)
    %117 = adf.graph.io(PLIO) : !adf.plio<In, 128>
    adf.connect(%arg128, %117) {top_config} : (memref<1xi128, "plio">, !adf.plio<In, 128>)
    %118 = adf.graph.io(PLIO) : !adf.plio<In, 128>
    adf.connect(%arg15, %118) {top_config} : (memref<1xi128, "plio">, !adf.plio<In, 128>)
    %119 = adf.graph.io(PLIO) : !adf.plio<In, 128>
    adf.connect(%arg115, %119) {top_config} : (memref<1xi128, "plio">, !adf.plio<In, 128>)
    %120 = adf.graph.io(PLIO) : !adf.plio<Out, 128>
    adf.connect(%120, %arg145) {top_config} : (!adf.plio<Out, 128>, memref<1xi128, "plio">)
    %121 = adf.graph.io(PLIO) : !adf.plio<In, 128>
    adf.connect(%arg149, %121) {top_config} : (memref<1xi128, "plio">, !adf.plio<In, 128>)
    %122 = adf.graph.io(PLIO) : !adf.plio<In, 128>
    adf.connect(%arg131, %122) {top_config} : (memref<1xi128, "plio">, !adf.plio<In, 128>)
    %123 = adf.graph.io(PLIO) : !adf.plio<In, 128>
    adf.connect(%arg26, %123) {top_config} : (memref<1xi128, "plio">, !adf.plio<In, 128>)
    %124 = adf.graph.io(PLIO) : !adf.plio<In, 128>
    adf.connect(%arg160, %124) {top_config} : (memref<1xi128, "plio">, !adf.plio<In, 128>)
    %125 = adf.graph.io(PLIO) : !adf.plio<Out, 128>
    adf.connect(%125, %arg107) {top_config} : (!adf.plio<Out, 128>, memref<1xi128, "plio">)
    %126 = adf.graph.io(PLIO) : !adf.plio<In, 128>
    adf.connect(%arg13, %126) {top_config} : (memref<1xi128, "plio">, !adf.plio<In, 128>)
    %127 = adf.graph.io(PLIO) : !adf.plio<In, 128>
    adf.connect(%arg150, %127) {top_config} : (memref<1xi128, "plio">, !adf.plio<In, 128>)
    %128 = adf.graph.io(PLIO) : !adf.plio<In, 128>
    adf.connect(%arg130, %128) {top_config} : (memref<1xi128, "plio">, !adf.plio<In, 128>)
    %129 = adf.graph.io(PLIO) : !adf.plio<In, 128>
    adf.connect(%arg114, %129) {top_config} : (memref<1xi128, "plio">, !adf.plio<In, 128>)
    %130 = adf.graph.io(PLIO) : !adf.plio<Out, 128>
    adf.connect(%130, %arg17) {top_config} : (!adf.plio<Out, 128>, memref<1xi128, "plio">)
    %131 = adf.graph.io(PLIO) : !adf.plio<In, 128>
    adf.connect(%arg85, %131) {top_config} : (memref<1xi128, "plio">, !adf.plio<In, 128>)
    %132 = adf.graph.io(PLIO) : !adf.plio<In, 128>
    adf.connect(%arg123, %132) {top_config} : (memref<1xi128, "plio">, !adf.plio<In, 128>)
    %133 = adf.graph.io(PLIO) : !adf.plio<In, 128>
    adf.connect(%arg111, %133) {top_config} : (memref<1xi128, "plio">, !adf.plio<In, 128>)
    %134 = adf.graph.io(PLIO) : !adf.plio<In, 128>
    adf.connect(%arg138, %134) {top_config} : (memref<1xi128, "plio">, !adf.plio<In, 128>)
    %135 = adf.graph.io(PLIO) : !adf.plio<Out, 128>
    adf.connect(%135, %arg48) {top_config} : (!adf.plio<Out, 128>, memref<1xi128, "plio">)
    %136 = adf.graph.io(PLIO) : !adf.plio<In, 128>
    adf.connect(%arg56, %136) {top_config} : (memref<1xi128, "plio">, !adf.plio<In, 128>)
    %137 = adf.graph.io(PLIO) : !adf.plio<In, 128>
    adf.connect(%arg16, %137) {top_config} : (memref<1xi128, "plio">, !adf.plio<In, 128>)
    %138 = adf.graph.io(PLIO) : !adf.plio<In, 128>
    adf.connect(%arg4, %138) {top_config} : (memref<1xi128, "plio">, !adf.plio<In, 128>)
    %139 = adf.graph.io(PLIO) : !adf.plio<In, 128>
    adf.connect(%arg77, %139) {top_config} : (memref<1xi128, "plio">, !adf.plio<In, 128>)
    %140 = adf.graph.io(PLIO) : !adf.plio<Out, 128>
    adf.connect(%140, %arg119) {top_config} : (!adf.plio<Out, 128>, memref<1xi128, "plio">)
    %141 = adf.graph.io(PLIO) : !adf.plio<In, 128>
    adf.connect(%arg110, %141) {top_config} : (memref<1xi128, "plio">, !adf.plio<In, 128>)
    %142 = adf.graph.io(PLIO) : !adf.plio<In, 128>
    adf.connect(%arg117, %142) {top_config} : (memref<1xi128, "plio">, !adf.plio<In, 128>)
    %143 = adf.graph.io(PLIO) : !adf.plio<In, 128>
    adf.connect(%arg133, %143) {top_config} : (memref<1xi128, "plio">, !adf.plio<In, 128>)
    %144 = adf.graph.io(PLIO) : !adf.plio<In, 128>
    adf.connect(%arg54, %144) {top_config} : (memref<1xi128, "plio">, !adf.plio<In, 128>)
    %145 = adf.graph.io(PLIO) : !adf.plio<Out, 128>
    adf.connect(%145, %arg163) {top_config} : (!adf.plio<Out, 128>, memref<1xi128, "plio">)
    %146 = adf.graph.io(PLIO) : !adf.plio<In, 128>
    adf.connect(%arg28, %146) {top_config} : (memref<1xi128, "plio">, !adf.plio<In, 128>)
    %147 = adf.graph.io(PLIO) : !adf.plio<In, 128>
    adf.connect(%arg89, %147) {top_config} : (memref<1xi128, "plio">, !adf.plio<In, 128>)
    %148 = adf.graph.io(PLIO) : !adf.plio<In, 128>
    adf.connect(%arg23, %148) {top_config} : (memref<1xi128, "plio">, !adf.plio<In, 128>)
    %149 = adf.graph.io(PLIO) : !adf.plio<In, 128>
    adf.connect(%arg62, %149) {top_config} : (memref<1xi128, "plio">, !adf.plio<In, 128>)
    %150 = adf.graph.io(PLIO) : !adf.plio<Out, 128>
    adf.connect(%150, %arg88) {top_config} : (!adf.plio<Out, 128>, memref<1xi128, "plio">)
    %151 = adf.graph.io(PLIO) : !adf.plio<In, 128>
    adf.connect(%arg127, %151) {top_config} : (memref<1xi128, "plio">, !adf.plio<In, 128>)
    %152 = adf.graph.io(PLIO) : !adf.plio<In, 128>
    adf.connect(%arg157, %152) {top_config} : (memref<1xi128, "plio">, !adf.plio<In, 128>)
    %153 = adf.graph.io(PLIO) : !adf.plio<In, 128>
    adf.connect(%arg155, %153) {top_config} : (memref<1xi128, "plio">, !adf.plio<In, 128>)
    %154 = adf.graph.io(PLIO) : !adf.plio<In, 128>
    adf.connect(%arg12, %154) {top_config} : (memref<1xi128, "plio">, !adf.plio<In, 128>)
    %155 = adf.graph.io(PLIO) : !adf.plio<Out, 128>
    adf.connect(%155, %arg31) {top_config} : (!adf.plio<Out, 128>, memref<1xi128, "plio">)
    %156 = adf.graph.io(PLIO) : !adf.plio<In, 128>
    adf.connect(%arg81, %156) {top_config} : (memref<1xi128, "plio">, !adf.plio<In, 128>)
    %157 = adf.graph.io(PLIO) : !adf.plio<In, 128>
    adf.connect(%arg75, %157) {top_config} : (memref<1xi128, "plio">, !adf.plio<In, 128>)
    %158 = adf.graph.io(PLIO) : !adf.plio<In, 128>
    adf.connect(%arg35, %158) {top_config} : (memref<1xi128, "plio">, !adf.plio<In, 128>)
    %159 = adf.graph.io(PLIO) : !adf.plio<In, 128>
    adf.connect(%arg87, %159) {top_config} : (memref<1xi128, "plio">, !adf.plio<In, 128>)
    %160 = adf.graph.io(PLIO) : !adf.plio<In, 128>
    adf.connect(%arg80, %160) {top_config} : (memref<1xi128, "plio">, !adf.plio<In, 128>)
    %161 = adf.graph.io(PLIO) : !adf.plio<In, 128>
    adf.connect(%arg83, %161) {top_config} : (memref<1xi128, "plio">, !adf.plio<In, 128>)
    %162 = adf.graph.io(PLIO) : !adf.plio<In, 128>
    adf.connect(%arg100, %162) {top_config} : (memref<1xi128, "plio">, !adf.plio<In, 128>)
    %163 = adf.graph.io(PLIO) : !adf.plio<In, 128>
    adf.connect(%arg122, %163) {top_config} : (memref<1xi128, "plio">, !adf.plio<In, 128>)
    adf.cell.launch @adf_cell0 {
      func.call @adf_cell0(%163, %162, %161, %160, %159, %158, %157, %156, %155, %154, %153, %152, %151, %150, %149, %148, %147, %146, %145, %144, %143, %142, %141, %140, %139, %138, %137, %136, %135, %134, %133, %132, %131, %130, %129, %128, %127, %126, %125, %124, %123, %122, %121, %120, %119, %118, %117, %116, %115, %114, %113, %112, %111, %110, %109, %108, %107, %106, %105, %104, %103, %102, %101, %100, %99, %98, %97, %96, %95, %94, %93, %92, %91, %90, %89, %88, %87, %86, %85, %84, %83, %82, %81, %80, %79, %78, %77, %76, %75, %74, %73, %72, %71, %70, %69, %68, %67, %66, %65, %64, %63, %62, %61, %60, %59, %58, %57, %56, %55, %54, %53, %52, %51, %50, %49, %48, %47, %46, %45, %44, %43, %42, %41, %40, %39, %38, %37, %36, %35, %34, %33, %32, %31, %30, %29, %28, %27, %26, %25, %24, %23, %22, %21, %20, %19, %18, %17, %16, %15, %14, %13, %12, %11, %10, %9, %8, %7, %6, %5, %4, %3, %2, %1, %0) {adf.cell} : (!adf.plio<In, 128>, !adf.plio<In, 128>, !adf.plio<In, 128>, !adf.plio<In, 128>, !adf.plio<In, 128>, !adf.plio<In, 128>, !adf.plio<In, 128>, !adf.plio<In, 128>, !adf.plio<Out, 128>, !adf.plio<In, 128>, !adf.plio<In, 128>, !adf.plio<In, 128>, !adf.plio<In, 128>, !adf.plio<Out, 128>, !adf.plio<In, 128>, !adf.plio<In, 128>, !adf.plio<In, 128>, !adf.plio<In, 128>, !adf.plio<Out, 128>, !adf.plio<In, 128>, !adf.plio<In, 128>, !adf.plio<In, 128>, !adf.plio<In, 128>, !adf.plio<Out, 128>, !adf.plio<In, 128>, !adf.plio<In, 128>, !adf.plio<In, 128>, !adf.plio<In, 128>, !adf.plio<Out, 128>, !adf.plio<In, 128>, !adf.plio<In, 128>, !adf.plio<In, 128>, !adf.plio<In, 128>, !adf.plio<Out, 128>, !adf.plio<In, 128>, !adf.plio<In, 128>, !adf.plio<In, 128>, !adf.plio<In, 128>, !adf.plio<Out, 128>, !adf.plio<In, 128>, !adf.plio<In, 128>, !adf.plio<In, 128>, !adf.plio<In, 128>, !adf.plio<Out, 128>, !adf.plio<In, 128>, !adf.plio<In, 128>, !adf.plio<In, 128>, !adf.plio<In, 128>, !adf.plio<Out, 128>, !adf.plio<Out, 128>, !adf.plio<Out, 128>, !adf.plio<Out, 128>, !adf.plio<Out, 128>, !adf.plio<Out, 128>, !adf.plio<Out, 128>, !adf.plio<Out, 128>, !adf.plio<In, 128>, !adf.plio<In, 128>, !adf.plio<In, 128>, !adf.plio<In, 128>, !adf.plio<Out, 128>, !adf.plio<Out, 128>, !adf.plio<Out, 128>, !adf.plio<Out, 128>, !adf.plio<Out, 128>, !adf.plio<Out, 128>, !adf.plio<Out, 128>, !adf.plio<Out, 128>, !adf.plio<In, 128>, !adf.plio<In, 128>, !adf.plio<In, 128>, !adf.plio<In, 128>, !adf.plio<Out, 128>, !adf.plio<Out, 128>, !adf.plio<Out, 128>, !adf.plio<Out, 128>, !adf.plio<Out, 128>, !adf.plio<Out, 128>, !adf.plio<Out, 128>, !adf.plio<Out, 128>, !adf.plio<In, 128>, !adf.plio<In, 128>, !adf.plio<In, 128>, !adf.plio<In, 128>, !adf.plio<Out, 128>, !adf.plio<Out, 128>, !adf.plio<Out, 128>, !adf.plio<Out, 128>, !adf.plio<Out, 128>, !adf.plio<Out, 128>, !adf.plio<Out, 128>, !adf.plio<Out, 128>, !adf.plio<In, 128>, !adf.plio<In, 128>, !adf.plio<In, 128>, !adf.plio<In, 128>, !adf.plio<Out, 128>, !adf.plio<Out, 128>, !adf.plio<Out, 128>, !adf.plio<Out, 128>, !adf.plio<Out, 128>, !adf.plio<Out, 128>, !adf.plio<Out, 128>, !adf.plio<Out, 128>, !adf.plio<In, 128>, !adf.plio<In, 128>, !adf.plio<In, 128>, !adf.plio<In, 128>, !adf.plio<Out, 128>, !adf.plio<Out, 128>, !adf.plio<Out, 128>, !adf.plio<Out, 128>, !adf.plio<Out, 128>, !adf.plio<Out, 128>, !adf.plio<Out, 128>, !adf.plio<Out, 128>, !adf.plio<In, 128>, !adf.plio<In, 128>, !adf.plio<In, 128>, !adf.plio<In, 128>, !adf.plio<Out, 128>, !adf.plio<Out, 128>, !adf.plio<Out, 128>, !adf.plio<Out, 128>, !adf.plio<Out, 128>, !adf.plio<Out, 128>, !adf.plio<Out, 128>, !adf.plio<Out, 128>, !adf.plio<In, 128>, !adf.plio<In, 128>, !adf.plio<In, 128>, !adf.plio<In, 128>, !adf.plio<Out, 128>, !adf.plio<Out, 128>, !adf.plio<Out, 128>, !adf.plio<Out, 128>, !adf.plio<Out, 128>, !adf.plio<Out, 128>, !adf.plio<Out, 128>, !adf.plio<Out, 128>, !adf.plio<In, 128>, !adf.plio<In, 128>, !adf.plio<In, 128>, !adf.plio<In, 128>, !adf.plio<Out, 128>, !adf.plio<Out, 128>, !adf.plio<Out, 128>, !adf.plio<Out, 128>, !adf.plio<Out, 128>, !adf.plio<Out, 128>, !adf.plio<Out, 128>, !adf.plio<Out, 128>, !adf.plio<In, 128>, !adf.plio<In, 128>, !adf.plio<In, 128>, !adf.plio<In, 128>, !adf.plio<Out, 128>, !adf.plio<Out, 128>, !adf.plio<Out, 128>, !adf.plio<Out, 128>, !adf.plio<Out, 128>, !adf.plio<Out, 128>, !adf.plio<Out, 128>, !adf.plio<Out, 128>) -> ()
      adf.cell.launch.end
    }
    adf.pl.launch @gemm_pl {
      func.call @gemm_pl(%arg0, %arg1, %arg2, %arg3, %arg4, %arg5, %arg6, %arg7, %arg8, %arg9, %arg10, %arg11, %arg12, %arg13, %arg14, %arg15, %arg16, %arg17, %arg18, %arg19, %arg20, %arg21, %arg22, %arg23, %arg24, %arg25, %arg26, %arg27, %arg28, %arg29, %arg30, %arg31, %arg32, %arg33, %arg34, %arg35, %arg36, %arg37, %arg38, %arg39, %arg40, %arg41, %arg42, %arg43, %arg44, %arg45, %arg46, %arg47, %arg48, %arg49, %arg50, %arg51, %arg52, %arg53, %arg54, %arg55, %arg56, %arg57, %arg58, %arg59, %arg60, %arg61, %arg62, %arg63, %arg64, %arg65, %arg66, %arg67, %arg68, %arg69, %arg70, %arg71, %arg72, %arg73, %arg74, %arg75, %arg76, %arg77, %arg78, %arg79, %arg80, %arg81, %arg82, %arg83, %arg84, %arg85, %arg86, %arg87, %arg88, %arg89, %arg90, %arg91, %arg92, %arg93, %arg94, %arg95, %arg96, %arg97, %arg98, %arg99, %arg100, %arg101, %arg102, %arg103, %arg104, %arg105, %arg106, %arg107, %arg108, %arg109, %arg110, %arg111, %arg112, %arg113, %arg114, %arg115, %arg116, %arg117, %arg118, %arg119, %arg120, %arg121, %arg122, %arg123, %arg124, %arg125, %arg126, %arg127, %arg128, %arg129, %arg130, %arg131, %arg132, %arg133, %arg134, %arg135, %arg136, %arg137, %arg138, %arg139, %arg140, %arg141, %arg142, %arg143, %arg144, %arg145, %arg146, %arg147, %arg148, %arg149, %arg150, %arg151, %arg152, %arg153, %arg154, %arg155, %arg156, %arg157, %arg158, %arg159, %arg160, %arg161, %arg162, %arg163, %arg164, %arg165, %arg166) {adf.pl} : (memref<2816x512xi512>, memref<8192x192xi512>, memref<2816x192xi512>, memref<1xi128, "plio">, memref<1xi128, "plio">, memref<1xi128, "plio">, memref<1xi128, "plio">, memref<1xi128, "plio">, memref<1xi128, "plio">, memref<1xi128, "plio">, memref<1xi128, "plio">, memref<1xi128, "plio">, memref<1xi128, "plio">, memref<1xi128, "plio">, memref<1xi128, "plio">, memref<1xi128, "plio">, memref<1xi128, "plio">, memref<1xi128, "plio">, memref<1xi128, "plio">, memref<1xi128, "plio">, memref<1xi128, "plio">, memref<1xi128, "plio">, memref<1xi128, "plio">, memref<1xi128, "plio">, memref<1xi128, "plio">, memref<1xi128, "plio">, memref<1xi128, "plio">, memref<1xi128, "plio">, memref<1xi128, "plio">, memref<1xi128, "plio">, memref<1xi128, "plio">, memref<1xi128, "plio">, memref<1xi128, "plio">, memref<1xi128, "plio">, memref<1xi128, "plio">, memref<1xi128, "plio">, memref<1xi128, "plio">, memref<1xi128, "plio">, memref<1xi128, "plio">, memref<1xi128, "plio">, memref<1xi128, "plio">, memref<1xi128, "plio">, memref<1xi128, "plio">, memref<1xi128, "plio">, memref<1xi128, "plio">, memref<1xi128, "plio">, memref<1xi128, "plio">, memref<1xi128, "plio">, memref<1xi128, "plio">, memref<1xi128, "plio">, memref<1xi128, "plio">, memref<1xi128, "plio">, memref<1xi128, "plio">, memref<1xi128, "plio">, memref<1xi128, "plio">, memref<1xi128, "plio">, memref<1xi128, "plio">, memref<1xi128, "plio">, memref<1xi128, "plio">, memref<1xi128, "plio">, memref<1xi128, "plio">, memref<1xi128, "plio">, memref<1xi128, "plio">, memref<1xi128, "plio">, memref<1xi128, "plio">, memref<1xi128, "plio">, memref<1xi128, "plio">, memref<1xi128, "plio">, memref<1xi128, "plio">, memref<1xi128, "plio">, memref<1xi128, "plio">, memref<1xi128, "plio">, memref<1xi128, "plio">, memref<1xi128, "plio">, memref<1xi128, "plio">, memref<1xi128, "plio">, memref<1xi128, "plio">, memref<1xi128, "plio">, memref<1xi128, "plio">, memref<1xi128, "plio">, memref<1xi128, "plio">, memref<1xi128, "plio">, memref<1xi128, "plio">, memref<1xi128, "plio">, memref<1xi128, "plio">, memref<1xi128, "plio">, memref<1xi128, "plio">, memref<1xi128, "plio">, memref<1xi128, "plio">, memref<1xi128, "plio">, memref<1xi128, "plio">, memref<1xi128, "plio">, memref<1xi128, "plio">, memref<1xi128, "plio">, memref<1xi128, "plio">, memref<1xi128, "plio">, memref<1xi128, "plio">, memref<1xi128, "plio">, memref<1xi128, "plio">, memref<1xi128, "plio">, memref<1xi128, "plio">, memref<1xi128, "plio">, memref<1xi128, "plio">, memref<1xi128, "plio">, memref<1xi128, "plio">, memref<1xi128, "plio">, memref<1xi128, "plio">, memref<1xi128, "plio">, memref<1xi128, "plio">, memref<1xi128, "plio">, memref<1xi128, "plio">, memref<1xi128, "plio">, memref<1xi128, "plio">, memref<1xi128, "plio">, memref<1xi128, "plio">, memref<1xi128, "plio">, memref<1xi128, "plio">, memref<1xi128, "plio">, memref<1xi128, "plio">, memref<1xi128, "plio">, memref<1xi128, "plio">, memref<1xi128, "plio">, memref<1xi128, "plio">, memref<1xi128, "plio">, memref<1xi128, "plio">, memref<1xi128, "plio">, memref<1xi128, "plio">, memref<1xi128, "plio">, memref<1xi128, "plio">, memref<1xi128, "plio">, memref<1xi128, "plio">, memref<1xi128, "plio">, memref<1xi128, "plio">, memref<1xi128, "plio">, memref<1xi128, "plio">, memref<1xi128, "plio">, memref<1xi128, "plio">, memref<1xi128, "plio">, memref<1xi128, "plio">, memref<1xi128, "plio">, memref<1xi128, "plio">, memref<1xi128, "plio">, memref<1xi128, "plio">, memref<1xi128, "plio">, memref<1xi128, "plio">, memref<1xi128, "plio">, memref<1xi128, "plio">, memref<1xi128, "plio">, memref<1xi128, "plio">, memref<1xi128, "plio">, memref<1xi128, "plio">, memref<1xi128, "plio">, memref<1xi128, "plio">, memref<1xi128, "plio">, memref<1xi128, "plio">, memref<1xi128, "plio">, memref<1xi128, "plio">, memref<1xi128, "plio">, memref<1xi128, "plio">, memref<1xi128, "plio">, memref<1xi128, "plio">, memref<1xi128, "plio">, memref<1xi128, "plio">, memref<1xi128, "plio">, memref<1xi128, "plio">, memref<1xi128, "plio">, memref<1xi128, "plio">) -> ()
      adf.pl.launch.wait
    }
    return
  }
  func.func @top(%arg0: memref<2816x512xi512>, %arg1: memref<8192x192xi512>, %arg2: memref<2816x192xi512>, %arg3: memref<1xi128, "plio">, %arg4: memref<1xi128, "plio">, %arg5: memref<1xi128, "plio">, %arg6: memref<1xi128, "plio">, %arg7: memref<1xi128, "plio">, %arg8: memref<1xi128, "plio">, %arg9: memref<1xi128, "plio">, %arg10: memref<1xi128, "plio">, %arg11: memref<1xi128, "plio">, %arg12: memref<1xi128, "plio">, %arg13: memref<1xi128, "plio">, %arg14: memref<1xi128, "plio">, %arg15: memref<1xi128, "plio">, %arg16: memref<1xi128, "plio">, %arg17: memref<1xi128, "plio">, %arg18: memref<1xi128, "plio">, %arg19: memref<1xi128, "plio">, %arg20: memref<1xi128, "plio">, %arg21: memref<1xi128, "plio">, %arg22: memref<1xi128, "plio">, %arg23: memref<1xi128, "plio">, %arg24: memref<1xi128, "plio">, %arg25: memref<1xi128, "plio">, %arg26: memref<1xi128, "plio">, %arg27: memref<1xi128, "plio">, %arg28: memref<1xi128, "plio">, %arg29: memref<1xi128, "plio">, %arg30: memref<1xi128, "plio">, %arg31: memref<1xi128, "plio">, %arg32: memref<1xi128, "plio">, %arg33: memref<1xi128, "plio">, %arg34: memref<1xi128, "plio">, %arg35: memref<1xi128, "plio">, %arg36: memref<1xi128, "plio">, %arg37: memref<1xi128, "plio">, %arg38: memref<1xi128, "plio">, %arg39: memref<1xi128, "plio">, %arg40: memref<1xi128, "plio">, %arg41: memref<1xi128, "plio">, %arg42: memref<1xi128, "plio">, %arg43: memref<1xi128, "plio">, %arg44: memref<1xi128, "plio">, %arg45: memref<1xi128, "plio">, %arg46: memref<1xi128, "plio">, %arg47: memref<1xi128, "plio">, %arg48: memref<1xi128, "plio">, %arg49: memref<1xi128, "plio">, %arg50: memref<1xi128, "plio">, %arg51: memref<1xi128, "plio">, %arg52: memref<1xi128, "plio">, %arg53: memref<1xi128, "plio">, %arg54: memref<1xi128, "plio">, %arg55: memref<1xi128, "plio">, %arg56: memref<1xi128, "plio">, %arg57: memref<1xi128, "plio">, %arg58: memref<1xi128, "plio">, %arg59: memref<1xi128, "plio">, %arg60: memref<1xi128, "plio">, %arg61: memref<1xi128, "plio">, %arg62: memref<1xi128, "plio">, %arg63: memref<1xi128, "plio">, %arg64: memref<1xi128, "plio">, %arg65: memref<1xi128, "plio">, %arg66: memref<1xi128, "plio">, %arg67: memref<1xi128, "plio">, %arg68: memref<1xi128, "plio">, %arg69: memref<1xi128, "plio">, %arg70: memref<1xi128, "plio">, %arg71: memref<1xi128, "plio">, %arg72: memref<1xi128, "plio">, %arg73: memref<1xi128, "plio">, %arg74: memref<1xi128, "plio">, %arg75: memref<1xi128, "plio">, %arg76: memref<1xi128, "plio">, %arg77: memref<1xi128, "plio">, %arg78: memref<1xi128, "plio">, %arg79: memref<1xi128, "plio">, %arg80: memref<1xi128, "plio">, %arg81: memref<1xi128, "plio">, %arg82: memref<1xi128, "plio">, %arg83: memref<1xi128, "plio">, %arg84: memref<1xi128, "plio">, %arg85: memref<1xi128, "plio">, %arg86: memref<1xi128, "plio">, %arg87: memref<1xi128, "plio">, %arg88: memref<1xi128, "plio">, %arg89: memref<1xi128, "plio">, %arg90: memref<1xi128, "plio">, %arg91: memref<1xi128, "plio">, %arg92: memref<1xi128, "plio">, %arg93: memref<1xi128, "plio">, %arg94: memref<1xi128, "plio">, %arg95: memref<1xi128, "plio">, %arg96: memref<1xi128, "plio">, %arg97: memref<1xi128, "plio">, %arg98: memref<1xi128, "plio">, %arg99: memref<1xi128, "plio">, %arg100: memref<1xi128, "plio">, %arg101: memref<1xi128, "plio">, %arg102: memref<1xi128, "plio">, %arg103: memref<1xi128, "plio">, %arg104: memref<1xi128, "plio">, %arg105: memref<1xi128, "plio">, %arg106: memref<1xi128, "plio">, %arg107: memref<1xi128, "plio">, %arg108: memref<1xi128, "plio">, %arg109: memref<1xi128, "plio">, %arg110: memref<1xi128, "plio">, %arg111: memref<1xi128, "plio">, %arg112: memref<1xi128, "plio">, %arg113: memref<1xi128, "plio">, %arg114: memref<1xi128, "plio">, %arg115: memref<1xi128, "plio">, %arg116: memref<1xi128, "plio">, %arg117: memref<1xi128, "plio">, %arg118: memref<1xi128, "plio">, %arg119: memref<1xi128, "plio">, %arg120: memref<1xi128, "plio">, %arg121: memref<1xi128, "plio">, %arg122: memref<1xi128, "plio">, %arg123: memref<1xi128, "plio">, %arg124: memref<1xi128, "plio">, %arg125: memref<1xi128, "plio">, %arg126: memref<1xi128, "plio">, %arg127: memref<1xi128, "plio">, %arg128: memref<1xi128, "plio">, %arg129: memref<1xi128, "plio">, %arg130: memref<1xi128, "plio">, %arg131: memref<1xi128, "plio">, %arg132: memref<1xi128, "plio">, %arg133: memref<1xi128, "plio">, %arg134: memref<1xi128, "plio">, %arg135: memref<1xi128, "plio">, %arg136: memref<1xi128, "plio">, %arg137: memref<1xi128, "plio">, %arg138: memref<1xi128, "plio">, %arg139: memref<1xi128, "plio">, %arg140: memref<1xi128, "plio">, %arg141: memref<1xi128, "plio">, %arg142: memref<1xi128, "plio">, %arg143: memref<1xi128, "plio">, %arg144: memref<1xi128, "plio">, %arg145: memref<1xi128, "plio">, %arg146: memref<1xi128, "plio">, %arg147: memref<1xi128, "plio">, %arg148: memref<1xi128, "plio">, %arg149: memref<1xi128, "plio">, %arg150: memref<1xi128, "plio">, %arg151: memref<1xi128, "plio">, %arg152: memref<1xi128, "plio">, %arg153: memref<1xi128, "plio">, %arg154: memref<1xi128, "plio">, %arg155: memref<1xi128, "plio">, %arg156: memref<1xi128, "plio">, %arg157: memref<1xi128, "plio">, %arg158: memref<1xi128, "plio">, %arg159: memref<1xi128, "plio">, %arg160: memref<1xi128, "plio">, %arg161: memref<1xi128, "plio">, %arg162: memref<1xi128, "plio">, %arg163: memref<1xi128, "plio">, %arg164: memref<1xi128, "plio">, %arg165: memref<1xi128, "plio">, %arg166: memref<1xi128, "plio">) attributes {outArgs = [2 : i32], top_func = "plio"} {
    call @gemm_pl(%arg0, %arg1, %arg2, %arg3, %arg4, %arg5, %arg6, %arg7, %arg8, %arg9, %arg10, %arg11, %arg12, %arg13, %arg14, %arg15, %arg16, %arg17, %arg18, %arg19, %arg20, %arg21, %arg22, %arg23, %arg24, %arg25, %arg26, %arg27, %arg28, %arg29, %arg30, %arg31, %arg32, %arg33, %arg34, %arg35, %arg36, %arg37, %arg38, %arg39, %arg40, %arg41, %arg42, %arg43, %arg44, %arg45, %arg46, %arg47, %arg48, %arg49, %arg50, %arg51, %arg52, %arg53, %arg54, %arg55, %arg56, %arg57, %arg58, %arg59, %arg60, %arg61, %arg62, %arg63, %arg64, %arg65, %arg66, %arg67, %arg68, %arg69, %arg70, %arg71, %arg72, %arg73, %arg74, %arg75, %arg76, %arg77, %arg78, %arg79, %arg80, %arg81, %arg82, %arg83, %arg84, %arg85, %arg86, %arg87, %arg88, %arg89, %arg90, %arg91, %arg92, %arg93, %arg94, %arg95, %arg96, %arg97, %arg98, %arg99, %arg100, %arg101, %arg102, %arg103, %arg104, %arg105, %arg106, %arg107, %arg108, %arg109, %arg110, %arg111, %arg112, %arg113, %arg114, %arg115, %arg116, %arg117, %arg118, %arg119, %arg120, %arg121, %arg122, %arg123, %arg124, %arg125, %arg126, %arg127, %arg128, %arg129, %arg130, %arg131, %arg132, %arg133, %arg134, %arg135, %arg136, %arg137, %arg138, %arg139, %arg140, %arg141, %arg142, %arg143, %arg144, %arg145, %arg146, %arg147, %arg148, %arg149, %arg150, %arg151, %arg152, %arg153, %arg154, %arg155, %arg156, %arg157, %arg158, %arg159, %arg160, %arg161, %arg162, %arg163, %arg164, %arg165, %arg166) : (memref<2816x512xi512>, memref<8192x192xi512>, memref<2816x192xi512>, memref<1xi128, "plio">, memref<1xi128, "plio">, memref<1xi128, "plio">, memref<1xi128, "plio">, memref<1xi128, "plio">, memref<1xi128, "plio">, memref<1xi128, "plio">, memref<1xi128, "plio">, memref<1xi128, "plio">, memref<1xi128, "plio">, memref<1xi128, "plio">, memref<1xi128, "plio">, memref<1xi128, "plio">, memref<1xi128, "plio">, memref<1xi128, "plio">, memref<1xi128, "plio">, memref<1xi128, "plio">, memref<1xi128, "plio">, memref<1xi128, "plio">, memref<1xi128, "plio">, memref<1xi128, "plio">, memref<1xi128, "plio">, memref<1xi128, "plio">, memref<1xi128, "plio">, memref<1xi128, "plio">, memref<1xi128, "plio">, memref<1xi128, "plio">, memref<1xi128, "plio">, memref<1xi128, "plio">, memref<1xi128, "plio">, memref<1xi128, "plio">, memref<1xi128, "plio">, memref<1xi128, "plio">, memref<1xi128, "plio">, memref<1xi128, "plio">, memref<1xi128, "plio">, memref<1xi128, "plio">, memref<1xi128, "plio">, memref<1xi128, "plio">, memref<1xi128, "plio">, memref<1xi128, "plio">, memref<1xi128, "plio">, memref<1xi128, "plio">, memref<1xi128, "plio">, memref<1xi128, "plio">, memref<1xi128, "plio">, memref<1xi128, "plio">, memref<1xi128, "plio">, memref<1xi128, "plio">, memref<1xi128, "plio">, memref<1xi128, "plio">, memref<1xi128, "plio">, memref<1xi128, "plio">, memref<1xi128, "plio">, memref<1xi128, "plio">, memref<1xi128, "plio">, memref<1xi128, "plio">, memref<1xi128, "plio">, memref<1xi128, "plio">, memref<1xi128, "plio">, memref<1xi128, "plio">, memref<1xi128, "plio">, memref<1xi128, "plio">, memref<1xi128, "plio">, memref<1xi128, "plio">, memref<1xi128, "plio">, memref<1xi128, "plio">, memref<1xi128, "plio">, memref<1xi128, "plio">, memref<1xi128, "plio">, memref<1xi128, "plio">, memref<1xi128, "plio">, memref<1xi128, "plio">, memref<1xi128, "plio">, memref<1xi128, "plio">, memref<1xi128, "plio">, memref<1xi128, "plio">, memref<1xi128, "plio">, memref<1xi128, "plio">, memref<1xi128, "plio">, memref<1xi128, "plio">, memref<1xi128, "plio">, memref<1xi128, "plio">, memref<1xi128, "plio">, memref<1xi128, "plio">, memref<1xi128, "plio">, memref<1xi128, "plio">, memref<1xi128, "plio">, memref<1xi128, "plio">, memref<1xi128, "plio">, memref<1xi128, "plio">, memref<1xi128, "plio">, memref<1xi128, "plio">, memref<1xi128, "plio">, memref<1xi128, "plio">, memref<1xi128, "plio">, memref<1xi128, "plio">, memref<1xi128, "plio">, memref<1xi128, "plio">, memref<1xi128, "plio">, memref<1xi128, "plio">, memref<1xi128, "plio">, memref<1xi128, "plio">, memref<1xi128, "plio">, memref<1xi128, "plio">, memref<1xi128, "plio">, memref<1xi128, "plio">, memref<1xi128, "plio">, memref<1xi128, "plio">, memref<1xi128, "plio">, memref<1xi128, "plio">, memref<1xi128, "plio">, memref<1xi128, "plio">, memref<1xi128, "plio">, memref<1xi128, "plio">, memref<1xi128, "plio">, memref<1xi128, "plio">, memref<1xi128, "plio">, memref<1xi128, "plio">, memref<1xi128, "plio">, memref<1xi128, "plio">, memref<1xi128, "plio">, memref<1xi128, "plio">, memref<1xi128, "plio">, memref<1xi128, "plio">, memref<1xi128, "plio">, memref<1xi128, "plio">, memref<1xi128, "plio">, memref<1xi128, "plio">, memref<1xi128, "plio">, memref<1xi128, "plio">, memref<1xi128, "plio">, memref<1xi128, "plio">, memref<1xi128, "plio">, memref<1xi128, "plio">, memref<1xi128, "plio">, memref<1xi128, "plio">, memref<1xi128, "plio">, memref<1xi128, "plio">, memref<1xi128, "plio">, memref<1xi128, "plio">, memref<1xi128, "plio">, memref<1xi128, "plio">, memref<1xi128, "plio">, memref<1xi128, "plio">, memref<1xi128, "plio">, memref<1xi128, "plio">, memref<1xi128, "plio">, memref<1xi128, "plio">, memref<1xi128, "plio">, memref<1xi128, "plio">, memref<1xi128, "plio">, memref<1xi128, "plio">, memref<1xi128, "plio">, memref<1xi128, "plio">, memref<1xi128, "plio">, memref<1xi128, "plio">, memref<1xi128, "plio">, memref<1xi128, "plio">, memref<1xi128, "plio">, memref<1xi128, "plio">, memref<1xi128, "plio">, memref<1xi128, "plio">, memref<1xi128, "plio">) -> ()
    return
  }
  func.func private @gemm_host(memref<2816x8192xf32>, memref<8192x3072xf32>, memref<2816x3072xf32>) attributes {origin_func = "gemm"}
  func.func @top_host(%arg0: memref<2816x8192xf32>, %arg1: memref<8192x3072xf32>, %arg2: memref<2816x3072xf32>) attributes {origin_func = "top", outArgs = [2 : i32], top_host} {
    call @gemm_host(%arg0, %arg1, %arg2) {origin_func = "gemm"} : (memref<2816x8192xf32>, memref<8192x3072xf32>, memref<2816x3072xf32>) -> ()
    return
  }
}

